path-planning/drone-path-planning-ppo-dynamics/models/ppo_model_episode_2000.pth (torch, 344149 bytes, 17 tensors)

feature.0.weight f4 [128, 7]
00000000: 8805 54be 3fec 4ebe 36cb bf3e d565 8e3e
00000010: 4b1d 65bd f866 903e a007 85bd e4f5 bd3e
00000020: dbfb a43e 4325 c5bd e14a b23e c21b 833e
00000030: 056f 7b3e 9071 123e e659 2ebe 013f 0fbd
00000040: cf45 8b3d 84bd 423b 6efb 033d 7f62 143d
00000050: 98c0 11be 3a1e 863e f3ee 133e e1d3 efbb
00000060: f92d c13e 324c 2c3e 091c a63e 0e32 d63e
00000070: d35c 583e f478 9a3e f8ff 99be dcd6 9b3e
00000080: 4410 64be 6a1a b63e 03a2 98be c943 8bbe
00000090: d5c7 16be 7fb0 35bd 4312 b63d d6c7 7f3e
000000a0: c59f 6b3e 5f96 5c3e b250 a43e 7772 c2be
000000b0: 3953 4fbe 91dd 57be 9a19 eebd 72e6 be3e
000000c0: b131 7f3e f16d a1be 0a74 7dbd 632f 983e
000000d0: 5661 6dbd 96d3 b43e d842 6fbe 56d1 42bd
000000e0: 0c1d a7be 2214 99be d033 12bc 10ba 5ebd
000000f0: 138c bebe 6739 063e 71f5 1f3e dc2d 99be
00000100: 9093 9e3e 4fbf 133e 6cdf b4be 1227 4abd
00000110: 4730 b1be fae7 323e 36ba afbe e904 7f3e
00000120: c08b bd3d 0132 363e 1c7a d9bc d786 a93d
00000130: 32b7 5c3e dd09 943d 6af9 b53e ee58 973d
00000140: f81b 95be 1e1e 90be 23c3 923e ae51 3fbe
00000150: eecd a13c 7aee a13e 023d 99bd 3ae4 c3be
00000160: 3d39 b8be 4b29 733d e766 613e 51e1 1d3e
00000170: 08f2 a2be a931 74be 645d 4ebe be46 5b3e
00000180: c8d7 64be 04c2 7b3d fae8 5bbd bce6 c4be
00000190: 367e 7abe 291f 6d3e c2b8 7bbd 71d9 d83c
000001a0: caa2 573c 9281 c6be 7e9a b83e 0598 9c3e
000001b0: b745 23be 218a 86be 5b84 b43d 70fb 6abd
000001c0: ed05 30bd c55b 4ebd 748a 95be 91b9 12be
000001d0: ba6c 26be 2302 7bbe 2f72 1e3e 0d0d 673e
000001e0: 69f8 823d 50ac fa3d 743c 613e 5054 cb3d
000001f0: eb46 4fbe 2aee 42be 3e1b 5bbe b25a 85be
00000200: d242 b6be 2ccd 823e 409c 443e 1a8a 90be
00000210: 5049 073d f8ce fa3d 2d26 00be 5313 08be
00000220: fb77 793e a656 28be 0d95 debd a495 733e
00000230: d600 9d3d ed26 823e 28c9 6c3e 7c18 65be
00000240: 3a90 f0bd 96c7 533e 2097 793e 8c84 b23e
00000250: aa25 863e 4cd3 a9bd bf27 e43b 415c 5c3d
00000260: 6f74 febb 152e 8dbe e714 8c3e a6c1 8ebe
00000270: 1bb2 7f3e 3c6e 173e 732f 9fbd 93e9 b2be
00000280: b396 5fbd 6d6a 493e 7ce8 a8be a99a 96be
00000290: 44e8 25bd bd07 5cbd 34eb 9ebe f8a1 abbe
000002a0: e2be bbbe 2e73 773e 7a35 473b 30d4 473e
000002b0: 87c5 fbbd 0de2 903e 7a93 053e a87f c93e
000002c0: 06af 0ebd d2a3 bdbe a545 4f3d fe0c 8ebe
000002d0: aef4 8d3e 3a6f c53e 09c6 8abe c08f 2cbe
000002e0: b3bb a7bc 64d7 b63e baf3 e63c b315 66bb
000002f0: 3a84 3abe b5a8 babe 1f97 debd 4a63 fa3d
00000300: abac 493e 8471 a83e 2fc5 293d a6fc c03e
00000310: 38fa 9cbd 38c9 5e3e 141b b1be bb71 9fbe
00000320: 754f 623e cbb3 ba3d 3ee0 003e bec7 613e
00000330: 8893 abbe 9ebc 683e 5b81 4cbe c0ff 79bd
00000340: e02f 8a3d 2cd4 3d3a abcd ed3d 48e9 c43d
00000350: 7459 12be a49b ab3d cff4 123d e02a 8ebe
00000360: 971b 5d3e 1a39 66be 21e6 b0be 8765 80be
00000370: 23fa 253e f09e 6dbd 92e1 f3bd cafb 0ebe
00000380: 690f 1fbe c90e 43be 0e13 8c3d 7468 ad3e
00000390: 3c17 383e 98ee a93c 883c 8d3e b708 e2bc
000003a0: f108 b0be 20a8 cfbd 8cdb 2b3e 6448 6fbc
000003b0: 00b8 77be bca5 37bd b2b1 353e 4452 8fbe
000003c0: 48df 1b3d 8f07 03be 7c48 d53c df7d a6be
000003d0: 34ef c7be 0ad2 1abe 69b8 b5be e7be 3fbe
000003e0: 4ae9 9bbd 64d9 b5be a1be 59bd a81c 2f3e
000003f0: a2da ac3e 9282 26be 7308 ccbd e2b6 a33e
-0.20705235 -0.20207308 0.37459725 0.27812067 -0.05593614 0.2820356 -0.06495595 0.37101662
0.322234 -0.09626248 0.34822753 0.25607115 0.2455407 0.14301133 -0.17026481 -0.034972195
0.06800424 0.002971501 0.032222204 0.036226746 -0.14233625 0.26194936 0.1444662 -0.007318959
0.37730387 0.16825941 0.32443264 0.41835064 0.2112916 0.30170405 -0.300781 0.30437362
-0.2227183 0.35567027 -0.29811105 -0.27200153 -0.14724667 -0.044357773 0.08890202 0.24978575
0.23010166 0.21541737 0.32092816 -0.37977955 -0.2024659 -0.21080615 -0.11625977 0.3728519
0.249213 -0.3152919 -0.06187824 0.29723653 -0.057954155 0.35317677 -0.23365343 -0.04756292
-0.32639349 -0.29898173 -0.008923486 -0.05437666 -0.37216243 0.13107835 0.15620972 -0.299178
0.30971956 0.14428447 -0.35326707 -0.049353667 -0.34607145 0.17471305 -0.34321755 0.24904217
0.09255171 0.17792512 -0.026547484 0.08277672 0.21554258 0.07228444 0.3554185 0.07390009
-0.291229 -0.28147978 0.28664503 -0.18683502 0.019751515 0.31627256 -0.074823394 -0.3826006
-0.3598117 0.059365552 0.2201191 0.15417983 -0.3182528 -0.23847069 -0.20152813 0.21413705
-0.22347939 0.061464325 -0.05368898 -0.38457286 -0.24462208 0.23156418 -0.061455496 0.026470872
0.0131613705 -0.3877073 0.36055368 0.30584732 -0.15944563 -0.2627726 0.08814307 -0.057368696
-0.0429744 -0.050380487 -0.29207194 -0.143286 -0.16252413 -0.24512534 0.15473245 0.22563572
0.06395037 0.12239897 0.21995717 0.09928191 -0.20241897 -0.19036165 -0.21397111 -0.26045758
-0.35597855 0.2554716 0.1920023 -0.28230363 0.0330289 0.122465074 -0.12514563 -0.13288622
0.24362175 -0.16439304 -0.10868273 0.23787552 0.07666175 0.25420323 0.2312361 -0.22372621
-0.11746259 0.20681605 0.24374056 0.3486675 0.2620061 -0.08292255 0.006962746 0.053798918
-0.007765345 -0.2757422 0.27359697 -0.27882117 0.24970286 0.14788145 -0.07772722 -0.34943828
-0.054587077 0.19669504 -0.32989872 -0.2941487 -0.04050471 -0.053718317 -0.3103882 -0.3352201
-0.3666907 0.24165031 0.0030396865 0.19514537 -0.12293535 0.28297463 0.13044539 0.39355206
-0.034834884 -0.37039047 0.050603528 -0.27744287 0.27725738 0.38561422 -0.27104214 -0.16851711
-0.020475244 0.35711205 0.02819239 -0.0035108149 -0.18214503 -0.36456838 -0.10868668 0.12225969
0.19694774 0.32899106 0.041447815 0.37692755 -0.07664913 0.21756446 -0.3459097 -0.31141457
0.22100623 0.09116324 0.12585542 0.22048852 -0.33510995 0.22728202 -0.1997122 -0.061034918
0.06747413 0.0007241394 0.11611494 0.09614807 -0.14291936 0.083792955 0.035878 -0.27767086
0.21592556 -0.2248272 -0.34550574 -0.2507746 0.16208701 -0.058012903 -0.119082585 -0.13963237
-0.15533222 -0.19048609 0.06839572 0.33868754 0.17977613 0.020743653 0.27585244 -0.027592046
-0.34381822 -0.10139489 0.16782969 -0.014604662 -0.24191284 -0.04483579 0.17743567 -0.2799245
0.038054734 -0.12795852 0.02603554 -0.32517907 -0.39049685 -0.15119186 -0.35492256 -0.18725167
-0.07612856 -0.35517418 -0.053160314 0.17100775 0.33760554 -0.16260746 -0.09962549 0.31975466

feature.0.bias f4 [128]
00000000: 4e6f acbe 7c26 0cbd fc84 a53e ace4 b4be
00000010: db2c 43be c6c1 453d 531a 8a3e b4f5 823e
00000020: 9934 bb3e 47c3 08be b6f8 66be 369d 8dbc
00000030: 2ae2 383e c90b 913e 3abe 73bd a3aa 01be
00000040: cca7 06bc f496 e0bd fdeb 4d3e 3896 77be
00000050: 5fac d53d 832c 893d aa64 b8be a019 c33e
00000060: c936 bc3e e199 57be 5f30 23be 7342 143e
00000070: 9e91 9fbe 4884 88be 94a7 e83d c3a6 6c3e
00000080: 278c 5dbd 449e 783e 30a5 8abe f704 41be
00000090: 9002 143c 3f1d c73d c2a6 8fbe ebd7 19be
000000a0: dfe8 063d 4cca a93e 7945 0ebd 2c06 973d
000000b0: 0802 383c ea1a 673e be6c 72bd 5458 853e
000000c0: 5f43 77be f546 57be bf47 a73e 3719 b9be
000000d0: 0a9f 67be 1fd9 8f3d 2449 693d 454c 82be
000000e0: 216a 63bd e7f8 133e 43b5 31be 1954 aabe
000000f0: 5b65 f3bc 29d8 1dbd 3bf7 e93d f447 733e
00000100: 80c5 f5bc 1d4d b4be 992f 6bbe 036a 913e
00000110: 85a7 a53e 85a9 b73e bb32 7f3e affc acbe
00000120: f7fe 4fbb b708 8fbe ac83 8a3e ee5c 603e
00000130: 1e35 a93e fed3 b3be 4003 973e 3442 3e3e
00000140: 0259 7a3e ba37 3ebe a315 09be 8ceb 323e
00000150: 157f 72be b243 9ebe f521 083e f490 7dbe
00000160: d9eb aa3d aad9 a1bd fd95 a3be 4067 bc3e
00000170: f035 1cbe 8d9f 31be 6d7e c23e 55c9 293d
00000180: 6282 c23e db31 48be a801 ac3e f398 703e
00000190: 1784 043d 6146 97bc 9e5b 6dbe 8405 913e
000001a0: 7ce3 383e 71d0 9cbe baeb 513e b51c 05bd
000001b0: 00e1 99be ab09 2f3e e625 17be f833 b43d
000001c0: 7aae c3bc 34a6 d83d 5c4c 76bc ce5a abbe
000001d0: 7b5a 823e 5f51 a73e 3ca0 86be f0b7 99be
000001e0: 0cd6 93be 5f83 b5be cb1f 8a3e c3a0 9fbc
000001f0: 5425 16be 10d4 e43c 90ec ae3d 4341 0dbe
-0.3367867 -0.03421639 0.32328022 -0.35330713 -0.1906008 0.0482805 0.2697321 0.25578082
0.36563566 -0.13355742 -0.22555813 -0.017286878 0.18055025 0.28329304 -0.059507586 -0.12662749
-0.008218717 -0.10966292 0.20109554 -0.24178398 0.10433268 0.06697943 -0.360143 0.38105488
0.36760548 -0.21054794 -0.15936421 0.14478473 -0.31165785 -0.26663423 0.11360088 0.2311049
-0.054088738 0.24279124 -0.27079153 -0.1884955 0.009033814 0.09722375 -0.28056914 -0.15023772
0.032936927 0.33162153 -0.034734223 0.07374224 0.011230953 0.2256886 -0.059185736 0.26043952
-0.24146794 -0.21023162 0.32671925 -0.3615205 -0.22619262 0.070238344 0.056954518 -0.25448814
-0.055521134 0.14450417 -0.17354302 -0.33267286 -0.029711416 -0.038536225 0.114241086 0.23757917
-0.030001402 -0.35215083 -0.22967376 0.28401193 0.3235437 0.3587152 0.24921696 -0.33786532
-0.0031737664 -0.27936336 0.27053583 0.2191045 0.33048338 -0.35122675 0.29494667 0.18579942
0.24448016 -0.18575945 -0.1338716 0.17472667 -0.2368129 -0.30911022 0.13294204 -0.24762326
0.083457656 -0.07902844 -0.3195037 0.36797523 -0.1525495 -0.1734602 0.3798708 0.04145177
0.379901 -0.19550268 0.33595014 0.23495845 0.032352533 -0.018466176 -0.2317948 0.2832452
0.18055528 -0.30627778 0.20500079 -0.03249808 -0.30054474 0.17093532 -0.14760551 0.08798975
-0.023886908 0.10578576 -0.015032854 -0.33467716 0.25459656 0.3267927 -0.26294124 -0.30023146
-0.28874242 -0.3545179 0.2697738 -0.019485837 -0.14662677 0.02793315 0.085412145 -0.13794427

feature.2.weight f4 [128, 128]
00000000: f088 463c cd39 093d e7c5 9d3d 815e babb
00000010: 3a9f 86bd 7828 b3bc 426c 96bd 37bb 0fbd
00000020: 8334 af3d c6cf 8ebd c3f1 01bd f032 50bd
00000030: 4c1e aabd c5de 993c 29f0 c9bd b4e6 82bd
00000040: 94a7 81bc 78e6 c13c 027c 9fbc 358b cabc
00000050: 9929 073b 497c 46b9 1a2c 7b3d 064a c13d
00000060: 9cff b53b 454d a63b cd2f 1dbd a3f1 8bbd
00000070: 1611 99bd 1349 96bd 2279 643d c02b a73d
00000080: 0a2d 73bd b787 233d 9468 5fbd 89cf b0bd
00000090: a459 4d3d 57f3 043d 4cc0 cdbd d8d5 7fbc
000000a0: e461 3a3d 9d48 9c3d 003d bc3d e283 6a3d
000000b0: 5ae6 d93d 5c34 323d a2a8 c73c 5031 30bc
000000c0: 2f8a eebd 83eb 683c 8230 9b3d 0943 3c3c
000000d0: 294e f0bd 953a 39bd 6f0c c3bd 316f d2bc
000000e0: 4920 9dbd 6fea 743d fdee 273c b7a5 54bd
000000f0: f350 423d b8b5 543c b7e1 afbd 8990 04bc
00000100: a92a 4e3c cf7d 743c 2b46 313c 8b8c 12bd
00000110: 6ae6 6e3b 2782 e43c b01f 8b3d c229 6c3c
00000120: 3e39 bd3c bbe3 b33d d37d 79bd b522 35bb
00000130: 4f8b 423d 8d1c 703d 925f 3d3b 68ef 833d
00000140: 7f97 8cb9 2d7d e23b 69ad 01bd c9dd 603d
00000150: 9a8f 6abd c4cd 71bd 0aee a23d 3c26 06b8
00000160: 73c1 2ebd 50e1 52bb 5eaa 16bd 30c8 8d3d
00000170: e27d bb3b 919b c2bc 9357 873c dd94 a63d
00000180: 7319 dc3c 0bcb 3fbd 3de6 253d 4dae 66bc
00000190: 2729 bebd 8e0c ba3c 6131 2ebc 9600 8cbc
000001a0: 0187 27bd 0969 8c3a 1cb4 643d c8ef 633d
000001b0: 60f4 433b 80b7 813d c3af f5ba bd8d 8d3d
000001c0: ca7c a1bd 17ed 6abd 793d e9bc 2c43 edbd
000001d0: 0462 c13d 6bdf c23c f089 723d d977 cdbc
000001e0: f7e0 05bd bad9 b0bd cf2a 01bb c585 2e3a
000001f0: 2a01 ddbc d2aa 823b 37e7 94bd 966c 06bc
00000200: 252b cebd 2b23 6f3b e2d6 41bd c2d0 0f3d
00000210: 92e1 84bd 150b b6bb df1f ab3c bbc8 4d3d
00000220: ad08 7b3d b5dc d33c 1468 56bd 9a15 d3bd
00000230: ce98 8a3d 4fdf 3a3a 35dd 3f3d f123 c1bd
00000240: e303 003d a7e9 3e3d 01f1 90bc 64a0 71bd
00000250: ff1a 75bd 32c4 a8bd 5a44 6ebc 3a9e 373d
00000260: 9b7c 0dbd 7098 83bc 84b5 bdbd 54d3 7ebd
00000270: d273 b8bd 55d8 e1bc 9341 0b3d b997 b3bc
00000280: ce82 e2bd 0c87 833c 51c6 9b3c 19be 93b9
00000290: 786e 833d 14f5 623d d05e f0bc ee4b 45bc
000002a0: 6a73 1a3d fe5e 223c f9f9 843d 9e4d 91bd
000002b0: 9024 a03c e026 a7bd 1fae 7d3d 9185 4c3d
000002c0: 8211 91bd f05c 65bd 03d1 a83c 175b 6cbb
000002d0: 7378 58bc 2c37 90bd 18d6 383d 5980 663d
000002e0: 8f22 a5bd 0926 4abd 67a6 40bd 4aba e73c
000002f0: 1a5b 9cbd f60c 6c3d e158 58bd b9c3 a53c
00000300: b68d 063d b276 413d 85d4 40bd 7b77 7bbd
00000310: f18d 953d d7be 643d 358f 103d 8f1f 8b3c
00000320: fb69 11bc b5b8 d03d 2436 1abc 3e46 afbd
00000330: 006c 113d f8b0 bebc 816e 8c3d 25b9 5dbc
00000340: c9c5 27ba 3e66 b4bd 4cde 0c3d 79fc aabd
00000350: b8e0 82bd bc70 90bd 4bd9 e03c 122a 62bc
00000360: c74c b3bd 6ea9 cdbd 60d7 a43c 6b27 0e3d
00000370: 335a 79bd 9414 693c b781 453c aadf 38bd
00000380: 67ce fa3d e7d0 14bc b230 603d 6105 71bd
00000390: 209f bebd 427f 49bc a626 a6bd 8094 843d
000003a0: 3d58 573d aca4 573d 92e6 35bd a6de 743d
000003b0: 3cd4 023d 3eab 93bd 0d98 8e3d a928 3b3c
000003c0: 9cde fab9 3366 f8bb d19f a5bd ed69 1c3d
000003d0: 094c 0cbd f822 ec3c bb6f 653d b866 5e3d
000003e0: 45f7 99bc dd4c e5bd 85a0 9cbd a5d6 7ebd
000003f0: 252f 3dbc 7fa5 89bd 8053 98bd 7718 babd
0.012117609 0.03350239 0.077037625 -0.0056875353 -0.06573339 -0.021869883 -0.07344867 -0.03509065
0.08554938 -0.069732234 -0.031724703 -0.050829828 -0.0830656 0.018782983 -0.0986026 -0.063916594
-0.015826978 0.023669466 -0.019468311 -0.024724582 0.002062416 -0.00018929051 0.061321355 0.09437947
0.0055541527 0.005075129 -0.038375665 -0.06833198 -0.07473962 -0.073381566 0.055779584 0.081626415
-0.059369124 0.03992435 -0.054543093 -0.08633334 0.050134316 0.03245863 -0.10046443 -0.015614949
0.045503512 0.076310374 0.09191322 0.05725468 0.10639639 0.043506965 0.024372403 -0.0107539445
-0.1164745 0.014216307 0.075776115 0.011490592 -0.11733658 -0.045221884 -0.09523856 -0.025687786
-0.076721735 0.059793886 0.01024985 -0.05191585 0.04744048 0.012982778 -0.085879736 -0.0080911005
0.012583413 0.014922573 0.010819952 -0.035778563 0.0036453255 0.027894093 0.06793153 0.014414253
0.023098584 0.087836705 -0.06091101 -0.0027639095 0.047496136 0.05862098 0.0028896076 0.064421475
-0.00026815754 0.006911895 -0.031659517 0.05489901 -0.057265855 -0.059034124 0.079555586 -3.1983698e-05
-0.042664956 -0.0032177754 -0.03678357 0.06922948 0.0057217935 -0.02375582 0.01652125 0.08133862
0.026867604 -0.046824496 0.040502775 -0.0140796425 -0.09285193 0.022711065 -0.01063189 -0.017090123
-0.040900234 0.0010712455 0.05583583 0.055648595 0.0029900298 0.06333828 -0.0018744398 0.069118
-0.0788513 -0.057355013 -0.028471695 -0.11585078 0.09442523 0.023788175 0.05921358 -0.025081562
-0.032685246 -0.08635278 -0.0019709354 0.00066575065 -0.026978094 0.0039876485 -0.07270663 -0.0082046
-0.10066823 0.0036489468 -0.04732407 0.035111196 -0.064883366 -0.0055555203 0.02088922 0.05024026
0.06128757 0.025862077 -0.05234535 -0.103068545 0.067674264 0.00071286125 0.04684182 -0.094306834
0.031253707 0.046609547 -0.017693045 -0.05899085 -0.0598402 -0.08240546 -0.0145426635 0.04482863
-0.03454266 -0.016063899 -0.09263137 -0.062213257 -0.09006466 -0.027568975 0.033998083 -0.021922933
-0.11060105 0.016055606 0.019015463 -0.0002817966 0.064175546 0.055409506 -0.029342085 -0.012042029
0.037707724 0.009910343 0.06492991 -0.070948824 0.019548684 -0.08161712 0.061933633 0.049932066
-0.070834175 -0.055996835 0.020607477 -0.0036065036 -0.013212311 -0.07041773 0.04512605 0.056274746
-0.08063232 -0.04935268 -0.047033694 0.028287072 -0.07634564 0.057629548 -0.052819137 0.02023493
0.03284999 0.047232337 -0.047077674 -0.061393242 0.07302464 0.05584606 0.035292823 0.016982822
-0.008875365 0.1019148 -0.009412322 -0.085583195 0.035503387 -0.023277745 0.068570144 -0.013532911
-0.0006400017 -0.08808564 0.034391686 -0.083489366 -0.06390518 -0.070527524 0.027447363 -0.013803976
-0.087548785 -0.10042082 0.02012223 0.03470556 -0.060877036 0.014226098 0.012054852 -0.045135178
0.122463994 -0.009083009 0.05473394 -0.05884302 -0.093076944 -0.012298407 -0.0811284 0.064736366
0.052574385 0.052647278 -0.044409342 0.059782647 0.031940684 -0.07210396 0.06962595 0.011423268
-0.00047849573 -0.0075805425 -0.08087123 0.038186956 -0.0342522 0.028825268 0.056014758 0.05429718
-0.018794665 -0.11196301 -0.07647804 -0.06221642 -0.011546885 -0.06721019 -0.07437801 -0.090866975

feature.2.bias f4 [128]
00000000: 1271 973d 46f0 e33d e0d6 923d 932a b7bd
00000010: 5d09 22bd fa53 a2bd 19d8 d4bb 2946 5c3c
00000020: 42a2 02bd 98f0 8d3d f862 61bc 59bb 87bd
00000030: bb29 b63d 2c95 60bd 6076 afbd 97cc 463c
00000040: aa08 82bd 25a0 83bd 9d63 673c 5fbd 353d
00000050: 6363 a5bd 4946 1bbd 45da 883d 5233 e63c
00000060: b21e 3dbd c579 99bc e301 bc3d 69a3 263d
00000070: 9dcd c6bc a8e7 0bbd 5433 9d3d f82b 933b
00000080: 6fb6 f03d ccc6 483d 6415 42bc 82ee 8b3d
00000090: 4e62 87bd f93d 54bb dace d83d 5dd3 793d
000000a0: 57b7 e5bc 6524 02bd cd90 ea3a 13e6 e4bc
000000b0: d683 70bd 3342 b5bd bf57 a23d ec41 e13b
000000c0: d40e afbc 271d 223c 2dc8 4bbc 3013 c0bc
000000d0: 75b7 b7bc ac58 fc3c d7b8 bcbd 797b 693c
000000e0: 609d 30bd 2cac 963c c17e fcb9 9d75 303d
000000f0: bc4c b83d b329 993d ddb6 c2bc 2667 13bc
00000100: 5512 653d ae4e 893d fa0d 77bd de9a 03bc
00000110: 186d 93bb 23cb b1bb 8c9b ac3d 0d94 ea3d
00000120: 6004 7dbd 2ff5 473c 9123 9ebd 748c ac3a
00000130: 05c2 7abc 0d14 603d fdb5 7ebd 513c a7bd
00000140: 68e5 f2bb 96d7 d8ba 1b47 2b3d f215 553d
00000150: 46eb 19bd f874 96bb 3a34 213d c58b 7d3d
00000160: 91f6 84bc 3e65 a0bc 885f 213d 6b78 2fbd
00000170: 9eab 773c 32c3 3d3d 732c 0cbd 1e09 373d
00000180: 35d3 7bbc 3cbb ddbc 17cb 86bd f7cd 063d
00000190: 3e0e 033d ca34 8bbb 9993 7e3d 4d5e c23d
000001a0: fdae 9d3d 60b6 c8bc 84c5 a3bd b996 da3c
000001b0: d8e7 0e3d 75c1 ab3d ef8a b4bd 6b4d c7bd
000001c0: ddf0 24bd ea78 843d 5650 06bd 29fc 563d
000001d0: 23eb 8cbd 6478 6f3b 5423 a6bd be6a 00bd
000001e0: 9eb0 86bd 875d 7dbd 1380 323d 881c c43d
000001f0: 6147 1e3d bbd0 1f3d b75d ea3c 0d3f 853d
0.07394613 0.11129813 0.071698904 -0.08943667 -0.03955971 -0.079261735 -0.0064954874 0.013444462
-0.031893022 0.06930655 -0.013756506 -0.066275306 0.08894678 -0.05482976 -0.085675 0.012133739
-0.06349309 -0.064270295 0.014122871 0.04437005 -0.08075597 -0.037908826 0.066822566 0.028100643
-0.04617185 -0.018734822 0.09180047 0.040683184 -0.024267966 -0.03415647 0.07675806 0.0044913255
0.117535464 0.049017712 -0.01184592 0.06832601 -0.06610547 -0.0032385571 0.10586329 0.060992587
-0.028041525 -0.03177299 0.0017895937 -0.02794174 -0.05871948 -0.08850517 0.079268925 0.0068743136
-0.021369375 0.009894646 -0.012437862 -0.02344665 -0.022426346 0.030804 -0.09214943 0.01425063
-0.043118834 0.018392645 -0.00048159625 0.043080915 0.08999011 0.074786566 -0.023768837 -0.0089967605
0.055925686 0.0670446 -0.060316063 -0.008032529 -0.004499089 -0.005425827 0.08428106 0.1145402
-0.06177175 0.012204452 -0.077216275 0.0013164417 -0.015305047 0.054706622 -0.062185276 -0.08165801
-0.0074126013 -0.0016543742 0.04181586 0.05202288 -0.03757789 -0.0045915805 0.039356448 0.061900873
-0.016230853 -0.019579526 0.039397746 -0.04283945 0.0151166 0.04632873 -0.034222078 0.04468643
-0.01537018 -0.02706682 -0.06581705 0.032911267 0.031996004 -0.0042482363 0.06215248 0.09490643
0.07699392 -0.024501026 -0.079966575 0.026683198 0.034889072 0.083865084 -0.08815562 -0.09731563
-0.040268768 0.06468375 -0.032791458 0.052486572 -0.06880786 0.0036540264 -0.08112207 -0.031351797
-0.06576656 -0.061856773 0.043579172 0.095757544 0.03864229 0.03901742 0.02860914 0.065061666

feature.4.weight f4 [128, 128]
00000000: a2f0 b13c 96a1 de3d 125c 0dbd 1bdf 24bd
00000010: 58dc 153d 7a39 62bd d6c8 e6bc 4b93 803d
00000020: 79d9 aa3b 8c48 4e3d 9db2 60bd 007c 9e3d
00000030: d7c1 823d ed23 f03c 222c afbd b196 0dbc
00000040: e9cc c13d 79b5 79bb 05af 8a3d 5bba 1f3d
00000050: 04f7 5a3c ed08 efbc abac c63d 527c 6fbd
00000060: a61d 5abd eb37 a73d 580c 09bd 05fc adbd
00000070: d7ed d93b ea7b 4c3d 0339 85bd d5ee c03d
00000080: ba1b 45bd fce8 873d 4256 913d f16d 083d
00000090: 657a 3cbd a4ac f0bc 76b7 3cbc 54bc 3bbd
000000a0: f179 95bc 4e2c 883d 029b 98bb 0b18 453c
000000b0: 626a bb3d 162c ec3c bf98 463d aba2 893d
000000c0: e976 a8bd 2189 933d ef7c 383d c05e 4abd
000000d0: f5a7 863d 7b82 0ebd 3e28 303c 9710 803d
000000e0: e2ea 1f3c 3e04 74bd a83a a53a 081a ad3d
000000f0: 5c32 b73c f9f1 91bc b227 74bd 8f13 aa3c
00000100: 3c5e 9b3d cc48 20bd 5cae a03c 2045 393d
00000110: 71e6 503d abfe dbbc 77e5 273c 9aa6 fb3a
00000120: 30ba 8b3c 0892 3d3d 2e5b 28bd adbc 20bd
00000130: fa18 a2bd a3fa adbd e2b7 3ebd 5d07 b6bd
00000140: a352 c2bd 590c 5abd e56c c0bd c71a 8b3d
00000150: b2fa 943d fcd6 de3d 2b99 df3c f73b 38bc
00000160: 3809 233d 58dd 163d bcb6 bd3d 8a41 ed3b
00000170: c282 873d 01fa eb3c a7e9 45bc d2ea 80bc
00000180: a7b9 ee3d 7264 bb3c dadd 1dbd bafc f03b
00000190: d319 3ebd a38c 743d 74be b63c 11dd e03d
000001a0: 57d5 b43d 3936 cc3c 45dc c13c 24ca 54bd
000001b0: 3915 02bd a754 c73c d7ef 08bd ce3f 15bd
000001c0: 8c5c 9dbd ba54 3f3d 761b 0bbd 448f 81bb
000001d0: 40f7 2c3c 2e08 9b3c caf9 723c 1b2d 633d
000001e0: c110 afbd c271 3d3d 41fa bd3d 4bc7 37bd
000001f0: b20c 683c 3332 85bb 0947 ad3c 90e2 08bd
00000200: 31b2 62bd 81e7 5fbd a800 b2bc 2969 abbc
00000210: e23b a8bd 5521 47bc 92cb b43d d741 14bd
00000220: ed3f be3d 7bda 26bd ec49 de3d 3fd2 a1bd
00000230: 1a64 c93c 7fbf 8c3d ba35 6b3d c7c4 cfbd
00000240: 0414 d5bc 689b 813d 47d1 7e3c b113 c53d
00000250: e8f3 cf3d 3fcb 39bd d361 8e3d e200 903d
00000260: 9edd a7bd de4d 133d 3048 6d3d 9185 283d
00000270: 0576 243c a2bf edbb ab88 083c 0d70 9fbc
00000280: 4391 323d 9ac9 53bc 5b56 1d3d 28e8 a43d
00000290: acdd 26ba d2b4 8fbc 8e39 b33c 60e7 b13d
000002a0: b9b1 3bba adc5 a43d 706d 343d 6d93 c4bc
000002b0: 20fb 1cbd aa32 813d f855 19bc 28ad 3bbb
000002c0: 67cc 62bd 03df 1e3d 287e 9a3c ad1c 9a3d
000002d0: bd33 69bc 2c16 58bb 2ef9 46bd 206c 873d
000002e0: 7a56 5b3d b0ae d73d b6f5 6bbd 1406 933c
000002f0: 8ed6 c63c 399c 873c 4922 bb3d 105f 733d
00000300: 2e47 923d 79d9 c2bc e783 b4bd a8b0 a33c
00000310: 56b6 1f3c 3f38 72bd 1a06 1dbc f086 b6bd
00000320: cfad 273d e04e d93c a73e 573d dccc cdbd
00000330: b78b 473d 7127 3fbd 7bdb 943d 604c 54bd
00000340: fd23 4bbd 94fe 35bd b4d8 1abc ed06 cbba
00000350: 5671 85bd 3db4 84bd fe8d 33bd 807e ffbc
00000360: 519b ac3b 8e46 2a3d ded1 7dbd a35e 103d
00000370: 44be 52bd 4c33 d2bb c8f0 9a3d b8d2 9e3d
00000380: d160 20bb b3ff edbc 271e bc3d afa7 263d
00000390: aeaa be3d 6f59 d6bd 9b77 203d c429 71bd
000003a0: 0ebe 3fbd 926e 7f3d af4b ca3d a3fd 9dbd
000003b0: a01b 9b3d 9657 793d 75b4 cbbb 02e2 82bd
000003c0: 66b7 7a3d 318f 09bc b635 97bd baa6 923d
000003d0: 2254 ebbc c1b0 0abd 3ab3 783d 86f3 a0bb
000003e0: e200 c23d 15be 283d a946 ac3d afe2 7a3c
000003f0: 51e5 863c 0ad8 1abd c7aa 253d 50a9 0c3d
0.021721188 0.10870664 -0.034511633 -0.040251832 0.03658709 -0.055230595 -0.028171938 0.06278094
0.005213913 0.050362155 -0.05485784 0.07738495 0.06384628 0.029314006 -0.085533395 -0.008641885
0.09462912 -0.003810255 0.067716636 0.03899608 0.013364557 -0.02917906 0.097009026 -0.05846817
-0.05325093 0.081649624 -0.033459038 -0.084953345 0.006650667 0.04992286 -0.06505015 0.094205536
-0.048122145 0.06636235 0.070965305 0.033307973 -0.046015162 -0.029379196 -0.01151835 -0.0458339
-0.018246623 0.066490754 -0.0046571502 0.012029658 0.0915115 0.028829616 0.048485514 0.067204796
-0.08225805 0.0720389 0.04504102 -0.049406767 0.06575004 -0.034792405 0.010751782 0.06253164
0.00976059 -0.05957436 0.0012605982 0.08452231 0.02236288 -0.017815577 -0.05960817 0.02076128
0.07586333 -0.039131925 0.019614391 0.04523194 0.051001016 -0.026854834 0.01024758 0.0019199431
0.017056555 0.046281844 -0.04110258 -0.039242435 -0.0791492 -0.08495071 -0.046562083 -0.08888123
-0.09488418 -0.053234432 -0.0939577 0.06792217 0.07274379 0.10880849 0.027294716 -0.0112447655
0.039803714 0.036832184 0.092633694 0.007240479 0.06616737 0.028805735 -0.012079633 -0.015736971
0.11656504 0.022875044 -0.038541652 0.007354346 -0.046411347 0.059704434 0.022307612 0.10979665
0.08829754 0.0249282 0.023664603 -0.05195059 -0.03175852 0.024332358 -0.033431854 -0.036437802
-0.076836675 0.04671166 -0.033961736 -0.003953846 0.010556996 0.018924799 0.014830062 0.055462938
-0.085481174 0.046251066 0.09276248 -0.044867795 0.014163183 -0.004064822 0.021152036 -0.03341919
-0.055345718 -0.05466414 -0.021728829 -0.020924168 -0.08214547 -0.012153943 0.088278905 -0.036195602
0.092895366 -0.040735703 0.10853943 -0.079014294 0.024583865 0.068724625 0.057424285 -0.10144954
-0.02601052 0.063284695 0.015552825 0.096228965 0.10153943 -0.045359846 0.06952252 0.070314184
-0.08196567 0.03596293 0.05793017 0.041143004 0.010037904 -0.0072555104 0.008333365 -0.01946261
0.043595564 -0.0129264835 0.038412433 0.08052093 -0.0006365429 -0.017542277 0.02187803 0.086867094
-0.00071599666 0.08045516 0.04404968 -0.02399608 -0.03832543 0.063084915 -0.009358875 -0.0028637145
-0.055370715 0.0387869 0.018858984 0.07525001 -0.014233527 -0.00329722 -0.04857748 0.0661242
0.053549267 0.10531366 -0.057607375 0.017947234 0.02427223 0.016553985 0.09137399 0.05941683
0.07142483 -0.02378534 -0.08814221 0.019981697 0.009748062 -0.05913567 -0.009583974 -0.08912456
0.04093724 0.026526868 0.052549984 -0.100488394 0.048717227 -0.046668474 0.07268425 -0.05183065
-0.049594868 -0.044432238 -0.00945108 -0.0015489735 -0.06515758 -0.0647969 -0.043836586 -0.03118825
0.0052675386 0.041571192 -0.061967723 0.035246503 -0.051450983 -0.0064148065 0.07565457 0.07755035
-0.002447177 -0.029052591 0.091854386 0.04068726 0.09309898 -0.10466277 0.039176565 -0.05887772
-0.04681211 0.062361307 0.09877717 -0.07714393 0.075736284 0.060874544 -0.0062165805 -0.06390764
0.06121006 -0.008395956 -0.073832914 0.07160707 -0.028726641 -0.033859972 0.0607178 -0.0049118428
0.09472825 0.0411969 0.08411915 0.015312835 0.016466768 -0.037803687 0.04044607 0.034341156

feature.4.bias f4 [128]
00000000: fd74 3d3c 380c 953d 7368 80bd f1b8 bcbd
00000010: 21c3 bc3d d982 75bd 0237 e5bc 652b eb3b
00000020: f3b5 a63d 3bc1 f33b 8171 25bd c590 043c
00000030: 5f25 3e3c 8b54 4bbd 925c 0d3d b262 d33d
00000040: 7699 85bd 5a71 853d 3637 b93c 25b5 e43d
00000050: d6bc 29bd fbb6 52bd af26 8ebb 6e10 933d
00000060: ce5e fbbc 79e0 dd3d c6b9 ed3c 66e1 adbd
00000070: c2a9 e7bb d211 aabd cd68 1dbc 0952 9bbd
00000080: 360c 473d 9f9e 913c 551c 873d c07b 083c
00000090: 4ee2 023d 02e9 8f3d 6d0b 7abd 88e4 8e3c
000000a0: 33ec 85bd 1af9 bb3d f3d2 a1bd 5dae 95bd
000000b0: 2721 f03b 1501 b3bd 5327 163d 22ee 9ebd
000000c0: 73f1 91bd bf9b a13d e166 a3bd 9ca5 c73d
000000d0: 68ff 3f3d 11d8 913d 3715 733c 121b c1bc
000000e0: 8c81 1fbd f69e 053d bba1 893d 18a2 523c
000000f0: 4909 b7bb 9ccf 9b3d 70c6 d63c c195 97bd
00000100: 39c9 63bd 14ca 353d 6f25 b13d 8de3 953c
00000110: ae40 2abd e5f0 af3d 5b6e 65bd 4f29 af3d
00000120: b15b 373d 47cc a43c bda7 c5bb 94ce 2dbd
00000130: b504 18bc 5975 953d f789 1cbc a00d 063d
00000140: ee10 d83d 22ce 41bd 2fca b23c ddaa 223d
00000150: 9c14 3a3b 34d6 823d 99b8 e73d 3b26 c7bc
00000160: e772 5d3c ed00 9b3d 6d12 383d 7817 013d
00000170: 6247 5fbd 6102 ef3c 7362 73bd 6ed8 b63d
00000180: 9b03 813d 759b 693c e2fc 95bc b7ea 903d
00000190: 6ae1 8ebd e733 a03d f023 d93c 07f2 c03d
000001a0: db97 eb3a 0e47 673d 4d35 8cba 51a8 9f3c
000001b0: f0d5 c0bd 2922 8cbd ac2f f43d b02e 9bbd
000001c0: 6d18 923d ac38 7b3d f25d be3c 2dbc 19bc
000001d0: 5921 43bd 8c88 533d f002 66bc 8730 c6bb
000001e0: f274 323d ca72 5ebd d4ad c83b 2879 9d3d
000001f0: 7e1e 773c be64 043d 47c5 1f3d f4ad d93b
0.011563537 0.07277721 -0.06269922 -0.09214962 0.092169054 -0.05993924 -0.027980331 0.007176804
0.08140173 0.0074388064 -0.04039145 0.008091156 0.01160559 -0.049641173 0.03451211 0.10321559
-0.06523411 0.06515761 0.022609334 0.11167363 -0.041439854 -0.051444035 -0.0043381075 0.07180868
-0.030684855 0.108338304 0.029019248 -0.08490257 -0.0070697973 -0.0830418 -0.009607506 -0.07584006
0.04859563 0.017775832 0.06597201 0.008330286 0.031954102 0.070268646 -0.061046053 0.017442957
-0.06539192 0.09178372 -0.079015635 -0.07308648 0.007328171 -0.08740441 0.036658596 -0.07760264
-0.07126131 0.07891034 -0.07978607 0.09748384 0.046874434 0.071212895 0.014836601 -0.023572478
-0.038941905 0.0326223 0.06720301 0.012856029 -0.0055858237 0.07607958 0.02621767 -0.0740161
-0.055611823 0.04438217 0.08649718 0.018296981 -0.04156559 0.08590869 -0.056013446 0.08552801
0.044765178 0.020116938 -0.006031959 -0.042433336 -0.009278466 0.07297773 -0.009554378 0.032727838
0.10550104 -0.047315724 0.021824924 0.03971373 0.0028393632 0.06388512 0.11314506 -0.024310222
0.013516164 0.07568536 0.044939447 0.031516522 -0.054511435 0.029175939 -0.05942006 0.089279994
0.06299516 0.014258255 -0.01830906 0.07076018 -0.06976588 0.078223996 0.026506394 0.09421163
0.0017974334 0.056464247 -0.0010697037 0.01948944 -0.09415805 -0.06842453 0.11923155 -0.07577264
0.07133565 0.061333343 0.023238156 -0.0093832435 -0.047639225 0.051643893 -0.014038786 -0.0060482654
0.04356856 -0.05430869 0.0061242376 0.07689124 0.0150829535 0.032322638 0.039006498 0.0066430513

actor_mean.0.weight f4 [128, 128]
00000000: 388a 0c3d 2ec3 bfbb 9947 963d fde3 f23c
00000010: a37a 50bd 5b96 0fbd ec36 0bbd 8e0e 8cba
00000020: 1edc 19bc 1121 49bd 3bc8 6dbd dc91 893d
00000030: 6c9b b73d a45a debd 11bb 8e3c c970 90bc
00000040: a0f3 863d 9b89 1ebd e7e5 d6bb 6084 4cbd
00000050: 2019 113d 10e4 cc3d 18ef 773d 8ad3 9f3c
00000060: 9471 d8bb 6ec7 ac3d 02cc 663d ae83 413d
00000070: 9272 9abd 6d5c 68bd 3027 94bd ac61 9abd
00000080: 32b8 32bd b493 9ebd d369 343d 8133 803d
00000090: ac83 80bd 86b2 5f3d e833 e4bb 654e 3fbd
000000a0: 22b4 813d e462 973d cdb9 773b ed55 d83c
000000b0: c43d 14bd 20e9 e93c 9a0c 0a3c 16a6 493d
000000c0: 3aa3 babc 6140 413d 7a65 20bd 1ed0 b63d
000000d0: 3419 1bbc 5ba7 ef3c b428 a9bc ba4a 73bd
000000e0: 10fd 463c 0276 223d 4852 973d 6fdc 5abc
000000f0: 1058 b4bd 1f4c 1ebd 5e4a 683d 3ceb 3fbd
00000100: a17c e9bc c6c3 81bd fe8f 8cbd 533b 89bc
00000110: 12c5 95bd 145d 853d 8cae 133d 0819 8cbc
00000120: 9a47 a6bd 578b 24bd 62ef 9d3d 6d5f ac3d
00000130: 79b1 113d 67a6 eebc a99e 1b3c 5043 e13c
00000140: 0593 953c 26a7 6bbc 9e7f 463d 25b4 3bbc
00000150: 66c5 d73d a784 9dba b5ad 35bd 93ac 5a3d
00000160: ce26 bd3c c916 303d 7c2c 93bc b999 863c
00000170: 2f13 453d 7bc1 743d b6fc 06bc a915 09bd
00000180: 0d78 37bd 3da7 00bd aac1 533d a5ab 6bbd
00000190: f298 82bd d828 2dbd 5d0e 903d 17a9 ae3d
000001a0: 266a 8f3c 9912 213d d4c2 a73d de72 523d
000001b0: 520b 4e3d 8d4b b13d 797d 54bd d864 603d
000001c0: af94 65bc 6611 fabc ba84 b5bc 547e 4c3d
000001d0: 4d14 c33b 5a55 8abc 208d e63a b222 d03c
000001e0: 896c ddbc ca3e d53d bccf 263d db1e a73c
000001f0: c2d3 debd 4120 103b 8609 243d 6f8f 87bc
00000200: 72e6 843d 3c62 223d 5658 1dba c49b 34bc
00000210: b67a 5ebb 445b f73a b3a3 dabc 8542 95bd
00000220: 7e75 24bd a895 8e3d e419 013c 9e59 80bd
00000230: 1f10 0a3d 95b2 5b3d f9d4 adbd 229f 95bd
00000240: 73a1 bc3d 3f50 51bd c405 953c 43c3 0c3d
00000250: a5d1 8fbd 283f b9bc adc8 7ebc ff44 84bc
00000260: 4fb5 c13c 9fdb 33bd f2b4 b8bc 51e0 993d
00000270: 865d 743d 5611 aebc 2819 c1bc 59df a63d
00000280: 749b bb3d e724 fb3c c1ff 00bd 48e6 a13d
00000290: f33e 243d e69c dc3c ba0d 41bd cab4 a5bd
000002a0: 302c 883d 6414 9abc 8a4a 91bc 63aa acbd
000002b0: 10fe 443d db40 abbc 75d7 183b f8b2 6b3c
000002c0: 6a46 86bd 1e0d 05bd 92ec b8bd 1f5d 323d
000002d0: 2c1d 46bd bc73 de3c ebf5 febc 6316 13bd
000002e0: 7794 4bbc 583a 323d 6479 553d aec6 f03a
000002f0: 396f 573d f064 83bc b99a 943d 617f 87bd
00000300: 14d5 cabc 6dd6 a0bd 8d59 663d d07f e2bc
00000310: b2fb 8dbc 741e 88bd 2060 473d dccf 19bb
00000320: 9992 bcbd 70b9 ac3b e998 9e3c bcf3 bc3b
00000330: 8325 6f3d 169a 79bd 21d5 163d 3d83 b73d
00000340: c914 133d cc66 b23a 0700 27bd 7abb 51bd
00000350: 54de 9f3d a8ec b0bd b671 03bd 9e94 fa3c
00000360: ef92 883d a604 8a3c d94e c23c 4fc1 8ebc
00000370: 2b7b 1ebd 2296 163d 7116 4c3d 8b08 863d
00000380: d9bf c9bd 95f8 a1bd 7f48 123d 2343 dbbb
00000390: 9987 553d 5272 37bd c341 55bd ad61 1a3d
000003a0: c68d 3f3d 817c d3bd dc6e 4f3d 1f20 013d
000003b0: 0c63 863d 0922 523d da35 7d3d 5883 a5bc
000003c0: ff3d 2b3d 4675 f4bc 264f f33c 4d16 393d
000003d0: 877a a03c 7890 743d 1607 00bd 7741 733d
000003e0: 1b0a 293d 8975 23bd 859d 893d b1c9 7abd
000003f0: 0042 80bd fed2 d6bc 912c 843d 9a42 1a3d
0.034311503 -0.0058521247 0.07337875 0.029649729 -0.050898205 -0.0350555 -0.033987924 -0.001068549
-0.009390859 -0.0491038 -0.058052283 0.067172736 0.08965191 -0.10857132 0.017423185 -0.017631905
0.065894365 -0.03870545 -0.006558168 -0.04993093 0.03542435 0.10004437 0.060530752 0.01951005
-0.0066053364 0.08436476 0.0563469 0.04724472 -0.07541384 -0.05672877 -0.07234037 -0.07538161
-0.043632694 -0.07743016 0.044046234 0.062598236 -0.062751144 0.054613613 -0.0069641955 -0.046705622
0.06333186 0.07391909 0.0037799955 0.02640816 -0.036191717 0.028553545 0.008425856 0.049230658
-0.02278291 0.047180537 -0.039159276 0.08926414 -0.009466458 0.029254606 -0.020649292 -0.059397437
0.012145296 0.039663322 0.07388741 -0.0133582195 -0.08805859 -0.038646813 0.056711547 -0.046855196
-0.02850181 -0.06336169 -0.06863402 -0.01675192 -0.07312979 0.06511894 0.036055133 -0.01710178
-0.08119126 -0.040171947 0.07711674 0.084166385 0.03556964 -0.029132081 0.009498277 0.027497917
0.018258581 -0.014383113 0.04846155 -0.011456524 0.10535698 -0.0012017683 -0.044355113 0.053387236
0.023089793 0.04299048 -0.017965548 0.016430723 0.048113998 0.05975483 -0.008238962 -0.033467922
-0.044792224 -0.03140949 0.051698364 -0.05753674 -0.06376828 -0.04227528 0.070339896 0.08528345
0.01750667 0.039324377 0.081914574 0.051379077 0.050303765 0.08656988 -0.051877473 0.054783672
-0.0140125 -0.030525874 -0.022158016 0.049925163 0.005953348 -0.016886402 0.0017589666 0.025407169
-0.027029293 0.10412367 0.040725455 0.020400455 -0.10880233 0.002199188 0.040048145 -0.016547887
0.064892665 0.039644465 -0.0006002238 -0.011023466 -0.0033947653 0.0018871804 -0.026689386 -0.07288078
-0.04015111 0.069621384 0.007879708 -0.06267093 0.03370678 0.053637106 -0.08487887 -0.07305743
0.092104815 -0.05110192 0.018191226 0.034365904 -0.070224084 -0.022613123 -0.0155507745 -0.016146181
0.023646025 -0.04391062 -0.022547219 0.07513488 0.059659503 -0.0212485 -0.023571566 0.08148069
0.0916051 0.030657245 -0.031493906 0.07905251 0.040099096 0.026930284 -0.04713223 -0.080911234
0.06649053 -0.018808551 -0.017735738 -0.08430936 0.048093855 -0.020904949 0.0023321782 0.014385931
-0.06556399 -0.032483213 -0.09029497 0.04354584 -0.048367664 0.027154796 -0.031123122 -0.03591002
-0.0124255335 0.043512672 0.05211772 0.0018369758 0.052596305 -0.016039342 0.072560735 -0.066160925
-0.024759807 -0.078533985 0.056237746 -0.027648836 -0.017331932 -0.066464335 0.048675656 -0.002346984
-0.09207649 0.0052711293 0.019360023 0.00576636 0.058385383 -0.060937963 0.03682435 0.089605786
0.035908494 0.0013610958 -0.04077151 -0.051204182 0.078060776 -0.086388886 -0.032090865 0.030588444
0.0666865 0.01684792 0.023719238 -0.017426161 -0.03869168 0.03676427 0.04982609 0.06544598
-0.09851045 -0.079087414 0.03571367 -0.006691353 0.05213127 -0.04478676 -0.05206467 0.037690807
0.046766065 -0.103264816 0.050642833 0.031524774 0.065618604 0.05130199 0.061818935 -0.020204231
0.04180717 -0.029841077 0.029700827 0.045187283 0.019589676 0.05970809 -0.031256758 0.059388604
0.041269403 -0.039907012 0.067194976 -0.061227504 -0.062625885 -0.026223656 0.06453813 0.037661172

actor_mean.0.bias f4 [128]
00000000: b875 313d 9d6b 69bc 9ab5 9f3d 7560 b1bd
00000010: 1908 0e3d 5a64 94bd e70a d13b 3c7e 0d3d
00000020: e60b 153d 460a 81ba 3565 0fbd e46f 88bd
00000030: 9997 a4bd f3d2 933d e1d0 053b d610 2abd
00000040: 741b 65bd 4c55 bdbc 0249 893d 122e a8bd
00000050: 0103 8bbb 655d 49bd 6618 58bd da36 82bd
00000060: 0df2 883d 7eee af3d c550 7e3d 43dd afbc
00000070: 80f3 a3bd ebf3 353b 1b97 863d 2802 b4bb
00000080: bfeb 893c ef5a 81bd 81ed 24bd 20bb 52bb
00000090: 03a7 9bbd dbce ec3c 52d6 5fbd 22a3 153d
000000a0: 3c90 c6bc 0e79 76bc 3fc8 aa3d c872 89bc
000000b0: 17c9 3c3d 98f5 51bd 303f 563d 3bb2 87bd
000000c0: 845c a7bd e0ab 523d bcdc 9dbd bd6f 673d
000000d0: eefd c1ba af2d afbc e8be 433d 0582 35bd
000000e0: 3e4f ad3d 9b5c 793d b3c6 a9bd 5b9b aa3d
000000f0: cb8c b3bd 020d 893c e291 903d a911 36bd
00000100: 4e72 6dbd 00e9 b23d 6dd7 053c bbc1 a93d
00000110: 8135 91bd 3974 af3d 9de5 983d 2a3c e7bc
00000120: 57cd 6f3d 8389 12bc 0298 a83d f682 9abd
00000130: bd1d 64bd b66c 7dbd 56c1 68bd b667 943d
00000140: 20c6 42bc d439 b73c 09ba 0c3d 0462 5cbd
00000150: 3eff bd3d c3f4 82bb 9f97 34bd b8c4 5bbd
00000160: 1df6 a5bc da07 1b3d 77c5 b4bd d128 0ebd
00000170: ce7c 893d 51b7 ac3d 95ad 183d b88c a6bb
00000180: 8f70 833d d629 8a3c a0fb 2bbd 22a7 43bd
00000190: 95db 653d e9e4 613d a845 b6bd 8733 3bbc
000001a0: dfda b8bd db8a aebc 5abd 0cbd 1dfc d83c
000001b0: 2191 ad3c 9657 c3bd 4893 003d dc68 b83d
000001c0: 8aba 45bd ad2d f73c efef 7b3d a656 1f3d
000001d0: 7e3a 783c 3405 783d 0617 023d 12be 30bd
000001e0: f1c9 143d eff7 b13d 61c6 7a3d b9bd 863d
000001f0: 4723 c8bc 8b2a 30bd b7c2 f1bc cb39 69bd
0.043325156 -0.014246848 0.077983096 -0.08660976 0.03467569 -0.07245703 0.0063794735 0.034544215
0.0363883 -0.0009844981 -0.035008628 -0.066619664 -0.080367275 0.0721797 0.002041869 -0.041519962
-0.055934384 -0.023111962 0.06703378 -0.08211912 -0.0042423015 -0.049161334 -0.052757643 -0.06358118
0.066867925 0.08590411 0.062088747 -0.02146781 -0.08005428 0.0027763795 0.0657179 -0.005493421
0.016836045 -0.06316172 -0.040265564 -0.0032154992 -0.07600214 0.02890723 -0.05464775 0.03653253
-0.024238698 -0.01504351 0.08338975 -0.016778365 0.04609021 -0.051259607 0.052306354 -0.06625792
-0.08171943 0.051433444 -0.07708117 0.056503046 -0.0014800408 -0.021384088 0.047789484 -0.04431345
0.0846238 0.06087933 -0.08289852 0.08330413 -0.087670885 0.016729835 0.07059075 -0.044450436
-0.057970338 0.087358475 0.008169037 0.08288904 -0.07090283 0.085670896 0.0746567 -0.02822693
0.058545437 -0.008943918 0.08232118 -0.0754451 -0.055692423 -0.061871253 -0.056825005 0.07246344
-0.011888057 0.022366442 0.034357104 -0.053804412 0.09277199 -0.003996463 -0.04408991 -0.053654402
-0.020258958 0.037849285 -0.08826726 -0.034706894 0.06713258 0.08433402 0.037274916 -0.005082693
0.06417953 0.016865652 -0.041988015 -0.047766812 0.056117613 0.055149946 -0.089000046 -0.011425859
-0.09026121 -0.021306446 -0.034360267 0.026487404 0.021187367 -0.0953819 0.03139046 0.09004375
-0.0482736 0.030173147 0.061508115 0.038900994 0.015150664 0.060551837 0.031760238 -0.043150015
0.0363254 0.08689868 0.061224345 0.065791555 -0.024430884 -0.043009322 -0.029511793 -0.05693988

actor_mean.2.weight f4 [2, 128]
00000000: 043d bc3d 66f3 0b3c e04e 96bd ef57 f83b
00000010: ae7f 10ba 786f e53c b8a4 163c 8fe0 57b9
00000020: 8807 c23d 9105 c5bc c993 a4bd 7b1d b3bc
00000030: 52df 783c 2026 813d 8408 ca3d bfa1 23bd
00000040: 76c1 063d ef44 80bd e71d 09bd f624 993d
00000050: 1c69 453d 24f8 4f3d f5f3 6ebd 4d5b 97bd
00000060: 79c7 b13d d8d6 0d3d 08b3 87bd 2f50 36bd
00000070: f7e3 cb3c 105a 533c 11c2 293d 1ab6 88bc
00000080: d8c5 1a3d 34e5 6fbd 3caf fb3d c435 f53c
00000090: 4a57 21bd 188e 5a3d 7065 c83c 4a29 17bd
000000a0: c749 a33d 8ca2 2bbd aed0 cd3d add9 98bd
000000b0: 94fa 503d 4d8a 753c 862f 3e3d 2b96 08bd
000000c0: 1b10 013d a88c ab3c 8e1f 8cbc f457 8fbd
000000d0: fbde 38bd cf51 5c3d 0084 133d ad4c a23d
000000e0: c4fb 35bd 891c b9bd e733 acbd 199b 953c
000000f0: 640b 7dbd 821b d73c 2c6b f43c 4287 1bbc
00000100: 04c7 96bd a783 403c 6914 85bc 46be 1f3d
00000110: 8e28 a2bd 4c7c 793b 1d63 1bbd 2be8 003d
00000120: 783f 37bd a99f 04bc aa76 6dbd 7cd4 9dbd
00000130: bb64 a5bd 7761 16bd 45f2 85bd e8a1 18bd
00000140: 1e13 293d b568 8fb9 c8a2 c53c 2b43 a33d
00000150: 1d41 c83d e03f 443c e699 b53d 08a3 aebd
00000160: 6f36 1cbd 2a70 92bd 1494 08bd 5b72 70bd
00000170: 7c70 6fbd fbd6 99bd 2074 9a3c f8fa 833a
00000180: 2eea 49bd 6484 623b 1b80 d53c 7d97 6b3d
00000190: 75e2 2d3d d048 4d3d 6bc6 313d ed73 9f3d
000001a0: 7244 20bd 05a1 c03d 2f00 52bd 213f 49bd
000001b0: 7f8c 88bd ebe1 ac3d f7fd 683d 2784 be3d
000001c0: c942 4cbd 190d 07bc e501 313d 4346 11bd
000001d0: 2b5a da3c cbbe 29bd fdd6 853d b442 d63d
000001e0: 27c6 b73d b92f 1fbc 43b3 03bd 590a 5b3b
000001f0: 38f9 85bd f4e0 f1bc 04ec 2f3d 3759 6f3d
00000200: 0479 ad3c 1b4b 34bd 1871 a4bd c00a a83c
00000210: f879 963d 6e2f 81bd 9f31 9cbd ae61 86bd
00000220: 8fdf 86bc c047 783c 106c 98bd 9787 b83c
00000230: 6032 b23c e18a 5d3d d448 a63d 6661 8bbd
00000240: 5907 9dbc 9b48 59bd bad2 ecbc b7bb b3bd
00000250: 3b23 52bc f0ce 6abd 9d62 033d 94fa 353d
00000260: e26a c73d b536 d0bc 0f3c 963d dde1 473d
00000270: 5dc1 1abd acaa 9b3d 007b 453d 4ec2 1b3c
00000280: 0248 62bd 6673 613c 1693 8a3d 9a90 32bd
00000290: 5dcb a3bc 7d09 17bd 00ca 9abb ee89 3f3d
000002a0: ce8e 43bd 5dc7 83bd a46a b23a c8ff 1cbd
000002b0: 9229 9bbb 3408 9f3d 492e 0e3d 5303 a23c
000002c0: 5cfe 9cbd 5773 91bc 5874 6abc 87af 76bc
000002d0: d2ac 903d 378f d2bc c737 2d3c 603b ac3d
000002e0: 9b46 853d 34d5 0ebd 0214 46bd 6881 b7bd
000002f0: ae52 04bd d3ee 77bd d631 16bc c3b8 2abc
00000300: 3bbe 8abd 3890 7d3d a15d 99bd 2da7 7b3c
00000310: e618 a8bd 2a8e 0c3d 4ac9 8a3d 9d2a 2c3d
00000320: 143f 8a3d 6469 e03d ed62 673d 3d4c da3b
00000330: 186a a7bd 4f76 62bd e77e 96bd 4b29 4b3b
00000340: e54d b9bc dd4c 263d 3c4f 293d 9383 89bd
00000350: 980e 4c3d 8647 483c ba13 7fbd 8403 e3bb
00000360: f442 9fbd 9e4d 04bd 95cf 783d d3cb 043d
00000370: 3dca 16bd cb0b 5fba 7a01 273d c246 323d
00000380: 18eb c73c 0bb4 b43c 49c0 ae3d ddfb 48bd
00000390: f81f 80bd 4e15 b33d 563e 02bd a91c 273d
000003a0: 8375 8bbd 36f2 06bd f82e 27bd e236 91bd
000003b0: f8b2 583b 85b2 163c 07ec 513d 7207 1e3b
000003c0: 60b5 94bd 776c 42bd c32b 96bd 5108 e33c
000003d0: 7bf3 a4bd 5a9d 81bb 5685 9b3c dd08 f7ba
000003e0: 8089 b0bb 4e16 0b3c a17d 40bc cd3b bdbd
000003f0: db9a b13d 6bc4 8f3b 9f86 663d d52e abbd
0.09191325 0.008541917 -0.07339263 0.007578842 -0.000551219 0.028007254 0.009194545 -0.00020587652
0.09474093 -0.024050506 -0.08036 -0.021864643 0.015189962 0.063061 0.098649055 -0.039949175
0.032899342 -0.06263148 -0.033475783 0.07477753 0.048195943 0.050773755 -0.058338124 -0.07390461
0.086806245 0.03462872 -0.066259444 -0.044510063 0.024888976 0.012899891 0.04144484 -0.016688395
0.037786335 -0.058568195 0.12289283 0.029932864 -0.039389886 0.053358167 0.024462432 -0.03690461
0.07973056 -0.041903064 0.10049568 -0.07463393 0.05102022 0.014986587 0.04643204 -0.033346336
0.0315095 0.020941094 -0.01710489 -0.069991976 -0.045134526 0.053788956 0.036014557 0.07924781
-0.044429556 -0.09038646 -0.08408337 0.018262433 -0.06177844 0.026258234 0.02983626 -0.009492697
-0.07362178 0.011750138 -0.016245084 0.03899982 -0.079178914 0.0038068471 -0.03793632 0.031471413
-0.044738263 -0.008094707 -0.057974495 -0.07706544 -0.080758534 -0.036714043 -0.0654035 -0.03726378
0.041277997 -0.00027353098 0.024125472 0.07971796 0.097780444 0.01197812 0.088672444 -0.085271895
-0.03813785 -0.071503 -0.033344343 -0.058702808 -0.058456883 -0.075117074 0.0188542 0.0010069301
-0.049295597 0.0034563774 0.026062062 0.057517517 0.042452294 0.050118268 0.043402117 0.07785783
-0.039127775 0.09405712 -0.051269706 -0.04913247 -0.066674225 0.08441528 0.056882825 0.0930255
-0.04986838 -0.008242869 0.043214697 -0.035467397 0.026654324 -0.04144172 0.065351464 0.10461941
0.089733414 -0.009715968 -0.03215338 0.0033422916 -0.06541675 -0.029526211 0.04294969 0.05843469
0.021175869 -0.04401694 -0.080293834 0.020512938 0.073474824 -0.063078746 -0.07626652 -0.065616
-0.016464023 0.015153825 -0.07442486 0.022525592 0.021752536 0.054087523 0.081193596 -0.06805687
-0.019168543 -0.053047758 -0.028909076 -0.08776038 -0.012825782 -0.057326257 0.032076467 0.044428423
0.09737183 -0.025416711 0.07335674 0.048799384 -0.03778206 0.076009125 0.048213005 0.009506775
-0.055244453 0.013760423 0.06766336 -0.043594934 -0.019994432 -0.036874283 -0.0047237873 0.0467624
-0.04774361 -0.0643451 0.0013612104 -0.03832987 -0.00473518 0.077652365 0.03471211 0.019776976
-0.07665703 -0.017755194 -0.014309965 -0.015056497 0.07064213 -0.025703056 0.01057238 0.084097624
0.065076075 -0.034871295 -0.048358925 -0.08960229 -0.032305412 -0.060530495 -0.009167155 -0.010420027
-0.06774565 0.061905116 -0.074885614 0.015359682 -0.08207874 0.034315266 0.06776674 0.042032827
0.067503124 0.10957602 0.056490827 0.0066619203 -0.08174533 -0.05528861 -0.073484235 0.0030999954
-0.02262015 0.040600646 0.04133533 -0.06714549 0.049818605 0.012224084 -0.062274672 -0.0069279093
-0.07776442 -0.032300584 0.06074484 0.032420944 -0.036813963 -0.0008508532 0.040772893 0.04352451
0.024404094 0.022058507 0.08532769 -0.04906832 -0.062560976 0.08744298 -0.03179773 0.040798817
-0.06809523 -0.032945834 -0.040816277 -0.07090546 0.0033065658 0.009197836 0.051250484 0.0024113324
-0.07261157 -0.04746672 -0.07332566 0.027713927 -0.08054253 -0.0039555253 0.018984478 -0.0018847246
-0.005387485 0.008489205 -0.011748702 -0.09239922 0.086721145 0.0043874285 0.05628073 -0.08358542

actor_mean.2.bias f4 [2]
00000000: 9734 16bd 48b2 a7bb
-0.036671247 -0.0051176883
