path-planning/drone-path-planning-ppo-dynamics/models/ppo_model_episode_500.pth (torch, 344061 bytes, 17 tensors)

feature.0.weight f4 [128, 7]
0	0xbe4fa5a0	-0.20278025
1	0xbe3f6db6	-0.18694195
2	0x3eb9f2cb	0.3631805
3	0x3e96a84e	0.2942528
4	0xbd85f8d0	-0.06541598
5	0x3e915668	0.28386235
6	0xbd85ebd9	-0.06539125
7	0x3eb7990e	0.3585896
8	0x3e9f52e6	0.31117934
9	0xbdb6177f	-0.088912
10	0x3eb8fa7f	0.36128613
11	0x3e89abeb	0.26888976
12	0x3e880841	0.26568797
13	0x3e145b22	0.1448789
14	0xbe29de7b	-0.16588776
15	0xbd14746c	-0.03624384
16	0x3d99d656	0.075115845
17	0xba8576e9	-0.0010182533
18	0x3d0d2cb0	0.034466445
19	0x3d09d214	0.03364761
20	0xbe00f08b	-0.1259176
21	0x3e92811a	0.28614122
22	0x3e23a7e0	0.15982008
23	0xbcb29a80	-0.021802187
24	0x3ec29174	0.38001597
25	0x3e0df03e	0.13861176
26	0x3ea32162	0.31861407
27	0x3ed1d65c	0.40983856
28	0x3e709775	0.23495276
29	0x3e99cdbb	0.30039772
30	0xbe99760b	-0.29972872
31	0x3e990980	0.2989006
32	0xbe6efd99	-0.23338927
33	0x3eb47afa	0.35250074
34	0xbe972a87	-0.29524633
35	0xbe8bc8ec	-0.2730173
36	0xbe0a56b7	-0.13509642
37	0xbd5588d2	-0.052132435
38	0x3daf2aea	0.08553107
39	0x3e7b6b34	0.24552613
40	0x3e60504d	0.21905632
41	0x3e574bcd	0.2102501
42	0x3ea5f3fd	0.3241271
43	0xbec21712	-0.37908226
44	0xbe4d5f3d	-0.20055862
45	0xbe6309be	-0.22171685
46	0xbdf0602a	-0.11737092
47	0x3ebad704	0.3649217
48	0x3e7da4f5	0.24769957
49	0xbe9b08b6	-0.30280083
50	0xbd83bf81	-0.06433011
51	0x3ea8aa5a	0.32942468
52	0xbdc454eb	-0.09586509
53	0x3ebd0302	0.36916357
54	0xbe865009	-0.26232937
55	0x3ae11299	0.001717168
56	0xbea1bda7	-0.31590006
57	0xbea2df5e	-0.3181104
58	0xbca6bf4f	-0.020354895
59	0xbd846677	-0.06464856
60	0xbec62140	-0.38697243
61	0x3e0a3b63	0.13499217
62	0x3e32c607	0.17458354
63	0xbe9ea5c9	-0.3098586
64	0x3e9bb3a8	0.30410504
65	0x3e075ea6	0.132197
66	0xbeaf74df	-0.34268853
67	0xbd4d7edd	-0.050169814
68	0xbeac44d8	-0.33646274
69	0x3e23d194	0.15997916
70	0xbe9dea30	-0.30842733
71	0x3e80b8b9	0.25140932
72	0x3deaba95	0.11461369
73	0x3e39e61b	0.18154185
74	0xbd0db842	-0.03459955
75	0x3dab9194	0.08377376
76	0x3e570b41	0.21000387
77	0x3dac5f85	0.084166564
78	0x3eb895f2	0.360519
79	0x3db33565	0.087504186
80	0xbe934e60	-0.28770733
81	0xbe9069f6	-0.28205842
82	0x3e927c5a	0.28610498
83	0xbe381a18	-0.17978704
84	0x3ba5fe70	0.0050657317
85	0x3ea10279	0.314472
86	0xbdafdc4d	-0.08586941
87	0xbec0526c	-0.37562883
88	0xbeb66df1	-0.35630754
89	0x3d842eab	0.06454214
90	0x3e5fe5f7	0.21865068
91	0x3e1776c1	0.14791395
92	0xbea4ca3a	-0.32185537
93	0xbe809c02	-0.25119025
94	0xbe5b36f5	-0.21407683
95	0x3e56bf0b	0.20971315
96	0xbe6bf338	-0.23042
97	0x3daae8f3	0.08345213
98	0xbd73d286	-0.059526943
99	0xbec41f25	-0.3830501
100	0xbe854acb	-0.26033625
101	0x3e5ab2c4	0.21357256
102	0xbd8faca9	-0.07015354
103	0x3c88fbd1	0.016721638
104	0xb9fa3201	-0.00047720972
105	0xbec1aaed	-0.3782572
106	0x3ebcb07f	0.36853406
107	0x3e991fc2	0.29907042
108	0xbe2c705d	-0.16839738
109	0xbe8ba5a2	-0.27274805
110	0x3d9fbfef	0.0780028
111	0xbd62d48c	-0.05537848
112	0xbd6cfbc6	-0.057857297
113	0xbd6c4ca3	-0.057690274
114	0xbe990016	-0.29882878
115	0xbe1eaf42	-0.15496543
116	0xbe21c5f1	-0.15798165
117	0xbe7d1374	-0.24714452
118	0x3e2110c6	0.15729055
119	0x3e59217b	0.21204178
120	0x3d8d52e1	0.069005735
121	0x3e0897bd	0.13339134
122	0x3e56effb	0.20989983
123	0x3e0e7194	0.13910514
124	0xbe5bd277	-0.21467005
125	0xbe412a01	-0.1886368
126	0xbe5ebff3	-0.2175291
127	0xbe89f3fb	-0.26943955
128	0xbeb9ae24	-0.3626567
129	0x3e854e9f	0.26036546
130	0x3e41a5cc	0.18910903
131	0xbe8a2a1b	-0.2698525
132	0x3d4177bb	0.047233324
133	0x3e0479e2	0.1293712
134	0xbe0ef9d0	-0.13962483
135	0xbe01f312	-0.1269038
136	0x3e7d8059	0.24755992
137	0xbe28b106	-0.16473779
138	0xbdc7b3b0	-0.097510695
139	0x3e77fa30	0.24216533
140	0x3da9932d	0.08280025
141	0x3e857227	0.26063654
142	0x3e7427e4	0.23843342
143	0xbe665ebf	-0.2249708
144	0xbded812c	-0.11596903
145	0x3e4e1d2e	0.20128319
146	0x3e722408	0.23646557
147	0x3eb80b20	0.35945988
148	0x3e8b5cd0	0.27219248
149	0xbdc6df83	-0.097106
150	0x3c29d456	0.010365566
151	0x3d196fb9	0.037460063
152	0xbc632034	-0.013862658
153	0xbe80e907	-0.25177786
154	0x3e92267f	0.28544995
155	0xbe939e8d	-0.28831902
156	0x3e85527b	0.2603949
157	0x3df663c1	0.12030745
158	0xbdabdf06	-0.08392148
159	0xbeb9ac95	-0.36264482
160	0xbd1381ca	-0.03601245
161	0x3e58fb9e	0.21189734
162	0xbeaa6ace	-0.3328461
163	0xbe96db82	-0.29464346
164	0xbd64e7ec	-0.05588524
165	0xbd844dd1	-0.06460155
166	0xbea49082	-0.321415
167	0xbea4a0b5	-0.3215386
168	0xbeb91d22	-0.3615504
169	0x3e7db774	0.24777013
170	0x3b23b33a	0.0024978654
171	0x3e478133	0.1948288
172	0xbe0206f6	-0.12697968
173	0x3e8d08c0	0.27545738
174	0x3e17811f	0.1479535
175	0x3ec6a913	0.38800868
176	0xbd27286d	-0.040810037
177	0xbeb55653	-0.35417423
178	0x3d721cf0	0.05910963
179	0xbe877bc6	-0.2646162
180	0x3e92c944	0.28669178
181	0x3ebdbf9a	0.37060243
182	0xbe819c4d	-0.2531456
183	0xbe315450	-0.17317319
184	0xbd3dbd0b	-0.046322864
185	0x3eb97f1a	0.36229783
186	0xbb0da536	-0.0021613366
187	0x3b13624c	0.002248901
188	0xbe4005ac	-0.18752164
189	0xbeba8f91	-0.36437657
190	0xbdda963e	-0.10673188
191	0x3debbd86	0.11510758
192	0x3e3d7627	0.18502103
193	0x3ea5e183	0.32398614
194	0x3d029035	0.031875808
195	0x3ec0b5f4	0.3763882
196	0xbda8d891	-0.08244432
197	0x3e6355a8	0.22200644
198	0xbeab815b	-0.33497128
199	0xbe99ffc3	-0.30077943
200	0x3e7216b8	0.23641479
201	0x3dc3c4c2	0.09559013
202	0x3dd9785a	0.10618658
203	0x3e7fbb8c	0.24973887
204	0xbea20aee	-0.31648964
205	0x3e6b742a	0.22993532
206	0xbe493dba	-0.19652453
207	0xbdac2d16	-0.08407037
208	0x3d533787	0.051566627
209	0xbcb80d8c	-0.022467397
210	0x3dec0c4e	0.115257844
211	0x3dbe9f3e	0.09307717
212	0xbe09c34a	-0.13453403
213	0x3dcb504a	0.09927423
214	0x3d2c6bf5	0.042095143
215	0xbe876b61	-0.2644911
216	0x3e5fc965	0.2185417
217	0xbe636ae5	-0.22208746
218	0xbeb3af1e	-0.3509454
219	0xbe88af34	-0.2669617
220	0x3e27f353	0.16401415
221	0xbd94820b	-0.07251366
222	0xbde979d3	-0.11400189
223	0xbe04e4c5	-0.12977894
224	0xbe35d7df	-0.1775813
225	0xbe2f5d43	-0.1712542
226	0x3d8e6730	0.06953275
227	0x3eacf79b	0.33782658
228	0x3e44c7d8	0.1921686
229	0x3be8631b	0.0070918924
230	0x3e821662	0.25407702
231	0xbcc2f198	-0.023796842
232	0xbeb056d7	-0.34441254
233	0xbdd6af3d	-0.10482643
234	0x3e2834b6	0.16426358
235	0xbc9f84f9	-0.019472586
236	0xbe7ae497	-0.24501263
237	0xbce607a6	-0.028079819
238	0x3e53c88c	0.20681971
239	0xbe92ba95	-0.28657976
240	0x3d4e56e9	0.050375853
241	0xbe0fa06f	-0.14026044
242	0x3b6d6f1a	0.0036229552
243	0xbeacec3d	-0.33773986
244	0xbebe1461	-0.37124923
245	0xbe16ea7f	-0.1473789
246	0xbeb6eee3	-0.3572913
247	0xbe494ae2	-0.19657472
248	0xbdb78ffc	-0.0896301
249	0xbeba354f	-0.36368796
250	0xbd7f697c	-0.062356457
251	0x3e2a6fa8	0.16644156
252	0x3eb4d501	0.3531876
253	0xbe21db5e	-0.15806338
254	0xbdbeb18e	-0.093112096
255	0x3ea27f60	0.31737804

feature.0.bias f4 [128]
0	0xbea8bde5	-0.32957378
1	0xbd088343	-0.033328306
2	0x3ea6b2e1	0.3255835
3	0xbeb458ed	-0.35224095
4	0xbe46c081	-0.19409372
5	0x3d686f75	0.05674692
6	0x3e8f9c0c	0.28048742
7	0x3e8bc2fc	0.272972
8	0x3ebea733	0.37236938
9	0xbe165f79	-0.14684857
10	0xbe66d6a2	-0.22542813
11	0xbc33bd90	-0.010970488
12	0x3e429d09	0.19005217
13	0x3e94df6f	0.29076716
14	0xbd60d39d	-0.05488931
15	0xbdfc343c	-0.123146504
16	0x3b423b19	0.0029637276
17	0xbde81e7a	-0.11333938
18	0x3e4fdac7	0.202983
19	0xbe715900	-0.23569107
20	0x3dd9caf5	0.10634414
21	0x3da64086	0.081177756
22	0xbeb0ebda	-0.3455494
23	0x3ec2c511	0.38040975
24	0x3ebd68b3	0.36993942
25	0xbe6a039a	-0.22852936
26	0xbe152827	-0.14566098
27	0x3e1e46b7	0.15456663
28	0xbea2edad	-0.31821957
29	0xbe89ceb9	-0.2691553
30	0x3df90046	0.12158255
31	0x3e68814d	0.22705574
32	0xbd7c4089	-0.061584983
33	0x3e79ede6	0.24407157
34	0xbe8303ee	-0.25588936
35	0xbe33eadf	-0.17570065
36	0x3ca0af58	0.01961486
37	0x3de40749	0.11134202
38	0xbe8f36f5	-0.27971616
39	0xbe19310e	-0.14960119
40	0x3d36ed29	0.044659767
41	0x3eaaadd9	0.3333576
42	0xbd32d751	-0.043662373
43	0x3daecf56	0.0853564
44	0x3c4ee16f	0.01262699
45	0x3e6862f4	0.22693998
46	0xbd50314d	-0.050828267
47	0x3e856302	0.260521
48	0xbe7cb833	-0.24679641
49	0xbe572135	-0.21008761
50	0x3ea5dedf	0.323966
51	0xbeca0312	-0.39455467
52	0xbe598123	-0.21240668
53	0x3da2b00e	0.07943736
54	0x3d8d4b33	0.06899109
55	0xbe7417bf	-0.23837183
56	0xbd595b66	-0.05306568
57	0x3e216da6	0.15764484
58	0xbe2eb646	-0.1706172
59	0xbea97fa6	-0.331052
60	0xbcba1037	-0.02271281
61	0xbc0b5f41	-0.008506597
62	0x3df1c8e3	0.11805894
63	0x3e844338	0.25832534
64	0xbcb7c379	-0.022432076
65	0xbeaaa595	-0.33329454
66	0xbe78a03f	-0.24279879
67	0x3e904fa9	0.28185776
68	0x3ea6e7b6	0.32598656
69	0x3eb5e46b	0.35525832
70	0x3e818715	0.25298372
71	0xbea8e035	-0.32983556
72	0xbb471cef	-0.0030382236
73	0xbe8d83cc	-0.27639616
74	0x3e8797c9	0.2648299
75	0x3e69686c	0.2279374
76	0x3eabd496	0.33560628
77	0xbebaf449	-0.365145
78	0x3ea06c9b	0.3133286
79	0x3e397dfa	0.18114462
80	0x3e78bad6	0.24290022
81	0xbe29663b	-0.16542904
82	0xbe04463e	-0.1291742
83	0x3e3a4838	0.18191612
84	0xbe80814e	-0.25098652
85	0xbe9e95ad	-0.3097357
86	0x3e1607b3	0.14651375
87	0xbe7a91d1	-0.24469687
88	0x3db3e89c	0.08784601
89	0xbdbdd22a	-0.09268601
90	0xbe997c88	-0.29977822
91	0x3eba840a	0.36428863
92	0xbe22aa86	-0.15885362
93	0xbe176307	-0.1478387
94	0x3ec06089	0.3757365
95	0x3d177ccb	0.036984246
96	0x3ebfe5de	0.37480062
97	0xbe2af384	-0.16694456
98	0x3eb3b318	0.35097575
99	0x3e6f0e6d	0.23345347
100	0x3d0ab21f	0.033861276
101	0xbc80389e	-0.015651997
102	0xbe6b6506	-0.22987756
103	0x3e8ee104	0.27906048
104	0x3e5138f4	0.20431882
105	0xbe9a6262	-0.30153185
106	0x3e51fae1	0.20505859
107	0xbcbf907a	-0.023384321
108	0xbe9f7295	-0.31142107
109	0x3e309d93	0.1724761
110	0xbe11ce0d	-0.14238758
111	0x3dcf7f3c	0.1013169
112	0xbcce65ea	-0.02519508
113	0x3de417ee	0.11137377
114	0xbbb4aea5	-0.0055139833
115	0xbeaabecf	-0.333487
116	0x3e83954b	0.2569984
117	0x3eb08765	0.34478298
118	0xbe82adad	-0.2552313
119	0xbe945048	-0.289675
120	0xbe906095	-0.28198686
121	0xbebe7269	-0.37196663
122	0x3e8dc0c1	0.27686122
123	0xbc5be372	-0.013420926
124	0xbe0076ad	-0.12545271
125	0x3d34a7e5	0.04410543
126	0x3dcb4cd9	0.09926767
127	0xbdf86f28	-0.12130576

feature.2.weight f4 [128, 128]
0	0x3cde7220	0.027154028
1	0x3d0d8a44	0.03455569
2	0x3d946ccf	0.07247316
3	0xbb4f3b2e	-0.0031620967
4	0xbd9369d1	-0.07197917
5	0xbc959461	-0.01825923
6	0xbd92ca08	-0.07167441
7	0xbd05faa9	-0.03270975
8	0x3dafa6c8	0.08576733
9	0xbd71ac91	-0.059002463
10	0xbcbbfa7e	-0.022946592
11	0xbd34f7c2	-0.044181593
12	0xbd9dde8f	-0.07708465
13	0x3ca4f7cb	0.020137688
14	0xbdc0e947	-0.09419494
15	0xbd780117	-0.060547914
16	0xbc0ef9e6	-0.008726573
17	0x3c8632e4	0.016381688
18	0xbcb168f1	-0.021656485
19	0xbccafca0	-0.024778664
20	0x3bd19947	0.006396446
21	0x3a958cd6	0.001140977
22	0x3d65c9fb	0.056100827
23	0x3db91e43	0.09038975
24	0x3b40df13	0.0029429838
25	0x3c59d4d1	0.013295368
26	0xbd0f3ca5	-0.034969945
27	0xbd87dd4a	-0.066340044
28	0xbd82ab4b	-0.06380328
29	0xbd85046f	-0.06494986
30	0x3d74930b	0.059710544
31	0x3d9e40f7	0.07727235
32	0xbd4caf80	-0.049972057
33	0x3d176772	0.036963888
34	0xbd596933	-0.05307884
35	0xbdaca8b9	-0.08430619
36	0x3d54bf97	0.051940527
37	0x3d08df7c	0.033416256
38	0xbdb9f4ed	-0.09079919
39	0xbbfa6579	-0.007641491
40	0x3d538f48	0.051650316
41	0x3d94ff71	0.07275284
42	0x3dbf505e	0.09341501
43	0x3d787d1b	0.060666185
44	0x3dce9e99	0.10088844
45	0x3d3abc4b	0.045589726
46	0x3cf87c36	0.030332666
47	0xbc66d88c	-0.014089715
48	0xbde5e35f	-0.11225008
49	0x3ce0acd5	0.027426163
50	0x3d9e35ef	0.07725131
51	0x3c9fea25	0.019520829
52	0xbdebd947	-0.11516052
53	0xbd39a4b8	-0.045323104
54	0xbdb4609d	-0.0880749
55	0xbc8ca3e9	-0.017168002
56	0xbd9056ab	-0.070477806
57	0x3d75b664	0.059988394
58	0x3cbc820c	0.02301123
59	0xbd471da4	-0.048612252
60	0x3d6ddc23	0.058071267
61	0x3cbe5622	0.02323443
62	0xbda45cc4	-0.08025506
63	0xbc008abc	-0.007845577
64	0x3c66c6bf	0.014085471
65	0x3cd82ace	0.026387598
66	0x3c9e32d8	0.019311354
67	0xbd14320e	-0.03618055
68	0x3b876cad	0.004132828
69	0x3cde53b2	0.027139518
70	0x3d882aee	0.06648813
71	0x3cb77b87	0.02239777
72	0x3cb5e658	0.022204563
73	0x3d8f970f	0.07011234
74	0xbd874d14	-0.06606498
75	0xbadbaeb2	-0.0016760437
76	0x3d4a8cca	0.049450673
77	0x3d445752	0.047934838
78	0x3bc0cd40	0.0058838427
79	0x3d729877	0.059227433
80	0xbb5e0fe7	-0.003388399
81	0x3c6ff255	0.014645179
82	0xbc869ed0	-0.01643315
83	0x3d65cd34	0.0561039
84	0xbd3cb406	-0.04607012
85	0xbd4a36af	-0.049368557
86	0x3da9257b	0.08259102
87	0xbb7532b6	-0.003741426
88	0xbd174eff	-0.03694057
89	0x3c13c58a	0.009019265
90	0xbd163f2b	-0.036681335
91	0x3d8bb69e	0.06821941
92	0x3c3a5e4b	0.01137502
93	0xbb863c5b	-0.0040965504
94	0x3c40c7e3	0.011766407
95	0x3da3fe1a	0.080074504
96	0x3c85637c	0.01628279
97	0xbd39dfdb	-0.0453795
98	0x3d23680f	0.03989416
99	0xbc53837b	-0.012909765
100	0xbdaf2a92	-0.085530415
101	0x3cf7325a	0.030175377
102	0xbbed310c	-0.007238513
103	0xbca4d952	-0.020123158
104	0xbd13fff1	-0.036132757
105	0x3c893034	0.016746618
106	0x3d472b0f	0.04862505
107	0x3d685709	0.05672363
108	0x3ce68294	0.028138436
109	0x3d839df4	0.064266115
110	0x3ae493e3	0.0017439093
111	0x3d93b778	0.07212728
112	0xbd882324	-0.066473275
113	0xbd4d2c85	-0.050091285
114	0xbcf02683	-0.029315239
115	0xbdc65d52	-0.09685768
116	0x3dc7764a	0.09739359
117	0x3cdf34fe	0.027246948
118	0x3d8162ab	0.063176475
119	0xbc9cccf4	-0.019140698
120	0xbca0c24e	-0.019623902
121	0xbdb54362	-0.08850743
122	0x3b1be085	0.0023784947
123	0x3bada1d4	0.0052988324
124	0xbc3ca336	-0.011513522
125	0x3bb3dbb2	0.005488836
126	0xbd8ec4bb	-0.06971117
127	0xbb43e8e4	-0.0029893452
128	0xbdbf1adc	-0.09331295
129	0x397bea9f	0.00024024629
130	0xbd4deec4	-0.050276533
131	0x3ce603fd	0.028078074
132	0xbd9431a2	-0.07236029
133	0xbb629c2b	-0.0034577947
134	0x3cf0b37a	0.029382456
135	0x3d5c350d	0.05376153
136	0x3d835518	0.06412715
137	0x3d1cde2a	0.03829781
138	0xbd2fc6a3	-0.042914044
139	0xbdb13268	-0.08652192
140	0x3da449fd	0.08021925
141	0x3bff7720	0.007796183
142	0x3d5e06fc	0.05420588
143	0xbda91bab	-0.0825723
144	0x3d266991	0.04062802
145	0x3d23b4a9	0.039967213
146	0xbca58c5b	-0.020208528
147	0xbd54d50d	-0.051960994
148	0xbd4d4c3b	-0.050121527
149	0xbd9673d9	-0.07346315
150	0xbc97827f	-0.018494843
151	0x3d3db25e	0.046312682
152	0xbd1c510a	-0.038163222
153	0x3929c247	0.0001618947
154	0xbdad67c4	-0.08467057
155	0xbd765a1e	-0.060144536
156	0xbdb8084a	-0.08985956
157	0xbc8e4bf1	-0.017370196
158	0x3d32cb93	0.043651175
159	0xbcb73683	-0.02236486
160	0xbddb6de6	-0.10714321
161	0x3c8740cd	0.016510392
162	0x3ca861be	0.02055442
163	0x3c3ad237	0.011402658
164	0x3d8aea78	0.067830026
165	0x3d6b3a8e	0.05742889
166	0xbcadf5f0	-0.021235436
167	0x3bb1e6dd	0.0054291324
168	0x3d285cd8	0.041104168
169	0x3be26e6f	0.0069101374
170	0x3d933c56	0.071892425
171	0xbd836e3e	-0.064175114
172	0x3ca6563e	0.020304795
173	0xbd94bd50	-0.07262671
174	0x3d8a347c	0.06748292
175	0x3d5b68c8	0.053566724
176	0xbd54af8f	-0.05192524
177	0xbd352b4e	-0.04423075
178	0x3ce7e5dc	0.028307848
179	0x3b98bf05	0.004661443
180	0xbc918933	-0.017765617
181	0xbd913d97	-0.070918255
182	0x3d5c61c1	0.053804163
183	0x3d82a4f7	0.06379121
184	0xbd8bcc64	-0.06826094
185	0xbd4be4c5	-0.04977872
186	0xbd21be67	-0.039488222
187	0x3d0f0351	0.034915272
188	0xbd6d6d81	-0.05796576
189	0x3d8ec5c8	0.069713175
190	0xbd3144de	-0.043278567
191	0x3cbd1aad	0.023084009
192	0x3d14419c	0.036195382
193	0x3d57f7ba	0.052726485
194	0xbcfa3fa8	-0.030547932
195	0xbd65f216	-0.056139074
196	0x3da0a272	0.07843484
197	0x3d6d482a	0.05793015
198	0x3d1e74ca	0.038685597
199	0x3cbd0a12	0.023076091
200	0xbc0cb385	-0.008587723
201	0x3d9f9673	0.07792368
202	0xbc2a921d	-0.010410813
203	0xbdab76d9	-0.08372278
204	0x3d30ad30	0.043133914
205	0xbc8c58ff	-0.01713228
206	0x3d9bb914	0.0760366
207	0xbca38883	-0.019962555
208	0xba1e2326	-0.0006032459
209	0xbda031a5	-0.07821969
210	0x3d4a3f5e	0.049376838
211	0xbda3b934	-0.07994309
212	0xbd5a6845	-0.053322095
213	0xbd822e44	-0.06356481
214	0x3cf6ac97	0.030111594
215	0xbc0ce5ca	-0.008599708
216	0xbda2b887	-0.07945352
217	0xbdb26bec	-0.08711991
218	0x3cd67048	0.026176587
219	0x3d24fbe3	0.04027928
220	0xbd34b111	-0.044114176
221	0x3d0dacfc	0.0345888
222	0x3c14f334	0.009091187
223	0xbd2fbca1	-0.0429045
224	0x3de899b6	0.11357443
225	0xbc822be6	-0.015890073
226	0x3d6460e5	0.05575647
227	0xbd58e7f1	-0.05295557
228	0xbda37729	-0.07981712
229	0xbc0b8285	-0.008515005
230	0xbda39aed	-0.07988534
231	0x3d7f8656	0.062383972
232	0x3d67c5e7	0.05658522
233	0x3d7115c2	0.05885864
234	0xbd346216	-0.044038855
235	0x3d795bf6	0.060878716
236	0x3d51578f	0.051108893
237	0xbd81bdd5	-0.06335036
238	0x3d84602b	0.06463655
239	0x3c8a6fb4	0.016898967
240	0x3c8cec3f	0.017202495
241	0x3b4323a8	0.0029775891
242	0xbda947c3	-0.082656406
243	0x3d6b7451	0.057483975
244	0xbcd095a3	-0.025461977
245	0x3d1fe028	0.03903213
246	0x3d86bc11	0.065788396
247	0x3d91fc26	0.071281716
248	0xbb8f79d3	-0.0043785363
249	0xbd9abab3	-0.07555141
250	0xbd86cea0	-0.06582379
251	0xbd3fb428	-0.04680267
252	0x3b81ea44	0.003964694
253	0xbd8332c8	-0.0640617
254	0xbd7cdb00	-0.061732292
255	0xbd9fe1ed	-0.07806764

feature.2.bias f4 [128]
0	0x3d926b8d	0.0714942
1	0x3de58211	0.11206449
2	0x3da1301b	0.078705035
3	0xbdb72a93	-0.08943667
4	0xbd184c82	-0.03718234
5	0xbd98d857	-0.074631386
6	0xbb629c9a	-0.0034578205
7	0x3cc84acc	0.024449728
8	0xbcfb0bb4	-0.030645229
9	0x3d93dc02	0.072196975
10	0xbc35d73c	-0.011098679
11	0xbd7a86cb	-0.061163705
12	0x3dba8828	0.09108001
13	0xbd4b5126	-0.049637936
14	0xbdaec63b	-0.08533903
15	0x3c074583	0.008256319
16	0xbd8e455e	-0.069468245
17	0xbd766eca	-0.06016425
18	0x3c8bc166	0.017059993
19	0x3d2c62b8	0.042086333
20	0xbd8ba6af	-0.06818902
21	0xbd2481fc	-0.040163025
22	0x3d956230	0.072941184
23	0x3ce63352	0.028100643
24	0xbd3d1eb2	-0.04617185
25	0xbc7877fc	-0.015165325
26	0x3db29073	0.08718958
27	0x3d26a369	0.040683184
28	0xbcc6cd9d	-0.024267966
29	0xbce9fea6	-0.028563809
30	0x3d985fdc	0.07440159
31	0x3bc0df78	0.0058860146
32	0x3de682e4	0.11255434
33	0x3d4e3943	0.050347578
34	0xbc3c4508	-0.011491068
35	0x3d8f9c97	0.07012289
36	0xbd8be50c	-0.068307966
37	0x3a15b1c7	0.000571039
38	0x3ddf232f	0.108953826
39	0x3d7d2191	0.06179959
40	0xbcafe951	-0.021473559
41	0xbd022465	-0.03177299
42	0x3b6bff53	0.003601034
43	0xbcefbdb8	-0.02926527
44	0xbd8eec37	-0.06978648
45	0xbdb4dd58	-0.088312805
46	0x3da9df17	0.08294504
47	0x3be141ec	0.0068743136
48	0xbcaf0ed4	-0.021369375
49	0x3c4d1d7f	0.012519239
50	0xbc03ba76	-0.008040061
51	0xbcc08d74	-0.02350495
52	0xbc449b8d	-0.011999977
53	0x3d052920	0.032509923
54	0xbdbcb8d7	-0.09214943
55	0x3cc9d66e	0.02463838
56	0xbd27662f	-0.040868934
57	0x3ca263cf	0.019822983
58	0xb9f96f03	-0.0004757569
59	0x3d297d7e	0.041379444
60	0x3da8f461	0.082497366
61	0x3d8db980	0.06920147
62	0xbc2baf0e	-0.010478748
63	0xbc0de1bd	-0.008659777
64	0x3d5e960a	0.054342307
65	0x3d91b696	0.07114904
66	0xbd73545d	-0.059406627
67	0xbc2470a2	-0.010036619
68	0xbb936d18	-0.004499089
69	0xbbd5336f	-0.0065063755
70	0x3da5655e	0.08075975
71	0x3de6e16b	0.11273464
72	0xbd733303	-0.05937482
73	0x3c47f52f	0.012204452
74	0xbd8813f0	-0.06644428
75	0x3b29b898	0.002589738
76	0xbb8a1012	-0.0042133415
77	0x3d538b79	0.051646683
78	0xbd816c67	-0.06319504
79	0xbda53845	-0.08067373
80	0xbb5e2cc3	-0.0033901192
81	0x39639136	0.00021702502
82	0x3d35e0e4	0.044403926
83	0x3d640628	0.055669934
84	0xbd04492c	-0.032296345
85	0xbb27b363	-0.00255891
86	0x3d313993	0.043267798
87	0x3d80d808	0.06291205
88	0xbbf16461	-0.0073667024
89	0xbca1c3ac	-0.019746624
90	0x3d66c135	0.0563366
91	0xbd2f786b	-0.04283945
92	0x3cab1bde	0.020887312
93	0x3d5c68a4	0.05381073
94	0xbcf86111	-0.030319722
95	0x3d328ad5	0.04358943
96	0xbc7ed6a3	-0.015554103
97	0xbcd043a6	-0.025422882
98	0xbd849b54	-0.06474939
99	0x3cf6e6a3	0.030139273
100	0x3d0f2a73	0.034952592
101	0xbbc7733c	-0.006086735
102	0x3d65f97b	0.056146126
103	0x3dc059ac	0.093921036
104	0x3d97c2e7	0.074102215
105	0xbcc003a9	-0.023439245
106	0xbda445e1	-0.08021141
107	0x3cc46b94	0.023977078
108	0x3d32be49	0.0436385
109	0x3da5dd29	0.080988236
110	0xbda7ee7a	-0.08199783
111	0xbdb70d7c	-0.08938119
112	0xbd1eed1d	-0.038800348
113	0x3d8b448d	0.068001844
114	0xbd0f4585	-0.03497841
115	0x3d64257c	0.05569981
116	0xbd8ceb23	-0.06880786
117	0x3c460128	0.012085237
118	0xbd9b64d9	-0.075875945
119	0xbce1d0d1	-0.027565392
120	0xbd81f874	-0.06346217
121	0xbd48069b	-0.048834424
122	0x3d322be7	0.0434989
123	0x3dbf6a4c	0.093464464
124	0x3d1884c9	0.03723601
125	0x3d153fe8	0.0364379
126	0x3d13e77c	0.036109433
127	0x3d89105a	0.06692572

feature.4.weight f4 [128, 128]
0	0x3c84bf27	0.01620443
1	0x3dd48d09	0.10378463
2	0xbcfcbf4d	-0.030852938
3	0xbd24df1b	-0.040251832
4	0x3d055cbe	0.03255915
5	0xbd543ed2	-0.051817723
6	0xbcaa967e	-0.020823713
7	0x3d80e0b6	0.0629286
8	0x3c27d5fa	0.010243887
9	0x3d3f89c3	0.04676224
10	0xbd52ac66	-0.051433943
11	0x3d9e87d3	0.0774075
12	0x3d6e8a63	0.058237445
13	0x3d03041f	0.031986352
14	0xbd97868c	-0.0739871
15	0xbc742b54	-0.014902908
16	0x3dc2f622	0.09519602
17	0xbb4406d4	-0.0029911296
18	0x3d74c821	0.05976117
19	0x3d5286a8	0.05139795
20	0x3cb11a5b	0.021619013
21	0xbd076d4f	-0.03306323
22	0x3dc9e361	0.09857822
23	0xbd6f7c52	-0.05846817
24	0xbd5a1da6	-0.05325093
25	0x3db16528	0.08661872
26	0xbd1bb025	-0.03800978
27	0xbdadfc05	-0.084953345
28	0x3bd9edd7	0.006650667
29	0x3d633cd3	0.05547793
30	0xbd82e392	-0.06391062
31	0x3dbabda0	0.09118199
32	0xbd61b936	-0.05510827
33	0x3d97ebde	0.07418035
34	0x3d8af9d2	0.06785931
35	0x3d24aab4	0.040201858
36	0xbd54156c	-0.051778242
37	0xbc9f87e2	-0.019473974
38	0xbc3a96bc	-0.011388477
39	0xbd19262a	-0.03738991
40	0xbc5a7271	-0.013332949
41	0x3d882c4e	0.066490754
42	0x3b21105b	0.00245764
43	0x3c2b8c8e	0.010470523
44	0x3da707aa	0.08155759
45	0x3d17c4d4	0.037052944
46	0x3d51e084	0.051239505
47	0x3d89a2ab	0.067204796
48	0xbda876e9	-0.08225805
49	0x3d9cc44d	0.07654629
50	0x3d40a870	0.047035635
51	0xbd20e72d	-0.039282966
52	0x3d882340	0.066473484
53	0xbcd9563c	-0.026530378
54	0x3c30283e	0.010751782
55	0x3d810ae6	0.06300907
56	0x3c40317b	0.011730547
57	0xbd5f5cf3	-0.054532003
58	0xbb927b46	-0.0044702617
59	0x3da478de	0.08030866
60	0x3c3cdcf0	0.011527285
61	0xbcd23042	-0.025657777
62	0xbd76d095	-0.060257513
63	0x3cbacd07	0.022802843
64	0x3daa20dd	0.083070494
65	0xbd65f031	-0.056137268
66	0x3c531e79	0.012885683
67	0x3d4d13bc	0.05006765
68	0x3d50e671	0.051001016
69	0xbce2f532	-0.027704809
70	0x3b540633	0.0032352328
71	0xbbdc147b	-0.0067163086
72	0x3c9082d0	0.017640501
73	0x3d3d9208	0.046281844
74	0xbd1cc388	-0.03827241
75	0xbd31a1d4	-0.043367222
76	0xbd994f85	-0.0748587
77	0xbd9a7a6b	-0.075428806
78	0xbd4995bb	-0.04921506
79	0xbdadd868	-0.08488542
80	0xbdae8462	-0.08521344
81	0xbd825b3f	-0.0636506
82	0xbdab2eed	-0.0835856
83	0x3d8b4d46	0.06801848
84	0x3d8f4fb8	0.06997627
85	0x3dda8d43	0.10671475
86	0x3cd7f853	0.026363527
87	0xbc9b7c61	-0.018980207
88	0x3d1d7b40	0.03844762
89	0x3d145bc7	0.03622034
90	0x3dc04e85	0.093899764
91	0x3bed418a	0.007240479
92	0x3d94bb18	0.07262248
93	0x3cee5cd2	0.029096995
94	0xbc27f964	-0.01025233
95	0xbc9b7eda	-0.018981386
96	0x3de4938b	0.11160954
97	0x3cba648c	0.022753023
98	0xbd37873c	-0.044806704
99	0x3b98ebf0	0.004666798
100	0xbd36589d	-0.044518102
101	0x3d52a63f	0.051428076
102	0x3ce9eec5	0.028556237
103	0x3dd5308a	0.10409649
104	0x3dadb0b2	0.084809676
105	0x3ca16656	0.019702118
106	0x3cdf23e2	0.02723879
107	0xbd69d421	-0.057087068
108	0xbcf9a93c	-0.030476205
109	0x3cbe5c3c	0.02323734
110	0xbd100ef3	-0.035170507
111	0xbcfc69a2	-0.030812088
112	0xbd87dca3	-0.0663388
113	0x3d4375c2	0.047719724
114	0xbd1496ed	-0.036276747
115	0xbb8fa969	-0.004384209
116	0x3c2cf740	0.010556996
117	0x3d2927a2	0.041297562
118	0x3c57ca64	0.013170812
119	0x3d76eb10	0.060282767
120	0xbda2e3c7	-0.07953601
121	0x3d3914fe	0.045186035
122	0x3dbdb9a0	0.09263921
123	0xbd490f1c	-0.049086675
124	0x3bde1d07	0.0067783627
125	0xbc6c6d52	-0.014430361
126	0x3cab3064	0.020897098
127	0xbcf976ee	-0.030452218
128	0xbd63dd91	-0.055631224
129	0xbd6245c7	-0.055242326
130	0xbd0dc8df	-0.034615394
131	0xbcab6929	-0.020924168
132	0xbd9ee861	-0.077591665
133	0xbc99d7a7	-0.018779589
134	0x3daa0620	0.083019495
135	0xbd2f815c	-0.042847976
136	0x3db8d708	0.09025389
137	0xbd2bc966	-0.041940115
138	0x3ddb13ec	0.10697159
139	0xbdaa8e67	-0.08327942
140	0x3cb87807	0.022518171
141	0x3d88fd5b	0.06688949
142	0x3d524b51	0.05134136
143	0xbdda1bf2	-0.106498614
144	0xbcf2a544	-0.02961982
145	0x3d719b2a	0.058985867
146	0x3c7ce65a	0.0154357795
147	0x3db471a5	0.088107385
148	0x3daed598	0.085368335
149	0xbd4900f2	-0.049073167
150	0x3d8a6df0	0.0675925
151	0x3d9000e2	0.070314184
152	0xbda7dd9e	-0.08196567
153	0x3d03c98b	0.03217463
154	0x3d5e5349	0.054278646
155	0x3d288591	0.041143004
156	0x3c247605	0.010037904
157	0xbc21caeb	-0.00987504
158	0xbb7db650	-0.0038713403
159	0xbcb12322	-0.021623198
160	0x3d3b799e	0.04577028
161	0xbc768521	-0.015046389
162	0x3d1b777a	0.03795574
163	0x3d9cadb8	0.07650322
164	0x3c3bd943	0.011465373
165	0xbcc443df	-0.023958145
166	0x3c93e808	0.018054977
167	0x3da9a0c5	0.082826175
168	0x3b493ea4	0.0030707503
169	0x3da4c5ad	0.08045516
170	0x3cfacb51	0.030614527
171	0xbcd4c39b	-0.025972178
172	0xbd0d2e18	-0.034467787
173	0x3d6d0a26	0.057871006
174	0xbc356716	-0.011071941
175	0xbb3bad28	-0.0028637145
176	0xbd62cc67	-0.055370715
177	0x3d11ecf5	0.03562637
178	0x3c9549ef	0.01822373
179	0x3d8ee892	0.06977953
180	0xbc286bd9	-0.010279619
181	0xbbddf35c	-0.0067733955
182	0xbd46f92e	-0.04857748
183	0x3d45562c	0.048177883
184	0x3d57dba9	0.05269972
185	0x3dd1bd9d	0.10241244
186	0xbd62aaac	-0.055338547
187	0x3c832078	0.016006693
188	0x3d09db40	0.03365636
189	0x3c87fc2b	0.016599735
190	0x3da9bff6	0.08288567
191	0x3d4c5b31	0.049891654
192	0x3d6ffca5	0.05859055
193	0xbc9931ee	-0.018700566
194	0xbdbb8ac4	-0.09157327
195	0x3c8db74c	0.017299317
196	0x3c1fb656	0.009748062
197	0xbd85cb0f	-0.06532871
198	0xbc19e324	-0.009392533
199	0xbdb5fc94	-0.08886066
200	0x3d15bda9	0.036557827
201	0x3cd94ee0	0.026526868
202	0x3d553c2a	0.05205933
203	0xbdcecbf5	-0.100974955
204	0x3d4bc06f	0.049744066
205	0xbd5b8b48	-0.053599626
206	0x3d929991	0.07158197
207	0xbd55f0b8	-0.05223152
208	0xbd63d335	-0.055621345
209	0xbd20bdee	-0.03924363
210	0xbc4a1724	-0.012334619
211	0xbb345a88	-0.002751978
212	0xbd84bab3	-0.064809225
213	0xbd8a51a9	-0.06753857
214	0xbd3409bd	-0.0439546
215	0xbd0464a1	-0.03232253
216	0x3c5266e4	0.012841914
217	0x3d2b675f	0.04184663
218	0xbd81d1ab	-0.06338819
219	0x3d105ea3	0.035246503
220	0xbd5cf452	-0.05394394
221	0xbb95dae4	-0.004573213
222	0x3d99c7d4	0.07508817
223	0x3d9c8930	0.07643354
224	0x39aec8ae	0.00033337384
225	0xbcf26ac3	-0.029591924
226	0x3db612f1	0.088903315
227	0x3d1f7ab8	0.038935393
228	0x3dbe7dd5	0.09301344
229	0xbdd6169f	-0.104535334
230	0x3d1591ac	0.036515877
231	0xbd7d0e13	-0.061781
232	0xbd499bdd	-0.04922091
233	0x3d72c05b	0.059265476
234	0x3db8a63d	0.090160824
235	0xbdab6295	-0.083684124
236	0x3d9b2f26	0.07577352
237	0x3d707414	0.05870445
238	0xbc6c3625	-0.014417206
239	0xbd8b3386	-0.06796937
240	0x3d699e6e	0.057035856
241	0xbc28c1a0	-0.01030007
242	0xbda91348	-0.08255631
243	0x3d913f98	0.07092208
244	0xbceb5422	-0.028726641
245	0xbd445c93	-0.04793985
246	0x3d82b92a	0.063829735
247	0xbc19c1f0	-0.009384617
248	0x3dba892f	0.09108197
249	0x3d0b74e6	0.03404703
250	0x3da94111	0.082643636
251	0x3c6b5832	0.014364289
252	0x3c66e40e	0.014092458
253	0xbd2768fe	-0.040871613
254	0x3d26bf65	0.04070987
255	0x3d02a03e	0.0318911

feature.4.bias f4 [128]
0	0x3bd9c5d3	0.006645897
1	0x3d948d58	0.07253522
2	0xbd806873	-0.06269922
3	0xbdbcb8f1	-0.09214962
4	0x3dad3d4e	0.084589586
5	0xbd4dfbd1	-0.05028898
6	0xbcd2f086	-0.025749456
7	0x3c0a21ef	0.008430942
8	0x3dad4089	0.08459575
9	0x3bcad033	0.00618937
10	0xbd271c96	-0.040798746
11	0x3c0bf0b0	0.008541271
12	0x3ca2ae68	0.019858554
13	0xbd354846	-0.04425838
14	0x3d25145b	0.040302616
15	0x3dc76236	0.09735529
16	0xbd59672c	-0.053076908
17	0x3d8019b5	0.06254903
18	0x3c8703d2	0.016481314
19	0x3dd29735	0.10282747
20	0xbd1e48ee	-0.03864377
21	0xbd73fb2b	-0.059565704
22	0xbae0064a	-0.0017091718
23	0x3d8afb08	0.06786162
24	0xbd12fd73	-0.03588624
25	0x3dcfab23	0.101400636
26	0x3cf4ec2f	0.029897777
27	0xbdade166	-0.08490257
28	0xbc1afa85	-0.009459143
29	0xbd9c3e4a	-0.07629068
30	0xbc1d68cd	-0.009607506
31	0xbd98f1cc	-0.07467994
32	0x3d55230f	0.052035388
33	0x3c919e9f	0.017775832
34	0x3d92028a	0.071293905
35	0x3c191cc6	0.009345239
36	0x3d0387a5	0.032111783
37	0x3da22a8c	0.079182714
38	0xbd792704	-0.060828224
39	0x3c4fad1b	0.012675549
40	0xbd85ec33	-0.06539192
41	0x3db46ee1	0.08810211
42	0xbd856c0a	-0.065147474
43	0xbd90d683	-0.07072165
44	0x3c0220c5	0.007942383
45	0xbdb30115	-0.08740441
46	0x3d43a0ad	0.047760654
47	0xbd9eee22	-0.07760264
48	0xbd91f173	-0.07126131
49	0x3d918f7f	0.07107448
50	0xbd9c0862	-0.076187864
51	0x3db61ab0	0.08891809
52	0x3d88de2f	0.06683003
53	0x3d882529	0.06647713
54	0x3c6080fa	0.013702625
55	0xbcc11b12	-0.023572478
56	0xbd0fb398	-0.035083383
57	0x3ccb8dc5	0.024847874
58	0x3d88a7ff	0.06672668
59	0x3c52a218	0.012856029
60	0xbbc54371	-0.0060200025
61	0x3d8f4da8	0.06997234
62	0x3cd8cf4f	0.02646604
63	0xbd9795c1	-0.0740161
64	0xbd6afd28	-0.057370335
65	0x3d58afd6	0.052902065
66	0x3da58a23	0.08082988
67	0x3c4688b3	0.012117553
68	0xbd2a40ae	-0.04156559
69	0x3da52b39	0.08064885
70	0xbd656e5b	-0.056013446
71	0x3db50322	0.08838488
72	0x3d344818	0.044014066
73	0x3cb1fabe	0.021726009
74	0xbbc5a7bd	-0.006031959
75	0xbd2bc469	-0.04193536
76	0xbc343c42	-0.011000695
77	0x3d8a5377	0.06754201
78	0xbc385934	-0.011251736
79	0x3d1e77f8	0.03868863
80	0x3dce7e27	0.100826554
81	0xbd399402	-0.045307167
82	0x3cc99297	0.024606032
83	0x3d2c7469	0.042103205
84	0x3c2df8e8	0.010618426
85	0x3d6888fc	0.056771263
86	0x3dd96aa3	0.106160425
87	0xbcc7263b	-0.024310222
88	0x3c84e698	0.016223237
89	0x3d918b52	0.07106651
90	0x3d31abf7	0.04337689
91	0x3cac62b9	0.021043168
92	0xbd5f4762	-0.054511435
93	0x3d2006d9	0.03906903
94	0xbd6a8623	-0.05725683
95	0x3dac2b8a	0.08406742
96	0x3d87e489	0.066353865
97	0x3c38a164	0.011268947
98	0xbcb7c072	-0.022430632
99	0x3d8779f4	0.066150576
100	0xbd8733df	-0.066016905
101	0x3d8d3b95	0.0689613
102	0x3ccfb52d	0.025354946
103	0x3db6ec39	0.08931775
104	0xbb409b99	-0.0029389618
105	0x3d56012b	0.052247208
106	0xbaf6e506	-0.0018836565
107	0x3c9fa851	0.01948944
108	0xbdb6c3de	-0.089240775
109	0xbd5f54c9	-0.054524217
110	0x3de473f4	0.11154929
111	0xbd90812b	-0.07055887
112	0x3d9d01ae	0.07666336
113	0x3d73be45	0.059507627
114	0x3cbec6ab	0.023288092
115	0xbc54fb59	-0.012999379
116	0xbd432159	-0.047639225
117	0x3d53cf76	0.051711522
118	0xbc24c15f	-0.010055869
119	0xbba62f07	-0.005071524
120	0x3d1593f9	0.03651807
121	0xbd50a226	-0.050935887
122	0x3bc8add4	0.0061242376
123	0x3d9dcd81	0.077052124
124	0x3cd6c898	0.026218697
125	0x3d0986ab	0.033575695
126	0x3d626e5a	0.05528102
127	0x3c6fe1f5	0.014641275

actor_mean.0.weight f4 [128, 128]
0	0x3ca6549d	0.020304019
1	0xbc570916	-0.013124725
2	0x3d964799	0.07337875
3	0x3cf2e3fd	0.029649729
4	0xbd585c66	-0.052822493
5	0xbd1d534d	-0.03840952
6	0xbd18a93b	-0.037270766
7	0xbb89b159	-0.0042020497
8	0xbc4b2f2b	-0.012401382
9	0xbd51a29d	-0.05118047
10	0xbd7f519a	-0.06233368
11	0x3d7d760c	0.061880156
12	0x3da34474	0.07972041
13	0xbd9abe05	-0.075557746
14	0x3c1193fe	0.008885382
15	0xbcd33723	-0.025783127
16	0x3d644870	0.055733144
17	0xbd2225bf	-0.03958678
18	0xbcae24de	-0.021257814
19	0xbd752ec6	-0.05985906
20	0x3ba3f8b0	0.005004011
21	0x3dbe3aea	0.09288581
22	0x3d808105	0.062746085
23	0x3c9e60b3	0.01933322
24	0xbc17bac5	-0.009260838
25	0x3da450f5	0.08023254
26	0x3d328bc9	0.04359034
27	0x3d4183ae	0.04724472
28	0xbda480b9	-0.080323644
29	0xbd8b5032	-0.068024054
30	0xbd942730	-0.07234037
31	0xbd9d37bb	-0.07676645
32	0xbd38c012	-0.045105048
33	0xbd9e93b4	-0.07743016
34	0x3d55197a	0.05202625
35	0x3d7f7591	0.06236798
36	0xbd7250da	-0.059159137
37	0x3d58be0e	0.052915625
38	0xbca58841	-0.020206572
39	0xbd457c76	-0.0482144
40	0x3d81b422	0.06333186
41	0x3da03371	0.07822312
42	0xbc9458cd	-0.01810875
43	0x3ce248b0	0.02762255
44	0xbd13e43d	-0.036106337
45	0x3ce9e920	0.028553545
46	0x3a4f74ec	0.0007913846
47	0x3d49a616	0.049230658
48	0xbcbaa33a	-0.02278291
49	0x3d2cfba5	0.042232174
50	0xbd80a014	-0.062805325
51	0x3da11b3a	0.07866521
52	0xbcc7dd9d	-0.024397666
53	0x3ceb856e	0.028750148
54	0xbd2518e1	-0.04030693
55	0xbd734aba	-0.059397437
56	0x3bc42431	0.0059857597
57	0x3d078484	0.03308536
58	0x3d919be6	0.071098134
59	0xbc5adc6f	-0.0133582195
60	0xbdb4b46f	-0.088234775
61	0xbd3f937d	-0.046771515
62	0x3d55cdcb	0.052198213
63	0xbd3feb3c	-0.046855196
64	0xbcdd1da2	-0.02699167
65	0xbd89f054	-0.06735292
66	0xbd988384	-0.074469596
67	0xbc736b32	-0.0148571
68	0xbd95c512	-0.07312979
69	0x3d7ec49f	0.06219923
70	0x3d13ae8c	0.036055133
71	0xbc93050d	-0.017946744
72	0xbdabb4d6	-0.08384101
73	0xbd73453f	-0.05939221
74	0x3d9def62	0.07711674
75	0x3daf5fdf	0.08563208
76	0x3d0838fc	0.03325747
77	0xbd2dfd75	-0.042478044
78	0x3a7ddf05	0.00096844166
79	0x3cebd910	0.028790027
80	0x3c7b16c5	0.015325253
81	0xbc619407	-0.013768203
82	0x3cd55775	0.02604268
83	0xbc447b12	-0.011992233
84	0x3dca29be	0.09871243
85	0xbc8d45b8	-0.017245159
86	0xbd0dd7a6	-0.034629487
87	0x3d5aac93	0.053387236
88	0x3c2f6275	0.010704626
89	0x3d0a56d7	0.033774223
90	0xbc80a36a	-0.015702922
91	0xbba41099	-0.0050068614
92	0x3d45132f	0.048113998
93	0x3d513c81	0.05108309
94	0xbbeea484	-0.0072827954
95	0xbd2a587d	-0.041588295
96	0xbd6ae75b	-0.057349544
97	0xbd22c575	-0.03973909
98	0x3d3f55ea	0.046712793
99	0xbd643d32	-0.055722423
100	0xbd8bfa57	-0.06834858
101	0xbd088616	-0.033331
102	0x3d812bbe	0.06307171
103	0x3d8a0179	0.06738562
104	0xbbfca779	-0.007710394
105	0x3cf8653f	0.030321715
106	0x3dadc088	0.08483988
107	0x3d5272de	0.051379077
108	0x3d64697b	0.055764657
109	0x3d342343	0.04397894
110	0xbd70f9cb	-0.05883197
111	0x3d855f48	0.06512314
112	0xbc8e2fb2	-0.017356727
113	0xbcf65bfd	-0.03007316
114	0xbcb52600	-0.022112846
115	0x3cf186f5	0.029483298
116	0x3bc3144d	0.005953348
117	0xbc7a058e	-0.015260113
118	0x3bfb025a	0.0076601924
119	0x3c9470d5	0.018120209
120	0xbccd1fc4	-0.025039561
121	0x3d9a9e13	0.075496815
122	0x3d26cfbc	0.040725455
123	0x3cc17340	0.023614526
124	0xbdbda203	-0.09259417
125	0x3b03b809	0.0020098707
126	0x3cfb2798	0.030658528
127	0xbcf21268	-0.029549792
128	0x3da59900	0.08085823
129	0x3d28c70c	0.04120545
130	0xba1d5856	-0.0006002238
131	0xbc349bc4	-0.011023466
132	0x3c3f2641	0.011666835
133	0xbbb740d3	-0.0055924444
134	0xbcba3273	-0.022729134
135	0xbd945156	-0.07242076
136	0xbcf4e720	-0.029895365
137	0x3d98db83	0.074637435
138	0x3c0699f5	0.008215417
139	0xbd780035	-0.060547072
140	0x3d320754	0.04346402
141	0x3bcf15c0	0.0063197315
142	0xbda29d83	-0.07940199
143	0xbd61ff7d	-0.055175293
144	0x3da21b41	0.079153545
145	0xbd3f4ebb	-0.046705943
146	0x3cf9d2b4	0.030495979
147	0x3d33c63c	0.043890223
148	0xbd8b2635	-0.06794397
149	0xbb28bd01	-0.002574742
150	0xbbaf5b78	-0.00535148
151	0x3be22bdd	0.0069022016
152	0x3d203e4c	0.03912191
153	0xbd208a33	-0.039194297
154	0xbcc11d3c	-0.02357351
155	0x3d99e051	0.07513488
156	0x3d7289e5	0.059213538
157	0xbccae8dd	-0.024769241
158	0xbcc11928	-0.023571566
159	0x3da8b685	0.08237938
160	0x3dbde6ca	0.09272535
161	0x3cfb24e7	0.030657245
162	0xbcb460bd	-0.022018785
163	0x3daecc7a	0.085350946
164	0x3d1c8c3d	0.03821968
165	0x3d4953fd	0.049152363
166	0xbd48c564	-0.04901637
167	0xbd9df59f	-0.07712864
168	0x3d882c30	0.06649053
169	0xbbb229bb	-0.0054371036
170	0xbcc25b55	-0.023725191
171	0xbda19e8b	-0.07891568
172	0x3d44c62b	0.04804055
173	0xbcab40db	-0.020904949
174	0x3c01ef10	0.007930532
175	0x3c6bb2f8	0.014385931
176	0xbd86466a	-0.06556399
177	0xbc8ac562	-0.016939823
178	0xbd78d0e0	-0.060746074
179	0x3d576dc8	0.05259493
180	0xbd24c3dd	-0.040225852
181	0x3d3defd4	0.046371296
182	0xbcedd6bf	-0.029033063
183	0xbd131663	-0.03591002
184	0x3a289d9d	0.00064321776
185	0x3d54b07a	0.051926114
186	0x3d5afdc0	0.05346465
187	0x3af0c6ae	0.0018369758
188	0x3d572747	0.052527692
189	0x3accf87f	0.0015638022
190	0x3d94845a	0.072518066
191	0xbd877f61	-0.066160925
192	0xbccbe242	-0.024888162
193	0xbd8de05f	-0.06927561
194	0x3d963101	0.073335655
195	0xbc305bde	-0.01076409
196	0xbc8dfbb2	-0.017331932
197	0xbd763f75	-0.06011911
198	0x3d476020	0.048675656
199	0x3a9952f9	0.0011697701
200	0xbdb386c6	-0.0876594
201	0x3cecc188	0.028900877
202	0x3c9e98e9	0.019360023
203	0x3bb1b70c	0.005423432
204	0x3d669e19	0.056303117
205	0xbd1fff0e	-0.0390616
206	0x3d1cd219	0.038286302
207	0x3db641a6	0.0889924
208	0x3d505119	0.05085859
209	0xb6ede96d	-7.0903247e-06
210	0xbcc8b129	-0.024498539
211	0xbd16f9f0	-0.036859453
212	0x3daee55f	0.08539843
213	0xbd8a6dbd	-0.06759212
214	0xbca54ae2	-0.020177308
215	0x3cfa949e	0.030588444
216	0x3d8b3e7c	0.06799027
217	0x3d08e342	0.033419855
218	0x3cd64828	0.026157454
219	0xbc29ab13	-0.010355729
220	0xbd1e7b2b	-0.03869168
221	0x3d297b35	0.041377265
222	0x3d4d8142	0.050172098
223	0x3d91b008	0.071136534
224	0xbda021d8	-0.07818955
225	0xbd9ea1a9	-0.07745678
226	0x3d580a71	0.052744333
227	0x3c5d1e42	0.013495984
228	0x3d5f3426	0.054493092
229	0xbcea5d26	-0.02860887
230	0xbd54d6c2	-0.05196262
231	0x3d40b820	0.047050595
232	0x3d89c07c	0.067261666
233	0xbdb2fe2b	-0.08739885
234	0x3d589714	0.052878454
235	0x3d01201f	0.031524774
236	0x3d84f550	0.06492102
237	0x3daa17bb	0.083053075
238	0x3d90729d	0.07053111
239	0xbcbdb390	-0.023156911
240	0x3d38cd4d	0.045117665
241	0xbc43dc6c	-0.011954408
242	0x3d217975	0.03942247
243	0x3d6c4eb9	0.057692263
244	0x3ca07a87	0.019589676
245	0x3d6b2b0c	0.0574141
246	0xbcf5cc4a	-0.03000464
247	0x3d7fe806	0.062477134
248	0x3d481e1d	0.048856843
249	0xbd17a154	-0.03701909
250	0x3d899d85	0.067194976
251	0xbd497c57	-0.049190845
252	0xbd9e3f7f	-0.07726955
253	0xbcd6d899	-0.026226329
254	0x3d897cae	0.06713234
255	0x3d53aa28	0.051675946

actor_mean.0.bias f4 [128]
0	0x3d2ac8fd	0.041695584
1	0xbc000378	-0.007813327
2	0x3da7f205	0.082004584
3	0xbda863f1	-0.08222187
4	0x3d00600b	0.031341594
5	0xbd94645a	-0.07245703
6	0x3bd10ae7	0.0063794735
7	0x3d10a223	0.035310876
8	0x3d1f8b4f	0.038951214
9	0xba810a46	-0.0009844981
10	0xbd049977	-0.032372918
11	0xbd886c59	-0.06661291
12	0xbd95ae70	-0.07308662
13	0x3da0e100	0.07855415
14	0xbb860790	-0.004090257
15	0xbd1edd02	-0.03878499
16	0xbd644f96	-0.05573996
17	0xbc84b530	-0.016199678
18	0x3d8f5dca	0.07000311
19	0xbda82e12	-0.08211912
20	0x3a494e2d	0.00076791906
21	0xbd42f891	-0.047600333
22	0xbd581866	-0.052757643
23	0xbd8236da	-0.06358118
24	0x3d77fc23	0.06054319
25	0x3db31d50	0.08745825
26	0x3d7e5480	0.062092304
27	0xbcafdd43	-0.02146781
28	0xbda3f380	-0.08005428
29	0xb9f46e55	-0.0004662151
30	0x3d785a8f	0.06063324
31	0xbc11fd9c	-0.008910563
32	0x3d0b57a1	0.034019116
33	0xbd815aef	-0.06316172
34	0xbd3d9bcb	-0.046291154
35	0xbb52bb20	-0.0032154992
36	0xbd9ba703	-0.07600214
37	0x3d043c78	0.03228423
38	0xbd5fd652	-0.05464775
39	0x3d0316fe	0.03200435
40	0xbc98c5a3	-0.018648928
41	0xbc26aa6a	-0.010172466
42	0x3dabd588	0.08390337
43	0xbc8972c8	-0.016778365
44	0x3d4b9cd3	0.049710106
45	0xbd51f598	-0.051259607
46	0x3d5ef7d9	0.054435585
47	0xbd72aa12	-0.059244223
48	0xbda75c84	-0.08171943
49	0x3d74794b	0.059685986
50	0xbd9dd4df	-0.077066176
51	0x3d80b3b6	0.06284277
52	0xbac1fdee	-0.0014800408
53	0xbcaf2daf	-0.021384088
54	0x3d4866ff	0.04892635
55	0xbd7fe387	-0.062472846
56	0x3dad4fa7	0.08462458
57	0x3d82945b	0.06375953
58	0xbda9c6b3	-0.08289852
59	0x3daa9b5b	0.08330413
60	0xbdb38ccb	-0.087670885
61	0x3c917a6f	0.017758576
62	0x3da4b0d2	0.08041538
63	0xbd2eba8f	-0.042658385
64	0xbd6baedb	-0.057539802
65	0x3da714b8	0.08158249
66	0x3c1bfcaa	0.009520689
67	0x3da9afc1	0.082854755
68	0xbd913581	-0.07090283
69	0x3da2bc68	0.07946092
70	0x3d98e59d	0.0746567
71	0xbd166448	-0.03671673
72	0x3d58904f	0.052872
73	0xbc2f8421	-0.010712654
74	0x3da651d1	0.08121074
75	0xbd9a82f6	-0.0754451
76	0xbd641dbd	-0.055692423
77	0xbd5b52b1	-0.053545658
78	0xbd540920	-0.051766515
79	0x3da6fd1a	0.08153744
80	0xbb3a3e28	-0.0028418396
81	0x3c95bb6d	0.018277848
82	0x3cf2510d	0.029579664
83	0xbd5c6204	-0.053804412
84	0x3db6dff5	0.08929435
85	0xbb1d63ee	-0.0024015862
86	0xbd34979f	-0.04408991
87	0xbd5bc4b8	-0.053654402
88	0xbca5f61d	-0.020258958
89	0x3d1b07ee	0.03784936
90	0xbdb4c577	-0.08826726
91	0xbcad4dee	-0.021155324
92	0x3d950be0	0.072776556
93	0x3d98ae67	0.074551396
94	0x3cea3046	0.028587472
95	0xbba008a7	-0.004883844
96	0x3d5e216b	0.05423109
97	0x3c8a29d6	0.016865652
98	0xbd4b4176	-0.049622975
99	0xbd43a722	-0.047766812
100	0x3d8593b8	0.06522316
101	0x3d46e912	0.048562117
102	0xbdb645a8	-0.089000046
103	0xbc3b3387	-0.011425859
104	0xbda498c8	-0.08036953
105	0xbc8d2907	-0.017231477
106	0xbcfd7df3	-0.030943846
107	0x3cc2ed88	0.023794904
108	0x3c9c5d8c	0.019087575
109	0xbdb4e232	-0.08832206
110	0x3cd73205	0.026268968
111	0x3db99b81	0.09062863
112	0xbd3d7453	-0.046253514
113	0x3cf72dad	0.030173147
114	0x3d7bf2b7	0.061510768
115	0x3d0c1447	0.034199025
116	0x3c5e4478	0.013566129
117	0x3d87f46b	0.06638416
118	0x3cf7ea1e	0.030263003
119	0xbd28a95b	-0.041177135
120	0x3d1bfb90	0.038081706
121	0x3da03f17	0.078245334
122	0x3d7f5b2a	0.0623428
123	0x3d8980e6	0.067140386
124	0xbcc82347	-0.024430884
125	0xbd302a8b	-0.043009322
126	0xbcf1c2b7	-0.029511793
127	0xbd7ff34b	-0.06248788

actor_mean.2.weight f4 [2, 128]
0	0x3db8d11a	0.09024258
1	0x3bb1128d	0.0054038228
2	0xbd93da84	-0.07219413
3	0x3cbd96ba	0.023143161
4	0xbc908579	-0.01764177
5	0x3ce56f78	0.028007254
6	0x3c16a4b8	0.009194545
7	0xb97bf4ae	-0.00024028376
8	0x3db08ba4	0.08620384
9	0xbcc50591	-0.024050506
10	0xbda93825	-0.08262662
11	0xbcb32a83	-0.021870857
12	0x3cbf6cc6	0.023367297
13	0x3d7f8aee	0.062388353
14	0x3dbcefc1	0.09225417
15	0xbd22359d	-0.03960191
16	0x3d07384d	0.033012677
17	0xbd8b90e7	-0.06814747
18	0xbd08f794	-0.033439234
19	0x3d9924f6	0.07477753
20	0x3d46d5dc	0.048543796
21	0x3d3a02ed	0.045412946
22	0xbd6ef3f5	-0.058338124
23	0xbd975b4d	-0.07390461
24	0x3db6546a	0.089028195
25	0x3d0f2998	0.034951776
26	0xbd87b935	-0.06627122
27	0xbd36502f	-0.044510063
28	0x3ccbe3f7	0.024888976
29	0x3cbd778d	0.023128295
30	0x3d1ffadb	0.039057594
31	0xbcb44943	-0.02200759
32	0x3d0bcbd8	0.034129947
33	0xbd6fe534	-0.058568195
34	0x3df6387c	0.12022492
35	0x3cf535c4	0.029932864
36	0xbd21574a	-0.039389886
37	0x3d31f5bc	0.04344724
38	0x3cc86570	0.024462432
39	0xbcd7a590	-0.026324064
40	0x3d910cb1	0.07082499
41	0xbd52f677	-0.05150458
42	0x3dbd806e	0.09253012
43	0xbd98d9ad	-0.07463393
44	0x3d415575	0.04720064
45	0x3c758a4d	0.014986587
46	0x3d3ea826	0.046547078
47	0xbd04bdf6	-0.032407723
48	0x3d01101b	0.0315095
49	0x3c85b13b	0.016319862
50	0xbc8c2308	-0.017106548
51	0xbd98d42f	-0.07462346
52	0xbd38defb	-0.045134526
53	0x3d5c51cf	0.053788956
54	0x3d1037f5	0.035209615
55	0x3d5a0b5c	0.05323349
56	0xbd35fc4a	-0.044430055
57	0xbd9e5ae1	-0.077321775
58	0xbdac33e7	-0.08408337
59	0x3c959b19	0.018262433
60	0xbd7d0b64	-0.06177844
61	0x3c91022a	0.017701227
62	0x3cf0735f	0.029351888
63	0xbcd18c45	-0.025579581
64	0xbd96cb49	-0.07362992
65	0x3b53c4ac	0.003231327
66	0xbc8b404d	-0.016998434
67	0x3d0d11cb	0.034440797
68	0xbda2288e	-0.079178914
69	0xbc7f692b	-0.015589039
70	0xbd1b631d	-0.03793632
71	0x3d0159fc	0.031579956
72	0xbcb469bb	-0.022023072
73	0xbc467c44	-0.012114588
74	0xbd8982e0	-0.067144156
75	0xbd9dd47c	-0.07706544
76	0xbda564bb	-0.080758534
77	0xbd225726	-0.039633892
78	0xbd999516	-0.07499139
79	0xbd5abe0d	-0.053403903
80	0x3d234bdb	0.039867263
81	0xbba82598	-0.0051314346
82	0x3c87e976	0.016590815
83	0x3da3432b	0.07971796
84	0x3dbef3bd	0.09323833
85	0x3c6e7162	0.0145534
86	0x3db599e6	0.088672444
87	0xbdaea308	-0.085271895
88	0xbd1c366f	-0.03813785
89	0xbd92702a	-0.071503
90	0xbd089414	-0.033344343
91	0xbda729fd	-0.081623055
92	0xbd8b873c	-0.06812903
93	0xbd92860c	-0.07154474
94	0x3cafb998	0.021450803
95	0x3a8327ce	0.001000637
96	0xbd296cbf	-0.041363474
97	0x3b628464	0.0034563774
98	0x3cd330ef	0.02578017
99	0x3d6b977d	0.057517517
100	0x3d39a930	0.045327365
101	0x3d1f95d9	0.038961265
102	0x3d31c66b	0.043402117
103	0x3d9f73ed	0.07785783
104	0xbd3c0027	-0.045898583
105	0x3dab13db	0.083533965
106	0xbd576969	-0.05259076
107	0xbd634e3e	-0.05549454
108	0xbd7bc412	-0.061466284
109	0x3da8acfe	0.08236121
110	0x3d47d001	0.048782352
111	0x3daf5062	0.08560254
112	0xbd491a04	-0.049097076
113	0xbc070d19	-0.008242869
114	0x3d3101db	0.04321466
115	0xbd495f47	-0.04916313
116	0x3caef7f7	0.021358473
117	0xbd445b76	-0.047938786
118	0x3d6c87b2	0.057746597
119	0x3dc1f3c3	0.09470322
120	0x3db5a055	0.088684715
121	0xbc05e520	-0.008172303
122	0xbd042630	-0.03226298
123	0x3b812a68	0.003941823
124	0xbd85f938	-0.06541675
125	0xbcf1e0f4	-0.029526211
126	0x3d2fec04	0.04294969
127	0x3d665ef2	0.05624289
128	0x3c9bfd59	0.019041704
129	0xbd5da751	-0.054114643
130	0xbdb0f1a6	-0.08639841
131	0x3b095367	0.0020954253
132	0x3d8ebd91	0.06969751
133	0xbd812f6e	-0.063078746
134	0xbd9c319f	-0.07626652
135	0xbd869881	-0.065720566
136	0xbcc87a10	-0.024472266
137	0x3c7847c0	0.015153825
138	0xbdaf66d5	-0.085645355
139	0x3cb88aeb	0.022527179
140	0x3ce6a41f	0.02815443
141	0x3d912663	0.070874
142	0x3d8b44d6	0.06800239
143	0xbd87058f	-0.06592857
144	0xbc9c1e5b	-0.019057443
145	0xbd51f5d6	-0.051259838
146	0xbcee756f	-0.029108731
147	0xbdb3bbb7	-0.08776038
148	0xbccd4ffb	-0.025062552
149	0xbd95f3ae	-0.07321869
150	0x3d03629d	0.032076467
151	0x3d35fa94	0.044428423
152	0x3dad880c	0.084732145
153	0xbcd0377e	-0.025417086
154	0x3d963dd0	0.073360085
155	0x3d47e1dd	0.048799384
156	0xbd1ac15d	-0.03778206
157	0x3d5a742f	0.053333458
158	0x3d2e76a4	0.042593613
159	0x3c45ed6e	0.012080533
160	0xbd8dd24f	-0.06924879
161	0x3c617366	0.013760423
162	0x3d45a53e	0.04825329
163	0xbd32909a	-0.043594934
164	0xbca3cb5d	-0.019994432
165	0xbd5fbfcf	-0.054626282
166	0xbb9aca00	-0.0047237873
167	0x3d113adb	0.03545652
168	0xbd7dc771	-0.06195778
169	0xbd177518	-0.036976904
170	0xbbd507dd	-0.0065011815
171	0xbd1cffc8	-0.03832987
172	0xbcaf7ebe	-0.02142274
173	0x3d9f0834	0.077652365
174	0x3d0e5287	0.034746673
175	0x3cb5437c	0.022126906
176	0xbd9cfe5c	-0.07665703
177	0xbce20941	-0.027592303
178	0xbc6a7667	-0.014310456
179	0xbc9db107	-0.019249452
180	0x3d90acd2	0.07064213
181	0xbcd28f37	-0.025703056
182	0x3b8b82f5	0.0042575547
183	0x3da0446a	0.07825549
184	0x3d85469f	0.065076105
185	0xbd27f556	-0.041005455
186	0xbd461402	-0.048358925
187	0xbdb78168	-0.08960229
188	0xbd0452ae	-0.032305412
189	0xbd902ba3	-0.07039573
190	0xbc979762	-0.018504802
191	0xba480542	-0.0007630178
192	0xbd8b006f	-0.06787192
193	0x3d822fbb	0.0635676
194	0xbd99d06b	-0.07510456
195	0x39ee193f	0.00045413707
196	0xbda818e6	-0.08207874
197	0x3ccc1d1c	0.024916224
198	0x3d8ac94a	0.06776674
199	0x3cda9619	0.0266829
200	0x3d808c78	0.06276792
201	0x3db3894d	0.087664224
202	0x3d8164b2	0.06318034
203	0x3bda4c3d	0.0066619203
204	0xbda76a18	-0.08174533
205	0xbd719974	-0.058984235
206	0xbd9f30b1	-0.07772959
207	0x3be3160f	0.00693012
208	0xbca22315	-0.019792119
209	0x3d340938	0.043954104
210	0x3d050356	0.032473885
211	0xbd898393	-0.06714549
212	0x3d194fd5	0.03742965
213	0x3c4b1cd1	0.012397007
214	0xbd7f13ba	-0.062274672
215	0xbbe30384	-0.0069279093
216	0xbd9f42f4	-0.07776442
217	0xbd044d9e	-0.032300584
218	0x3d78cf95	0.06074484
219	0x3d0bad6b	0.03410093
220	0xbcfc06c6	-0.030764949
221	0x3bf7652c	0.0075499024
222	0x3cfe55c2	0.031046752
223	0x3d324a74	0.043528035
224	0x3ca5ee8d	0.020255351
225	0x3cb4b40b	0.022058507
226	0x3d9a45f5	0.075328745
227	0xbd48fbdd	-0.04906832
228	0xbd8e83d7	-0.0695874
229	0x3da0414d	0.07824955
230	0xbd023e56	-0.03179773
231	0x3d271ca9	0.040798817
232	0xbd6b42ba	-0.057436682
233	0xbd2ce325	-0.04220881
234	0xbd368758	-0.044562668
235	0xbd8f1a84	-0.06987479
236	0xbc3dbbb9	-0.011580401
237	0x3c47360b	0.012158881
238	0x3d2e33ec	0.042529985
239	0xbbc59dd9	-0.00603078
240	0xbd9e505c	-0.07730171
241	0xbd426c77	-0.04746672
242	0xbd962bf6	-0.07332604
243	0x3cb5eedd	0.022208625
244	0xbd9b0870	-0.07569969
245	0xbb2fd1db	-0.0026827964
246	0x3c13ee65	0.009029006
247	0xbca91291	-0.020638736
248	0xbc847e69	-0.016173558
249	0x3c2edf01	0.010673285
250	0xbc488c6c	-0.01224051
251	0xbdbdf9f8	-0.092761934
252	0x3db19adb	0.086721145
253	0x3b8fc46b	0.0043874285
254	0x3d66869f	0.05628073
255	0xbd5dd7b1	-0.054160777

actor_mean.2.bias f4 [2]
0	0xbd1ce28f	-0.038302
1	0xbc4a631b	-0.01235273
