path-planning/drone-path-planning-ppo-dynamics/models/ppo_model_episode_30.pth (torch, 344037 bytes, 17 tensors)

feature.0.weight f4 [128, 7]
0	0x3e916329	0.28395966
1	0x3d6b3440	0.057422876
2	0xbe991fad	-0.2990698
3	0x3e0e0462	0.1386886
4	0x3e5ac9ce	0.21366045
5	0xbe4d110a	-0.20026031
6	0xbea6a01b	-0.32544026
7	0xbe9ce1b7	-0.30640957
8	0x3d934b9b	0.07192155
9	0xbea3e3f0	-0.3200984
10	0x3ea06e7d	0.31334296
11	0x3e9beaec	0.3045267
12	0x3e4eb4b2	0.20186117
13	0xbe15a0b4	-0.14612085
14	0x3ec478f4	0.3837353
15	0x3e3c5a47	0.18393813
16	0xbe0cefa4	-0.1376329
17	0xbc9e0a39	-0.019291984
18	0xbe96b39f	-0.29433915
19	0xbe23ab98	-0.15983427
20	0x3d6d5ad2	0.05794794
21	0x3e46f131	0.19427945
22	0x3e8ae952	0.27131134
23	0xbe7ce604	-0.24697119
24	0xbeae2fe2	-0.34020907
25	0xbe49eebd	-0.19719978
26	0x3dd242ba	0.10266633
27	0xbca06ca0	-0.019583046
28	0xbe4ac521	-0.19801761
29	0x3dcbf080	0.09957981
30	0x3d781a1d	0.06057178
31	0xbe9065e6	-0.28202742
32	0x3c45f015	0.012081166
33	0xbd9195cd	-0.0710865
34	0xbeaa295e	-0.33234686
35	0x3e0b8761	0.13625862
36	0x3d94e857	0.07270878
37	0x3e8fd5a3	0.2809268
38	0x3e18f965	0.14938886
39	0x3e179ac6	0.14805135
40	0xbd8406bd	-0.06446598
41	0xbe7e9908	-0.24863064
42	0x3dc27f1b	0.094969
43	0x3eb0fb24	0.34566605
44	0x3d1b15af	0.037862476
45	0x3e1dacc0	0.1539793
46	0xbc35ae7e	-0.011088965
47	0xbcc84dd1	-0.024451168
48	0x3cf785bd	0.030215139
49	0x3ebba098	0.3664596
50	0x3ceafa21	0.028683724
51	0x3eb5c29a	0.35500032
52	0x3d39ccac	0.045361206
53	0xbe7f90a1	-0.24957515
54	0xbe6da627	-0.23207913
55	0x3e34524d	0.1760952
56	0xbd18020d	-0.03711133
57	0x3e1a281f	0.15054367
58	0xbe2cfb0e	-0.16892645
59	0x3db21848	0.086960375
60	0x3e2e0c11	0.1699679
61	0xbe178e25	-0.14800318
62	0x3e2f4cbb	0.17119114
63	0x3e4fdb96	0.20298609
64	0xbe7e789d	-0.24850698
65	0x3e5cce56	0.21563086
66	0xbd751bb4	-0.059840873
67	0x3e4be1dd	0.19910379
68	0xbe34b78d	-0.17648144
69	0x3da4f247	0.08054023
70	0x3e0fc663	0.14040522
71	0xbe34430e	-0.17603704
72	0xbd95d1c3	-0.073153995
73	0x3d9c1c28	0.07622558
74	0xbe14f894	-0.1454795
75	0xbe4fcc09	-0.20292677
76	0xbce23a3c	-0.027615659
77	0xbe534886	-0.20633134
78	0xbe7cc04c	-0.2468273
79	0xbe5be54d	-0.2147419
80	0x3e7fa97a	0.24966994
81	0xbeb654e7	-0.3561165
82	0xbe11f624	-0.14254051
83	0x3dc25910	0.094896436
84	0x3ebe26cd	0.37138978
85	0xbeb14cc5	-0.34628883
86	0xbba0170f	-0.0048855613
87	0xbca5c232	-0.020234201
88	0xbea02a55	-0.31282297
89	0xbe38a0cf	-0.18030094
90	0xbe102d91	-0.14079882
91	0xbebf79d8	-0.37397647
92	0x3e64b940	0.22336292
93	0x3de4c606	0.111705825
94	0x3e9b8d6b	0.3038133
95	0xbe6e5ba3	-0.23277144
96	0xbea41784	-0.3204919
97	0x3dda9e3a	0.106747106
98	0xbd606721	-0.05478585
99	0xbd319bbb	-0.043361407
100	0xbebcf018	-0.36901927
101	0x3ea6c4a1	0.3257189
102	0xbe163551	-0.14668776
103	0xbe957a14	-0.291947
104	0x3eb85b6d	0.36007252
105	0xbcd1605f	-0.025558649
106	0xbeb21960	-0.34784985
107	0x3d7e3f6b	0.0620722
108	0xbeb370ec	-0.3504709
109	0x3e55176c	0.20809716
110	0x3d9467a4	0.072463304
111	0xbdea5533	-0.11442032
112	0x3e20f247	0.15717421
113	0x3ec1df0f	0.37865493
114	0xbe1495b1	-0.14510228
115	0xbe0bfca1	-0.13670589
116	0xbeb1f4bd	-0.34757033
117	0xbe8ca99a	-0.27473146
118	0x3e440ba9	0.19145073
119	0x3e750e52	0.23931244
120	0xbe097db7	-0.13426863
121	0xbd06d808	-0.032920867
122	0xbde53fec	-0.11193833
123	0x3e6fa782	0.23403743
124	0xbeab012c	-0.33399332
125	0x3d379814	0.044822767
126	0x3e804e74	0.25059855
127	0xbce27d44	-0.027647622
128	0xbd361452	-0.044452973
129	0xbd5565f4	-0.052099183
130	0xbe478a05	-0.19486244
131	0xbe821a4a	-0.25410682
132	0xbda478c6	-0.08030848
133	0xbcbf1136	-0.023323637
134	0x3e808969	0.25104836
135	0x3ccbeb97	0.024892611
136	0x3e517ae5	0.20457037
137	0xbe836dd9	-0.25669745
138	0xbe944810	-0.2896123
139	0xbdd6c03e	-0.10485886
140	0x3d1229de	0.03568446
141	0xbe487e89	-0.1957952
142	0x3e19f635	0.15035327
143	0x3d48da19	0.04903612
144	0xbea35d6a	-0.31907207
145	0x3ea68016	0.32519597
146	0xbeb7806b	-0.35840163
147	0xbd402fef	-0.046920713
148	0xbe4c9a66	-0.19980773
149	0x3eaf32ce	0.34218448
150	0x3eb40001	0.35156253
151	0xbe30cd97	-0.17265926
152	0xbeb704c0	-0.3574581
153	0xbe77b0b4	-0.241885
154	0x3ea28ec7	0.31749555
155	0x3bd17a33	0.006392741
156	0xbe6849cc	-0.22684401
157	0x3d600ebd	0.054701556
158	0x3e781e0c	0.24230212
159	0xbe0c95b1	-0.13728978
160	0x3eb95b79	0.362026
161	0x3ea3cdfc	0.3199309
162	0x3c8e3497	0.017359061
163	0x3dd6fb67	0.1049717
164	0xbe613899	-0.21994247
165	0xbe8a30cd	-0.26990357
166	0xbea5610e	-0.3230061
167	0x3d004320	0.031314015
168	0xbdeb2ad3	-0.114827774
169	0xbe8129b9	-0.25227144
170	0x3ea70a0b	0.3262485
171	0x3d5a3523	0.05327333
172	0x3d2f4417	0.042789545
173	0xbda1f190	-0.079074025
174	0x3d44c0d5	0.04803546
175	0x3d2cbd63	0.0421728
176	0xbe1c6ed7	-0.15276657
177	0x3e27a6a3	0.1637216
178	0x3db28c9c	0.08718225
179	0xbc10391a	-0.008802677
180	0xbe2b78d4	-0.16745311
181	0xbe8017b3	-0.2501808
182	0x3ea21a86	0.3166086
183	0x3ea5d32c	0.32387674
184	0xbeb8e994	-0.36115706
185	0x3dbed8a8	0.09318668
186	0xbd440c64	-0.04786338
187	0xbe94b9da	-0.29048043
188	0x3e9ce74b	0.30645213
189	0x3e4018ab	0.1875941
190	0x3e5376ca	0.20650783
191	0x3e02b147	0.12762938
192	0xbe9a5bfe	-0.3014831
193	0x3e60d9e1	0.21958114
194	0xbea26425	-0.3171703
195	0xbe811c1d	-0.2521676
196	0x3dc23e29	0.09484512
197	0xbe82711e	-0.25476927
198	0xbec1d7ab	-0.37859854
199	0xbe031cf2	-0.1280401
200	0x3e0df1f8	0.13861835
201	0xbda81dca	-0.08208807
202	0xbe622e07	-0.2208787
203	0xbe11cc61	-0.1423812
204	0x3dc992fa	0.09842487
205	0xbebe8e96	-0.3721816
206	0xbe636ca8	-0.22209418
207	0x3ea35696	0.31901997
208	0xbd319c71	-0.043362085
209	0xbeaed96d	-0.34150258
210	0xbe790601	-0.24318697
211	0x3d3e1efe	0.046416275
212	0xbe8ea667	-0.2786133
213	0xbebf91c2	-0.37415892
214	0x3db3d00a	0.08779915
215	0x3e71ba44	0.23606211
216	0x3e6bcb78	0.23026836
217	0xbeb1c9a2	-0.34724146
218	0x3d91e99c	0.071246356
219	0x3dcb7029	0.09933502
220	0xbe95273a	-0.2913149
221	0x3e1995ce	0.14998552
222	0xbe6ef5d7	-0.23335968
223	0x3da7ef0c	0.081998914
224	0x3d197829	0.03746811
225	0x3e3263df	0.1742091
226	0x3e9c494a	0.30524665
227	0x3e527f9b	0.2055649
228	0xbe3ee0e3	-0.18640475
229	0xbe6c8309	-0.23096861
230	0x3d28a927	0.04117694
231	0xbe6ac753	-0.22927599
232	0xbdcd370b	-0.10020264
233	0xbe232fff	-0.15936278
234	0xbea7195a	-0.3263653
235	0x3e9b5c2f	0.30343768
236	0x3d24727d	0.040148247
237	0xbe0bf6fb	-0.13668434
238	0x3ddbe08c	0.10736188
239	0x3eac884c	0.33697736
240	0xbd207726	-0.03917613
241	0xbe3df9c3	-0.18552308
242	0xbe618daf	-0.22026704
243	0x3d8e8560	0.06959033
244	0xbe6f3e7c	-0.2336368
245	0xbda9d272	-0.082920924
246	0xbeb048a8	-0.34430432
247	0x3a399e63	0.00070807914
248	0xbe56d6fc	-0.20980448
249	0x3e1ba32b	0.15198962
250	0xbe6d2354	-0.23158008
251	0xbd41ba65	-0.0472969
252	0xbe803cd6	-0.25046414
253	0x3e439553	0.19099931
254	0xbea65f6a	-0.3249467
255	0xbe3d58ad	-0.18490858

feature.0.bias f4 [128]
0	0x3dccad02	0.09993936
1	0xbe7791e2	-0.24176744
2	0x3da390a3	0.07986572
3	0x3e1f54d1	0.15559699
4	0x3cacad80	0.021078825
5	0xbe96fd40	-0.2949009
6	0x3d8f3fb4	0.06994572
7	0xbebdc629	-0.37065247
8	0x3e61388b	0.21994226
9	0x3e1c3054	0.1525281
10	0xbe68e421	-0.22743274
11	0x3d0ed044	0.034866586
12	0x3eac75db	0.33683667
13	0xbe204672	-0.15651873
14	0xbe7a53c5	-0.24446018
15	0xbeb125cf	-0.34599158
16	0x3e2a21b8	0.16614425
17	0x3e3e5449	0.1858684
18	0x3e6861c5	0.22693546
19	0xbe95fbbf	-0.2929363
20	0xbea53950	-0.32270288
21	0x3d1246c7	0.03571203
22	0xbeb3e220	-0.35133457
23	0xbe9b4396	-0.30325
24	0x3e80871b	0.25103077
25	0x3e0b2ba5	0.13590868
26	0xbd9762df	-0.07391905
27	0xbe2e469a	-0.1701912
28	0x3e29d52e	0.16585228
29	0xbd9f285e	-0.07771371
30	0xbe871f89	-0.26391247
31	0xbdb69854	-0.08915773
32	0xbd64ffd1	-0.055908028
33	0x3ce77a76	0.028256636
34	0x3e59c951	0.21268202
35	0xbe4201a3	-0.18945937
36	0xbea739dc	-0.3266133
37	0x3c8cb624	0.017176695
38	0xbd372685	-0.04471447
39	0xbdb7cee7	-0.0897501
40	0xbd2f940f	-0.04286581
41	0xbcb5b8f8	-0.022182927
42	0x3e4c9c00	0.19981384
43	0x3e0b8562	0.136251
44	0xbeb25088	-0.34827065
45	0x3e8ff41c	0.28115928
46	0xbe1ee878	-0.15518367
47	0xbdfcfe45	-0.123531856
48	0x3e5494e9	0.2075993
49	0xbd120197	-0.035646047
50	0xbe5bc596	-0.21462092
51	0x3e952cdf	0.29135796
52	0xbdd37674	-0.103253275
53	0xbe7940ed	-0.24341173
54	0x3e635e5b	0.22203963
55	0xbe3512a7	-0.17682897
56	0x3ea2b5d4	0.3177935
57	0xbe8ab0ef	-0.27088115
58	0xbc036a9a	-0.008021021
59	0xbc5aa06a	-0.01334391
60	0xbe30b7fd	-0.17257686
61	0xbeacb280	-0.33729935
62	0xbdc8ae28	-0.09798843
63	0x3cce7bde	0.025205549
64	0x3ea7688c	0.3269695
65	0x3ea8493e	0.3286838
66	0xbd20143c	-0.039081797
67	0x3ec258cd	0.37958375
68	0xbeb7e31f	-0.35915467
69	0x3ebcc235	0.36866918
70	0xbe96cdaa	-0.29453784
71	0xbea90c70	-0.33017302
72	0xbe383ba6	-0.17991504
73	0x3d939cce	0.072076425
74	0x3d81e7bd	0.06343029
75	0x3dbee04c	0.09320125
76	0x3ead4a60	0.33845806
77	0x3dc3940c	0.09549722
78	0x3d18f8d4	0.037346676
79	0x3dd0528b	0.10171994
80	0xbe180ec8	-0.14849389
81	0xbe524494	-0.20533973
82	0x3e94e9e6	0.290847
83	0x3dda35ab	0.106547676
84	0x3e14fc79	0.14549436
85	0xbe46db61	-0.19419624
86	0x3c28e342	0.010308089
87	0x3e816fa3	0.25280485
88	0x3e9d428f	0.30714843
89	0xbeaf3da0	-0.34226704
90	0xbde881fb	-0.11352917
91	0x3e87ccc8	0.26523423
92	0x3d9c01a6	0.07617502
93	0x3e84e633	0.25956878
94	0xbeaf9a53	-0.34297428
95	0xbce5617d	-0.028000588
96	0x3e1003fd	0.14064021
97	0x3db870df	0.090059035
98	0xbe94cbfd	-0.2906188
99	0xbe5aeaaa	-0.2137858
100	0x3dac10b6	0.08401625
101	0xbebb733d	-0.36611357
102	0x3eaff877	0.3436925
103	0x3e17b730	0.14815974
104	0xbe6f3bcb	-0.23362653
105	0xbe98eb42	-0.29866987
106	0x3e52b08f	0.20575164
107	0xbeb3f9c5	-0.35151497
108	0x3d2ad714	0.04170902
109	0x3e752ce1	0.23942901
110	0x3d91652d	0.07099376
111	0xbcdf0a09	-0.027226465
112	0xbe62c0b3	-0.22143821
113	0x3df0d8d6	0.11760108
114	0xbe89ea20	-0.26936436
115	0xbcecefbe	-0.028922912
116	0xbe706171	-0.23474671
117	0x3e208de3	0.15679125
118	0xbebe6409	-0.37185696
119	0xbe66c3ff	-0.22535704
120	0x3eba2d37	0.3636262
121	0xbdcd6918	-0.10029811
122	0x3e93f042	0.2889424
123	0xbebdf728	-0.37102628
124	0xbdd19e77	-0.10235303
125	0xbbef34fd	-0.007300018
126	0xbe7bec59	-0.24601878
127	0xbe6df9e3	-0.23239855

feature.2.weight f4 [128, 128]
0	0x3da504ef	0.08057582
1	0x3ce2fcf4	0.027708508
2	0xbd96782f	-0.07347142
3	0xbcbd3257	-0.023095293
4	0x3dae0091	0.08496202
5	0xbcc47dda	-0.023985792
6	0xbd890b24	-0.06691578
7	0x3d235dda	0.039884426
8	0x3d53c20b	0.051698726
9	0xbd8185e3	-0.06324365
10	0x3d4f5cdf	0.05062568
11	0xbcce4b27	-0.02518232
12	0xbca6087a	-0.020267714
13	0xbda3ce07	-0.07998281
14	0x3d99c4ea	0.075082615
15	0xbc563ede	-0.013076512
16	0xbc84ad90	-0.016196042
17	0xbd2d5d91	-0.04232556
18	0x3d8a5f31	0.067564376
19	0xbd510ac8	-0.051035672
20	0xbd9e4bc4	-0.07729295
21	0x3b8c5abf	0.0042832787
22	0xbd823fe7	-0.06359845
23	0xbd37b171	-0.044846956
24	0x3da662fc	0.081243485
25	0x3d7b2418	0.06131372
26	0x3da5ba5f	0.08092188
27	0xbd536cbf	-0.05161738
28	0xbd6288b9	-0.05530617
29	0xbcf8895b	-0.030338934
30	0xbba9b78f	-0.0051793526
31	0xbda575d1	-0.08079112
32	0xbd857810	-0.06517041
33	0xbc99c6f4	-0.018771626
34	0xbb3b2d9f	-0.0028561128
35	0xbda575f2	-0.08079137
36	0xbd95e366	-0.073187634
37	0xbcc93942	-0.024563435
38	0x3da5600d	0.08074961
39	0x3aebe893	0.001799839
40	0xbc5d66b8	-0.01351326
41	0xbdb1d443	-0.08683064
42	0x3d216229	0.039400253
43	0xbd11be4d	-0.035581876
44	0xbcee0ce4	-0.029058881
45	0xbd8edb11	-0.06975377
46	0xbd56680c	-0.05234532
47	0x3b991d23	0.004672663
48	0x3c77d6ec	0.015126925
49	0xbc998f67	-0.018745137
50	0x3cc3244c	0.023821019
51	0x3d128ee0	0.035780787
52	0x3d5f864b	0.05457143
53	0xbd814d6b	-0.063135944
54	0xbd2973f3	-0.041370343
55	0x3b9a0336	0.00470009
56	0x3c973f2e	0.018462744
57	0x3d3549a3	0.04425968
58	0xbd01da84	-0.031702533
59	0x3b946cbc	0.0045295637
60	0xbca9cc54	-0.020727314
61	0xbd8baa37	-0.06819575
62	0xbcbe08fd	-0.023197645
63	0xbbae924c	-0.0053274985
64	0xbd7ce12c	-0.061738178
65	0x3d81e503	0.06342509
66	0xbd6b0bf2	-0.05738444
67	0xbd6fbca6	-0.05852952
68	0xbcc91751	-0.024547251
69	0xbd90dbfd	-0.070732094
70	0xbc79da01	-0.01524973
71	0xbb9aa551	-0.0047194143
72	0xbd72b7f8	-0.059257478
73	0x3d2b833b	0.041873198
74	0x3d029914	0.031884268
75	0x3d7b58ac	0.06136386
76	0x3d6539eb	0.055963438
77	0xbd212a63	-0.039347064
78	0xbd578897	-0.052620497
79	0xbd923abe	-0.071401104
80	0x3d3c433d	0.04596256
81	0x3d350ea9	0.044203434
82	0xbd795d6c	-0.06088011
83	0xbd6a11f1	-0.057146017
84	0xbd748534	-0.059697345
85	0x3c80645b	0.015672853
86	0xbd63e38f	-0.05563694
87	0x3c9a2b2a	0.01881941
88	0xbd0bda57	-0.034143772
89	0xbd405fff	-0.04696655
90	0xbd5a8f83	-0.05335952
91	0x3d926abb	0.071492635
92	0xbd36bf22	-0.044615872
93	0x3b56f093	0.0032797202
94	0x3cb72774	0.02235768
95	0xbca75ac8	-0.02042903
96	0x3d72bc74	0.059261754
97	0x3d9cd747	0.076582484
98	0xbcf55265	-0.029946515
99	0x3d87dc73	0.06633844
100	0x3cd13806	0.02553941
101	0xbce6f0de	-0.028191026
102	0xbd39f1e0	-0.045396686
103	0x3d9bd2d5	0.076085724
104	0xbd3497c4	-0.044090047
105	0xbd151b83	-0.03640319
106	0xbd903bee	-0.07042681
107	0xbdb33cb3	-0.08751812
108	0x3c5cc2e4	0.0134742
109	0xbcbaa0b5	-0.02278171
110	0xbd2e2df7	-0.042524304
111	0x3d909fa8	0.07061702
112	0xbc69e523	-0.014275822
113	0x3cd09394	0.025460996
114	0x3c6cc2da	0.014450753
115	0xbcd0802d	-0.025451744
116	0x3d0c7029	0.03428665
117	0xba3435c4	-0.0006874467
118	0xbd743431	-0.059620086
119	0x3d28e614	0.041235045
120	0xbdb06a1d	-0.086139895
121	0xbcc62958	-0.024189636
122	0x3baf1e4e	0.005344189
123	0x3d5c1d65	0.05373897
124	0xbd3044cb	-0.043034356
125	0xbc64309c	-0.013927605
126	0xbd2da0b3	-0.042389583
127	0xbd6b6434	-0.057468608
128	0xbd6454f0	-0.055745065
129	0xbd552cf4	-0.052044824
130	0xbd8db3cc	-0.06919059
131	0xbd24ffec	-0.04028313
132	0xbd819554	-0.0632731
133	0xbd18a727	-0.037268784
134	0x3d6a8fcb	0.057266038
135	0xbda3389e	-0.07969783
136	0xbd7bfaa3	-0.061518323
137	0x3d55cd47	0.05219772
138	0xbc42318a	-0.011852631
139	0x3db381c9	0.08764989
140	0x3d5a785e	0.053337447
141	0xbd15ec64	-0.036602393
142	0x3cf535ea	0.029932935
143	0x3c919421	0.017770829
144	0x3c8811f2	0.01661012
145	0x3d6dc1d9	0.058046196
146	0xbce377df	-0.02776712
147	0x3d98eda7	0.074672036
148	0xbdad72c4	-0.084691554
149	0xbcdef8bb	-0.027218213
150	0x3d9902d6	0.07471244
151	0x3d3080a1	0.04309142
152	0x3d187566	0.037221335
153	0xbd2178ef	-0.039421972
154	0xbd875b5a	-0.06609221
155	0xbd4c9143	-0.04994322
156	0x3db04217	0.08606356
157	0xbc386ecc	-0.011256885
158	0xbd70be03	-0.05877496
159	0x3d437d10	0.04772669
160	0x3c45f0e8	0.012081362
161	0xbcd227bf	-0.025653718
162	0xbcce5891	-0.025188716
163	0xbcf21a1a	-0.029553462
164	0x3d517990	0.05114132
165	0xbd7aa2d9	-0.06119046
166	0xbd046bbd	-0.03232931
167	0xbdadce24	-0.08486584
168	0xbc9af914	-0.018917598
169	0xbd80be08	-0.062862456
170	0x3d82d4f9	0.063882776
171	0x3d742c6a	0.05961267
172	0xbd87f638	-0.066387594
173	0x3d6b3c23	0.057430398
174	0xbd5407ef	-0.05176538
175	0xbd7ab293	-0.061205458
176	0x3c4ee209	0.012627133
177	0xbda121b7	-0.07867759
178	0xbd984154	-0.07434335
179	0xbd0762a3	-0.03305305
180	0xbd0de82b	-0.03464524
181	0xbd86d3c5	-0.065833606
182	0xbcad42ad	-0.021149958
183	0xbd425a11	-0.047449175
184	0xbd8fa439	-0.07013745
185	0x3c9e00f2	0.01928756
186	0xbc03c224	-0.008041892
187	0x3d936ce4	0.071985036
188	0x3dac105a	0.08401556
189	0x3bf05b15	0.0073350766
190	0x3d7ecb59	0.062205646
191	0xbcd04127	-0.025421692
192	0xbc3ec935	-0.011644651
193	0x3cb0aa93	0.021565711
194	0xbc2ae482	-0.010430457
195	0xbdb21e4e	-0.086971864
196	0x3d9bc9c9	0.07606847
197	0xbd19a789	-0.03751329
198	0xbb2e19a6	-0.002656558
199	0x3d9ef0e2	0.077607885
200	0xbd9af171	-0.075655825
201	0x3d9f1de0	0.0776937
202	0xbcb55157	-0.022133512
203	0x3d0ba8a4	0.034096375
204	0x3d844a9c	0.06459543
205	0xbc3fafaa	-0.011699596
206	0x3ccd30b9	0.025047647
207	0xbd665161	-0.056229953
208	0x3d75c762	0.0600046
209	0xbd120ec4	-0.035658613
210	0xbc30bea7	-0.010787643
211	0x3be6b608	0.007040743
212	0x3d8f7b7b	0.07005974
213	0xbcbca2f3	-0.023026919
214	0x3c8fab3b	0.017537704
215	0x3d5a5493	0.053303313
216	0xbc62e82d	-0.0138493
217	0xbcbdee4c	-0.023184918
218	0xbd2f2599	-0.042760465
219	0x3c4cf347	0.012509174
220	0xbb0a3e65	-0.002109432
221	0x3da86868	0.08223039
222	0xbd839d3b	-0.06426474
223	0xbd8a09f1	-0.067401774
224	0x3d30168f	0.042990264
225	0xbca3679f	-0.019946871
226	0x3d9511fe	0.07278822
227	0xbd8048e6	-0.06263904
228	0x3d29e1eb	0.041475218
229	0x3d3c5b03	0.045985233
230	0x3d897488	0.0671168
231	0xbd9eb4cd	-0.07749329
232	0x3d979056	0.07400577
233	0x3d7d512e	0.061844997
234	0x3d5b9236	0.053606234
235	0xbccdea91	-0.025136264
236	0xbdae0cfb	-0.084985696
237	0xbc4c77c0	-0.0124797225
238	0x3d9f73cd	0.07785759
239	0xbd57cf74	-0.052688077
240	0x3d91e6fd	0.07124136
241	0xbccda2f3	-0.025102114
242	0xbc97ff86	-0.01855446
243	0x3bba6a2c	0.005688926
244	0xbc4fee4d	-0.012691093
245	0xbb957ea7	-0.0045622173
246	0xbb58bbd7	-0.0033070946
247	0xbd3eeae9	-0.046610747
248	0xbbb0eaa3	-0.0053990646
249	0xbd3cc9c4	-0.046090856
250	0x3cc47ba2	0.023984734
251	0x3d5c325a	0.053758956
252	0xbd3677bf	-0.044547793
253	0x3d79b1b9	0.060960505
254	0xbd39f0ba	-0.04539559
255	0xbd001ad9	-0.031275604

feature.2.bias f4 [128]
0	0x3d410c6c	0.047130987
1	0xbd8acf57	-0.06777828
2	0xbd99caf0	-0.075094104
3	0xbb763e01	-0.0037573578
4	0x3d057c62	0.032589324
5	0x3d0a2e3d	0.033735503
6	0x3d585b78	0.052821606
7	0x3d006717	0.031348314
8	0x3c156b74	0.009119857
9	0x3c0f5f18	0.008750699
10	0x3dab6890	0.08369553
11	0xbda31b14	-0.07964149
12	0x3dbf9c78	0.09356016
13	0x3d90c19e	0.070681795
14	0xbb247f52	-0.0025100303
15	0x3d852a2e	0.06502186
16	0xbce7f5c7	-0.028315438
17	0x3d8780d7	0.06616371
18	0xbc8bddf1	-0.017073603
19	0x3d3ab92b	0.045586746
20	0x3d417157	0.04722723
21	0x3d23d615	0.039999086
22	0x3da2d108	0.07950026
23	0xbd4f6fb0	-0.050643623
24	0xbd46be24	-0.048521176
25	0x3d69b412	0.057056494
26	0xbcebaf7d	-0.028770203
27	0xbd15865b	-0.036505084
28	0xbd9b2151	-0.07574714
29	0x3d9e28e6	0.077226445
30	0xbd8e7d7a	-0.069575265
31	0xbd959661	-0.07304073
32	0x3bf7479e	0.007546379
33	0xbd9db648	-0.07700783
34	0x3b45b7b9	0.0030169322
35	0xbd2bc083	-0.04193164
36	0xbd29a444	-0.04141642
37	0xbd8c1b92	-0.06841196
38	0xbd89804a	-0.06713922
39	0x3d226829	0.039650116
40	0xbc38af40	-0.011272252
41	0xbd82eb3c	-0.06392524
42	0x3d86d2db	0.06583186
43	0xbd9e99d0	-0.07744181
44	0xbbcb9127	-0.006212372
45	0xbd828cac	-0.06374487
46	0x3dafbc74	0.085808665
47	0x3d1c8f38	0.03822252
48	0xbd830be7	-0.063987546
49	0xbd5adc56	-0.053432785
50	0xbdb0bcbb	-0.086297475
51	0x3d8c2e0b	0.068447195
52	0xbdbc2f2e	-0.09188686
53	0xbb23de46	-0.0025004311
54	0x3d8f0369	0.06983072
55	0xbd514b55	-0.051097233
56	0xbd751231	-0.0598318
57	0x3ca39b95	0.019971648
58	0xbc4ab71e	-0.01237276
59	0x3bb9b82e	0.005667708
60	0xbce9a1b2	-0.028519485
61	0x3d46249b	0.048374753
62	0xbcb6565f	-0.022257982
63	0xbd160783	-0.036628257
64	0x3d0fc1bb	0.035096865
65	0xbcb02439	-0.021501647
66	0xbca030f2	-0.019554589
67	0x3ccb55f6	0.024821263
68	0x3c945da0	0.01811105
69	0xbd353af7	-0.044245686
70	0x3ce9c4d5	0.02853624
71	0x3d48cb50	0.04902202
72	0xbd1826e3	-0.03714646
73	0x3d9aabaf	0.07552277
74	0xbc437dcf	-0.011931851
75	0xbd7b22e9	-0.06131259
76	0x3d3fee5f	0.046858188
77	0xbd651a4c	-0.05593328
78	0xbbe2294f	-0.006901897
79	0xbca8f903	-0.02062655
80	0x3d8f60b0	0.070008636
81	0x3d01ec13	0.03171928
82	0x3cb03750	0.02151075
83	0x3cf7ab5e	0.030233081
84	0xbcf3d59e	-0.029764947
85	0xbdb3ec05	-0.087852515
86	0xbba60dc2	-0.005067558
87	0xbdaa29af	-0.08308732
88	0xbd4524ea	-0.048130907
89	0x3c6e6683	0.014550808
90	0xbd26b11b	-0.040696245
91	0xbda2b031	-0.07943762
92	0x39d8d375	0.00041356278
93	0x3d85fa83	0.06541922
94	0x3c99cc72	0.018774245
95	0x3d018d00	0.03162861
96	0x3c3da298	0.01157441
97	0xbd566e91	-0.052351538
98	0xbd4e7f37	-0.05041429
99	0xbbb876eb	-0.0056294105
100	0x3c44e4ae	0.012017412
101	0xbda30b72	-0.079611674
102	0xbd2ac06e	-0.04168742
103	0xbd367097	-0.044540968
104	0xbca143cd	-0.01968565
105	0x3d4571b6	0.048204146
106	0xbb0b349e	-0.002124108
107	0x3d4dc300	0.050234795
108	0xbcfb30b2	-0.030662868
109	0x3cf5b0a0	0.029991448
110	0x3aed97e9	0.0018126938
111	0xbd39865b	-0.045294147
112	0x3d8d4240	0.06897402
113	0x3dbde68f	0.09272491
114	0xbca93d15	-0.020659009
115	0x3ca808f2	0.020512078
116	0xbcf9c367	-0.030488683
117	0x3d0f51a9	0.034989987
118	0x3da0a066	0.078430936
119	0x3cc9ffcb	0.024658104
120	0x3c9f2e03	0.01943112
121	0x3ba5bee6	0.0050581573
122	0xbc951cf3	-0.01820228
123	0xbd7fc9e4	-0.062448397
124	0xbd90005d	-0.07031319
125	0xbd1bcd81	-0.03803778
126	0x3d1aae62	0.03776396
127	0x3d39ff8f	0.045409735

feature.4.weight f4 [128, 128]
0	0x3a94e059	0.0011358365
1	0x3c8fc710	0.017550975
2	0x3a8a5071	0.0010552538
3	0xbcd631b3	-0.026146745
4	0xbd84cd71	-0.06484497
5	0x3d91f1e8	0.07126218
6	0xbcb1fea1	-0.021727862
7	0x3d50ed47	0.051007535
8	0x3d99493d	0.07484672
9	0xbcebb67e	-0.028773542
10	0x3d98f62b	0.07468828
11	0xbcdc38af	-0.026882498
12	0xbd9c2981	-0.07625104
13	0xbd2f6c10	-0.042827666
14	0xbdadb5a6	-0.08481912
15	0x3d94c849	0.07264764
16	0x3d640758	0.055671066
17	0x3cba09bc	0.02270972
18	0xbd61adce	-0.055097394
19	0xbd5c675e	-0.053809516
20	0xbce2b79c	-0.027675442
21	0x3ced364f	0.02895656
22	0x3d2df34b	0.04246835
23	0x3d9c7048	0.076386034
24	0x3d749d4d	0.059720326
25	0x3d71837b	0.05896328
26	0x3cc64cf6	0.02420662
27	0xbcfdf1f6	-0.030999165
28	0x3cea4ed4	0.028602041
29	0xbd0c9788	-0.0343242
30	0x3d5f52f7	0.05452248
31	0xbc6a54e6	-0.014302468
32	0x3d74e4f0	0.059788644
33	0x3ceeb9b1	0.029141279
34	0xbd50fbac	-0.051021263
35	0xbd6943f1	-0.05694956
36	0x3d9c089c	0.076188296
37	0x3daeec88	0.085412085
38	0x3d80e029	0.06292755
39	0x3cedd1bc	0.029030673
40	0x3d5cf3da	0.053943492
41	0x3d2acba6	0.04169812
42	0x3d052887	0.032509353
43	0xbcdae209	-0.02671911
44	0xbd99418d	-0.07483206
45	0x3c355f45	0.011070077
46	0xbd97572a	-0.07389672
47	0x3d626cd0	0.055279553
48	0xbd8028bb	-0.06257769
49	0x3d1a78c5	0.03771283
50	0x3db13891	0.08653367
51	0x3d1b4a7c	0.03791283
52	0x3d086f06	0.033309005
53	0xb9652586	-0.0002185312
54	0xbc561495	-0.013066431
55	0xbd97f9f0	-0.07420719
56	0xbda8fdd8	-0.08251542
57	0xbbe67bb6	-0.0070337905
58	0x3d4b01ee	0.049562387
59	0xbd4201c7	-0.047364976
60	0xbce41075	-0.027839879
61	0xbd48e696	-0.04904803
62	0x3d32c6ae	0.043646507
63	0xbc58de77	-0.0132366335
64	0xbce7172f	-0.028209297
65	0x3cebb276	0.02877162
66	0xbced9279	-0.029000508
67	0x3c242d16	0.010020515
68	0xbd2f42d9	-0.04278836
69	0xbdb3799e	-0.08763431
70	0x3d822b5a	0.06355925
71	0xbd81c662	-0.06336667
72	0x3dadab36	0.084799215
73	0x3d91a66a	0.07111819
74	0xbd285ef5	-0.041106183
75	0x3d0f9190	0.03505093
76	0xbc9addcf	-0.018904595
77	0xbce11f58	-0.027480766
78	0xbd20a7cb	-0.03922252
79	0x3ca2bfba	0.019866813
80	0x3ce5c31c	0.028047137
81	0xbcdada27	-0.026715351
82	0x3d39a00a	0.04531864
83	0xbd57841a	-0.052616216
84	0xbd45c6dc	-0.04828535
85	0xbd3ad9f0	-0.045617998
86	0xbd2a0924	-0.041512623
87	0x3daa92ce	0.08328782
88	0xbc1d181d	-0.009588269
89	0x3c06892e	0.008211417
90	0xbd36ee2e	-0.04466074
91	0x3d688ae3	0.056773078
92	0x3d8e04dc	0.069345206
93	0xbd55391f	-0.052056428
94	0x3bfecce6	0.0077758906
95	0x3d3ed8f9	0.04659364
96	0x3d74ff15	0.059813578
97	0xbdac5cf8	-0.0841617
98	0xbcb68094	-0.022278108
99	0xbd95c819	-0.07313556
100	0x3cc6d75c	0.024272613
101	0x3d7f144f	0.062275227
102	0x3d90c709	0.07069213
103	0x3d93f38c	0.07224187
104	0xbcc9aed0	-0.02461949
105	0x3d94811b	0.072511874
106	0x3d6ae6d1	0.05734903
107	0x3bc09524	0.005877154
108	0xbd7adf3f	-0.06124806
109	0xbda88f2f	-0.08230435
110	0x3d0863e8	0.033298403
111	0xbc727469	-0.014798262
112	0xbcff737e	-0.031183
113	0xbce7b1c2	-0.028283004
114	0x3d30b62a	0.043142475
115	0xbc8e6435	-0.017381767
116	0xbc85d86f	-0.016338555
117	0xbdb27ee2	-0.08715607
118	0xbdaa325b	-0.08310386
119	0xbd9c7f73	-0.076414965
120	0xbdb47b9e	-0.088126406
121	0xbdadf0a7	-0.084931664
122	0x3d8f3603	0.06992724
123	0x3d94a339	0.07257695
124	0x3d8dd558	0.06925458
125	0x3cd97d2b	0.026548943
126	0x3d41dc13	0.04732902
127	0xbcdabeec	-0.026702367
128	0xbd243d66	-0.040097617
129	0x3d835bc3	0.064139865
130	0x3d64e8af	0.055885967
131	0x3ccaf796	0.024776261
132	0xbce77d49	-0.028257983
133	0x3d0f557d	0.034993637
134	0x3bf7ae04	0.007558586
135	0x3d568691	0.052374426
136	0x3d1d5484	0.03841068
137	0xbd40f7a3	-0.047111165
138	0x3dbe8e07	0.09304433
139	0xbcf60b75	-0.03003476
140	0xbd8ee473	-0.06977167
141	0xbd1e77eb	-0.03868858
142	0x3da1d6f2	0.07902326
143	0xbc937a9f	-0.018002806
144	0xbd05663f	-0.032568213
145	0x3b0ace4a	0.0021180087
146	0x3c9312a3	0.017953223
147	0xbd974b6d	-0.07387433
148	0x3af78f27	0.0018887267
149	0xbd9c688c	-0.07637128
150	0xbd05dfed	-0.032684255
151	0xbd4dd518	-0.05025205
152	0xbcad6104	-0.021164425
153	0xbd19577c	-0.037436947
154	0xbd9f0688	-0.077649176
155	0xbce0517c	-0.027382605
156	0x3d856f3f	0.06515359
157	0x3b8f4402	0.004372121
158	0x3d8d388f	0.06895553
159	0x3d3369c8	0.043802053
160	0x3dbac9a4	0.09120491
161	0x3c618eb1	0.01376693
162	0x3d7fc841	0.062446836
163	0xbd77989d	-0.060448278
164	0x3cef3bab	0.029203257
165	0x3c94ba0e	0.018155124
166	0x3d9600eb	0.07324394
167	0x3a4199a3	0.00073852594
168	0x3d1e9545	0.038716573
169	0x3da6653f	0.0812478
170	0x3d0e5d4a	0.034756936
171	0xbd59bec6	-0.05316045
172	0x3c056209	0.008141049
173	0xbbdac94f	-0.00667683
174	0xbd9b2aee	-0.075765476
175	0xbd5fc64e	-0.054632477
176	0xbbad2e72	-0.0052850777
177	0x3c85c468	0.016329005
178	0x3ce44cc3	0.027868634
179	0xbd81ac11	-0.06331647
180	0xbd857aa1	-0.0651753
181	0x3d9add92	0.075617924
182	0xbbb818a8	-0.0056181736
183	0x3d07d409	0.033161197
184	0x3cc0ab4d	0.023519183
185	0xbce59bc5	-0.028028378
186	0xbc89cebb	-0.01682221
187	0xbd19d321	-0.037554864
188	0x3d775df6	0.060392343
189	0x3ca75e5c	0.020430736
190	0xbd99b1a8	-0.07504588
191	0xbba83c2f	-0.0051341276
192	0x3b331207	0.0027323978
193	0xbd802e58	-0.06258839
194	0xbd5b09f7	-0.0534763
195	0x3b0877c6	0.0020823344
196	0x3d8b291a	0.06794949
197	0xbd3af223	-0.045641076
198	0xbb28baad	-0.0025746033
199	0xbd8090f0	-0.06277645
200	0x3d4165fc	0.0472164
201	0x3d871f37	0.06597751
202	0xbd767a35	-0.06017514
203	0x3bf80313	0.007568726
204	0x3d4dbde4	0.050229922
205	0xbd534a38	-0.051584452
206	0x3d2694c5	0.04066922
207	0x3b9d786c	0.004805615
208	0xbd2581e5	-0.04040708
209	0xba220ae7	-0.0006181434
210	0x3d25682c	0.04038255
211	0x3ce9e88f	0.028553275
212	0x3cc7f1d6	0.024407309
213	0xbd713af6	-0.05889412
214	0xbdac4030	-0.0841068
215	0x3d33cd24	0.04389681
216	0xbd211e5a	-0.039335586
217	0xbd38ffbe	-0.04516577
218	0xbcd218a0	-0.025646508
219	0xbd8d84dc	-0.069101065
220	0xbd5461dc	-0.05185114
221	0xbb131a1a	-0.0022445978
222	0xbcde093e	-0.027104016
223	0xbc4a89cf	-0.012361958
224	0xbca578f8	-0.020199284
225	0xbd92e1fd	-0.0717201
226	0x3c773d31	0.015090273
227	0x3c865455	0.016397635
228	0x3c808daa	0.01569255
229	0xbca9b67e	-0.020716902
230	0xbcf38998	-0.029728696
231	0x3d6cd942	0.05782438
232	0x3c9d9971	0.019238206
233	0xbcd686ad	-0.026187265
234	0x3d80329e	0.062596545
235	0xbc843dc6	-0.016142737
236	0x3d5a97dc	0.05336748
237	0xbd0f5ac1	-0.03499866
238	0xbbcd359d	-0.0062624947
239	0x3d19f4e6	0.03758707
240	0x3da42509	0.080148764
241	0xbd4f21cb	-0.050569337
242	0xbd6e6954	-0.058205917
243	0x3da2c25b	0.079472266
244	0x3c05ae43	0.008159223
245	0x3d80fc14	0.0629808
246	0x3d85397b	0.06505104
247	0xbd266d8c	-0.040631816
248	0xbd3b85f0	-0.04578203
249	0x3db1c1f3	0.08679571
250	0xbda70642	-0.081554905
251	0xbdbf8187	-0.09350877
252	0x3d1bded4	0.038054302
253	0xbd8ff28d	-0.07028685
254	0x3d20c621	0.03925145
255	0x3b4b8c0a	0.0031058812

feature.4.bias f4 [128]
0	0x3c9a910d	0.018867994
1	0x3d19da2f	0.03756159
2	0xbda27a80	-0.07933521
3	0xbcf3f87d	-0.029781574
4	0xbd25030c	-0.04028611
5	0xbd527aef	-0.05138677
6	0x3daa62c0	0.08319616
7	0x3ce69881	0.028148891
8	0xbd2a4ad3	-0.041575264
9	0x3a7de8e6	0.00096858887
10	0x3dae4982	0.08510114
11	0xbc7c9fdd	-0.015418974
12	0xbda226b0	-0.07917535
13	0x3bbdba40	0.005790025
14	0x3d129ee3	0.035796057
15	0x3d519a04	0.05117227
16	0xbd4f764b	-0.050649922
17	0x3ce44bf7	0.027868254
18	0xbd578673	-0.052618455
19	0xbd92728e	-0.07150756
20	0xbd46cc68	-0.04853478
21	0xba040960	-0.00050367974
22	0xbd9604a2	-0.073251024
23	0x3d38eb37	0.045146193
24	0xbd0cd1e9	-0.034379873
25	0x3c1678a0	0.009184033
26	0xbd85e5b1	-0.06537951
27	0xbd6d14c9	-0.05788115
28	0xbd8d92b1	-0.06912745
29	0x3bc703c6	0.006073448
30	0x3c6a8477	0.014313809
31	0x3bb6568f	0.005564518
32	0x3d69f3c3	0.057117235
33	0x3d300177	0.042970147
34	0xbd2cc27f	-0.042177673
35	0x3d715a15	0.0589238
36	0xbd688f20	-0.05677712
37	0xbda3d4ee	-0.079995975
38	0x3d7b0f5b	0.06129394
39	0x3d36704b	0.044540685
40	0x3c380d6a	0.011233667
41	0xbcf94205	-0.030426988
42	0x3dbb2f85	0.09139923
43	0x3ca4a680	0.020098925
44	0x3dbadcaf	0.09124123
45	0x3d7912c1	0.0608089
46	0xbd986853	-0.07441773
47	0xbcab794a	-0.020931859
48	0x3d49d520	0.049275517
49	0xbcd0bbb9	-0.025480138
50	0xbcb6ba7c	-0.02230572
51	0x3d2783bc	0.040897116
52	0xbda08a73	-0.07838907
53	0x3dba5e0a	0.09099968
54	0x3d86ce1f	0.06582283
55	0xbd1a7373	-0.037707757
56	0x3c94763f	0.01812279
57	0x3cfecbb3	0.03110299
58	0xbb47183e	-0.003037944
59	0xbd81513e	-0.06314324
60	0x3da63572	0.08115663
61	0x3d2f645a	0.042820312
62	0xbcba0067	-0.02270527
63	0xbdb4e343	-0.08832409
64	0xbd7f3f70	-0.062316358
65	0x3adfd171	0.0017075968
66	0xbc3962a1	-0.011315019
67	0x3ca80451	0.02050987
68	0xbd0cb9b0	-0.034356773
69	0xbcb7ffd5	-0.022460857
70	0x3d3793a9	0.044818554
71	0xbcb49dcd	-0.022047902
72	0x3d2bc765	0.041938204
73	0xbc4b34ad	-0.012402696
74	0xbd1683da	-0.036746837
75	0x3d9d399b	0.07677003
76	0xbca5ffec	-0.020263635
77	0xbc2c6746	-0.010522669
78	0x3d5de473	0.054172944
79	0xbd35ce60	-0.044386268
80	0xbd38a1ad	-0.04507606
81	0xbca72722	-0.020404402
82	0x3c079654	0.008275587
83	0x3d9cd5de	0.076579794
84	0x3d1df879	0.03856704
85	0xbd8063f9	-0.06269068
86	0x3d9f34d0	0.07773745
87	0xbcfa07a1	-0.030521216
88	0x3da078d5	0.07835547
89	0x3a86ca75	0.0010283726
90	0x3b80b1a8	0.0039274283
91	0xbd15bbb3	-0.036555957
92	0xbd5c6750	-0.053809464
93	0x3d954043	0.072876476
94	0xbd5a4bf9	-0.05329511
95	0x3d380ae9	0.04493228
96	0xbda2aa87	-0.07942682
97	0x3d3294de	0.043599002
98	0x3c7d8914	0.0154745765
99	0x3da3a0a7	0.079896264
100	0x3c87b10a	0.016563911
101	0x3d75ea09	0.060037646
102	0xbd9a6816	-0.07539384
103	0xbc88d038	-0.016700849
104	0xbda750c0	-0.08169699
105	0x3cc2b06c	0.023765765
106	0xbda83ae2	-0.08214356
107	0xbccf47e5	-0.025302837
108	0x3bb00f52	0.00537292
109	0x3d8bc05b	0.06823798
110	0xbd9d9a96	-0.076955006
111	0x3d877763	0.06614568
112	0x3d111a83	0.035425674
113	0xbd8c6d2e	-0.06856762
114	0xbd3b3166	-0.045701407
115	0x3d39b70c	0.045340583
116	0x3a3308e8	0.0006829635
117	0x3b53a093	0.0032291755
118	0xbae392a4	-0.0017362428
119	0x3d7668fb	0.06015871
120	0x3d046d00	0.032330513
121	0x3dac2ec8	0.0840736
122	0xbd19b7ab	-0.037528675
123	0x3cc64aeb	0.024205646
124	0xbda007aa	-0.07813962
125	0xbb689a4b	-0.0035492356
126	0xbd77abdb	-0.06046663
127	0x3d23816e	0.039918356

actor_mean.0.weight f4 [128, 128]
0	0x3d9bc0e2	0.07605149
1	0x3dc54359	0.09631986
2	0xbca1acf3	-0.019735789
3	0xbcacd600	-0.021098137
4	0xbda690f3	-0.081331156
5	0x3d8833d4	0.066505104
6	0xbd3a8732	-0.04553909
7	0xbc48f14b	-0.01226456
8	0xbc311333	-0.0108078
9	0x3c0ff44f	0.008786275
10	0x3cbcbe2e	0.023039903
11	0xbbb8f1d1	-0.005644061
12	0x3c9fd4bc	0.01951062
13	0xbb6110be	-0.0034342255
14	0x3da6472e	0.08119045
15	0xbd2ef77c	-0.04271649
16	0x3d69dd68	0.057095915
17	0x3d5cd081	0.053909782
18	0x3c8e7311	0.017388852
19	0x3d63859a	0.055547334
20	0x3d6ee7a2	0.05832637
21	0x3d05c603	0.03265954
22	0xbcec6cf0	-0.02886054
23	0x3daa2547	0.08307891
24	0x3cace5d7	0.02110569
25	0x3c2f1ac0	0.01068753
26	0x3d9fb133	0.0779747
27	0x3dac27dd	0.08406041
28	0x3d8b3ccd	0.06798706
29	0x3d33d525	0.043904442
30	0xbd9a3ff1	-0.07531727
31	0xbd2804dc	-0.04102026
32	0xbba42a16	-0.0050099
33	0xbd7f0ef0	-0.062270105
34	0xbd81696b	-0.06318935
35	0xbc8ec9ac	-0.017430149
36	0xbd1d10f7	-0.038346257
37	0x3c48e865	0.012262438
38	0x3d6e9ffc	0.05825804
39	0x3dc4c9dd	0.09608815
40	0xbce87bb0	-0.028379291
41	0x3b29e685	0.0025924754
42	0x3cceb5fa	0.025233258
43	0xbd331900	-0.043725014
44	0xbd947919	-0.0724966
45	0xbd76f3e0	-0.06029117
46	0x3dad9dd6	0.084773704
47	0x3d96f020	0.07370019
48	0xbd5530cc	-0.05204849
49	0xbd0a0f24	-0.033705845
50	0xbc226735	-0.009912302
51	0x3d13ec39	0.03611395
52	0x3d613996	0.05498656
53	0xbc90b8d5	-0.01766626
54	0x3d9dc7a8	0.07704097
55	0xbd44ecf9	-0.048077557
56	0x3d57ca69	0.052683268
57	0x3d39e84a	0.045387544
58	0x3d9417c7	0.07231098
59	0x3c7c041d	0.01538184
60	0x3d3281d7	0.043580856
61	0xbc904976	-0.017613154
62	0x3cd3729b	0.025811484
63	0xbda2f837	-0.079574995
64	0xbd3ee675	-0.0466065
65	0xbd63067f	-0.055426117
66	0xbc87bf74	-0.016570784
67	0xbd827438	-0.06369823
68	0x3d7aafce	0.061202817
69	0x3d24c8f7	0.040230718
70	0xbd364313	-0.04449756
71	0x3d323f5e	0.043517463
72	0x3db98767	0.09059029
73	0xbd9b9d42	-0.07598354
74	0xbd584229	-0.05279747
75	0x3d83ec72	0.06441583
76	0xbd492526	-0.049107693
77	0x3d01b8a6	0.031670235
78	0x3cb00e3a	0.021491159
79	0x3d8da9e3	0.06917169
80	0x3d4b5e03	0.049650203
81	0x3d14dba9	0.036342297
82	0x3d17cc47	0.03706005
83	0x3d5d6e80	0.05406046
84	0xbcfb75bb	-0.030695787
85	0x3ca6e1b2	0.020371292
86	0x3d8ae64a	0.067822054
87	0x3d144cbc	0.036205992
88	0x3d2664ca	0.040623464
89	0xbca0507a	-0.019569624
90	0xbd97d111	-0.07412923
91	0xbda4393f	-0.08018731
92	0xbd8ebc21	-0.069694765
93	0xbd73aec8	-0.059492856
94	0xbd056b50	-0.032573044
95	0x3c93eb87	0.018056644
96	0xbb797577	-0.00380644
97	0x3d090fd5	0.033462364
98	0xbcd0e370	-0.025499076
99	0x3c6d5433	0.014485407
100	0x3cc51766	0.024059009
101	0xbd6a4c00	-0.057201385
102	0xbd9b43b7	-0.07581275
103	0xbd838be6	-0.06423168
104	0xbc4c90c5	-0.012485688
105	0xbcbaef35	-0.02281914
106	0xbd34e00f	-0.04415899
107	0xbc911209	-0.017708795
108	0xbd94c07a	-0.072632745
109	0xbd8d0c2e	-0.06887089
110	0xbd9740af	-0.07385384
111	0x3c3a53cd	0.011372519
112	0xbd1ad583	-0.037801277
113	0xbd893f3c	-0.06701514
114	0x3b93d0e3	0.004510985
115	0x3d61f6ee	0.05516713
116	0x3c8085ee	0.015688863
117	0xbc9143eb	-0.017732581
118	0x3cfd40ad	0.030914629
119	0x3d545ec5	0.05184819
120	0x3b5b3e82	0.0033454006
121	0x3dba4c76	0.09096615
122	0xbd9d7e61	-0.076901205
123	0xbce6346b	-0.028101167
124	0x3d864d75	0.065577425
125	0xbcb6a58b	-0.022295734
126	0xbd4dc902	-0.050240524
127	0xbc819f96	-0.015823167
128	0x3cfeffad	0.031127775
129	0xbd9f665d	-0.07783196
130	0x3d02665e	0.031835906
131	0xbd6048fb	-0.0547571
132	0xbd8babb7	-0.068198614
133	0x3da7cfea	0.08193953
134	0xbb8327ba	-0.0040025385
135	0xbcfa06b0	-0.030520767
136	0x3d9db618	0.07700747
137	0xbd86dfc8	-0.06585652
138	0x3dafd86e	0.085862026
139	0xbb58da6c	-0.0033089174
140	0xbda97493	-0.08274188
141	0xbc758039	-0.014984184
142	0x3d99744a	0.074928835
143	0xbd544465	-0.05182304
144	0x3d2a4fc0	0.04157996
145	0x3c8eae21	0.017417016
146	0xbd6584b5	-0.056034762
147	0x3dab69c9	0.08369786
148	0xbd568b53	-0.052378964
149	0x3cb973e1	0.022638263
150	0x3da991eb	0.08279785
151	0x3bed4802	0.00724125
152	0x3d4593a0	0.04823649
153	0x3c53fa83	0.012938145
154	0x3b153670	0.0022768043
155	0x3da67948	0.08128601
156	0x3d1b7505	0.037953395
157	0xbd820b1d	-0.06349776
158	0xbdac686c	-0.084183544
159	0x3d0fdac0	0.035120726
160	0x3d422b9e	0.047404878
161	0xbd6ff9ca	-0.058587827
162	0xbc9e2aae	-0.01930746
163	0xbcc39701	-0.023875715
164	0x3c2595c5	0.010106509
165	0xbd9b8f8d	-0.075957395
166	0xbd673358	-0.05644545
167	0x3d11e4c0	0.035618544
168	0xbd0bdd8e	-0.034146838
169	0x3cf15588	0.02945973
170	0x3ce4ef76	0.027946215
171	0xbd72a702	-0.059241302
172	0xbc65c1d9	-0.014023268
173	0x3d6dc2e4	0.05804719
174	0xbdb13f04	-0.086545974
175	0xbda5bd39	-0.08092732
176	0x3daf36bd	0.085553624
177	0x3d86f829	0.065903015
178	0x3d62322d	0.055223633
179	0x3d73f5ec	0.0595607
180	0xbd8dc466	-0.06922226
181	0xbd3617c0	-0.044456244
182	0xbd7b2b19	-0.061320398
183	0x3cddaebb	0.027060857
184	0xbd56d2e3	-0.05244721
185	0xbd307b05	-0.04308607
186	0x3c4ed477	0.012623898
187	0x3d8a897a	0.06764503
188	0x3d9b87e8	0.075942814
189	0xbda66ad6	-0.08125846
190	0xbcabc0d4	-0.020965971
191	0xbd1db8d6	-0.03850635
192	0x3c963caa	0.018339474
193	0xbdaf7431	-0.085670836
194	0x3be0d26d	0.006861022
195	0x3da3ea6e	0.08003698
196	0x3d34591f	0.044030305
197	0x3bd013db	0.006350023
198	0xbbccba39	-0.0062477854
199	0xbd743355	-0.059619267
200	0x3d990145	0.07470945
201	0xbdad9208	-0.08475119
202	0xbcfed940	-0.031109452
203	0x3cc8e23d	0.024521941
204	0x3be89d87	0.007098857
205	0x3d7d71f1	0.06187624
206	0xbd546a8b	-0.05185942
207	0xbda2d9c1	-0.079516895
208	0xbcf63a15	-0.030056993
209	0xbd0503da	-0.032474376
210	0x3d3a149a	0.045429803
211	0x3d7a97b0	0.061179817
212	0xbd82b6ac	-0.06382498
213	0x3d0de816	0.034645163
214	0xbd9027a5	-0.070388116
215	0xbd9794fb	-0.07401463
216	0xbdb41301	-0.08792687
217	0x3d61d0fc	0.055130944
218	0x3da9064e	0.08253156
219	0xbd0b30ab	-0.03398196
220	0x3d29e711	0.041480128
221	0x3d19249e	0.037388436
222	0xbd73e70b	-0.05954651
223	0xbd5c07a9	-0.053718243
224	0x3da271a4	0.079318315
225	0x3b53a395	0.0032293547
226	0xbbe2e8ff	-0.006924748
227	0xbc014521	-0.007890017
228	0x3d9e0d06	0.07717328
229	0x3cf5fe2d	0.030028427
230	0x3ba7ee0f	0.0051248143
231	0xbd08f1f2	-0.033433862
232	0xbb2c7107	-0.0026312487
233	0xbd89a97d	-0.067217804
234	0x3cbb7428	0.022882536
235	0x3d31a231	0.04336757
236	0xbd2e32a9	-0.042528782
237	0x3d4d570f	0.050131854
238	0x3c9a320f	0.018822698
239	0xbd1a14e1	-0.037617568
240	0x3c00339c	0.007824805
241	0xbd5851da	-0.052812435
242	0xbd1e6545	-0.038670797
243	0x3c5c1c96	0.01343455
244	0xbda5959a	-0.08085175
245	0xbd6a838b	-0.057254355
246	0x3d48088d	0.04883628
247	0x3c19a2f5	0.009377231
248	0x3d4f633f	0.050631758
249	0xbdb49d3b	-0.08819052
250	0xbd8f3a7c	-0.06993577
251	0xbd95dbc5	-0.07317308
252	0xbd01de64	-0.03170623
253	0xba67b7e5	-0.0008839353
254	0x3ba48d72	0.0050217444
255	0x3c86c27b	0.016450157

actor_mean.0.bias f4 [128]
0	0x3cf1f5b1	0.0295361
1	0xbd5e62ef	-0.05429357
2	0xbd433983	-0.04766227
3	0x3d32d2e5	0.043658156
4	0x3d681046	0.056656145
5	0x3d304f2d	0.043044258
6	0xbc2f226a	-0.010689357
7	0xbb17475b	-0.0023083303
8	0x3d33b87d	0.043877114
9	0xbd52de90	-0.051481783
10	0xbd89b1de	-0.067233786
11	0x3d40588e	0.046959452
12	0xbd6626e8	-0.056189448
13	0x3d7ce842	0.061744936
14	0x3bb32478	0.005466994
15	0x3d4f43cc	0.050601766
16	0xbcbaa937	-0.022785766
17	0xbb23e4b6	-0.0025008149
18	0x3d93db54	0.07219568
19	0x3cd2e19d	0.025742346
20	0x3bfac93d	0.007653384
21	0x3d849e00	0.064754486
22	0xbd30b481	-0.043140892
23	0x3d8901e5	0.066898145
24	0x3d2a986f	0.04164928
25	0xbd4bcbeb	-0.04975502
26	0x3cc235ae	0.023707237
27	0xbd781ab2	-0.060572334
28	0xbce11875	-0.027477482
29	0xbcefe275	-0.029282788
30	0xbd3bbb0a	-0.04583267
31	0x3d1c0fd3	0.03810103
32	0xbc90696c	-0.017628394
33	0xbda50690	-0.08057892
34	0x39a6055c	0.0003166598
35	0x3ca85d86	0.020552408
36	0xbd3f35a7	-0.046682026
37	0x3d25897d	0.040414322
38	0xbb853a19	-0.0040657637
39	0x3d9cb78e	0.07652198
40	0xbd9a49f2	-0.07533635
41	0x3bbae397	0.0057034004
42	0x3da5dc03	0.080986045
43	0x3dc152c7	0.09439617
44	0xbdb15df0	-0.08660495
45	0x3d5b53a7	0.053546574
46	0xbd9b788b	-0.07591351
47	0xbcaec066	-0.021331977
48	0xbd106733	-0.03525467
49	0x3c90d3c6	0.017679106
50	0x3d83ce9c	0.06435892
51	0x3d157351	0.036486927
52	0x3dc45d91	0.09588159
53	0x3d6d1d9f	0.057889577
54	0xbcef5ce1	-0.029219093
55	0xbda04e6b	-0.07827457
56	0x3d32c39d	0.043643583
57	0x3d87e755	0.0663592
58	0x3a9a4253	0.0011769034
59	0xbcd26299	-0.02568178
60	0xbda0ebde	-0.07857488
61	0x3be76bf8	0.0070624314
62	0x3d568c82	0.052380092
63	0x3da59d21	0.080866106
64	0xbc3ee7be	-0.011651931
65	0x3cf32aec	0.029683553
66	0xb9770982	-0.00023559298
67	0x3bfe2d5a	0.007756871
68	0xbb8ec709	-0.004357223
69	0x3c09162c	0.008367103
70	0xbcdf1c57	-0.027235193
71	0x3dbc9304	0.092077285
72	0x3afe53f8	0.0019403687
73	0x3db71e4c	0.089413255
74	0xbd8f51e7	-0.069980435
75	0xbade24db	-0.001694824
76	0xbd0ce688	-0.03439954
77	0xbd181ab1	-0.03713483
78	0x3d893ec8	0.06701428
79	0xbd1c5f18	-0.038176626
80	0x3c72c45e	0.014817325
81	0x3d4f02f7	0.050539937
82	0x3c141598	0.0090383515
83	0xbd93f2a6	-0.07224016
84	0xbd523470	-0.05131954
85	0xbd7ba14b	-0.061433118
86	0x3c429b4a	0.011877844
87	0x3b24cca4	0.002514639
88	0xbd7dab76	-0.061931096
89	0xbd8fe420	-0.07025933
90	0x3d63932c	0.055560276
91	0x3d630415	0.055423815
92	0xbd7a019b	-0.061036687
93	0xbcca8cf5	-0.024725417
94	0xbd1a925e	-0.037737243
95	0x3d777437	0.060413565
96	0xbd003b1a	-0.031306364
97	0x3a9dd696	0.0012042101
98	0xbdb09d2b	-0.086237274
99	0x3d06e6f5	0.0329351
100	0xbc2af03e	-0.010433255
101	0xbd8f0685	-0.069836654
102	0x3a8cbea0	0.0010737963
103	0xbcf62b8b	-0.03005006
104	0xbd8368a5	-0.06416444
105	0xbac45162	-0.0014977867
106	0x3d566f84	0.052352443
107	0xbd85cd46	-0.065332934
108	0x3db3b25e	0.08774255
109	0xbd8cd58a	-0.06876667
110	0xbd27f069	-0.041000757
111	0x3dbf6552	0.09345497
112	0x3d88fac7	0.06688457
113	0x3ad8ff3b	0.0016555557
114	0x3bcf2d53	0.0063225417
115	0xbdab8489	-0.083748884
116	0x3acf4ded	0.001581607
117	0x3cfc831a	0.030824233
118	0x3cafdd20	0.021467745
119	0x3c370fd8	0.011173211
120	0x3bdfea0c	0.0068333205
121	0xbd800394	-0.062506825
122	0x3caa5632	0.020793054
123	0x3daef39d	0.08542559
124	0xbd883707	-0.06651121
125	0xbd373aae	-0.044733696
126	0x3ce00712	0.027347121
127	0xbb054f68	-0.002034152

actor_mean.2.weight f4 [2, 128]
0	0xbd8be06d	-0.06829915
1	0xbd65e156	-0.0561231
2	0xbd8cecba	-0.068810895
3	0x3d1e7d5c	0.03869377
4	0xbd88a287	-0.06671625
5	0x3ca43ea6	0.020049404
6	0xbb42eb39	-0.0029742254
7	0xbd0030a6	-0.031296395
8	0xbcd631ea	-0.026146848
9	0xbd0f6622	-0.03500951
10	0x3c97e143	0.01854003
11	0xbd8efd67	-0.069819264
12	0xbc1b4956	-0.009477934
13	0x3d00c62a	0.031438984
14	0xbd88b13c	-0.0667443
15	0x3d01695f	0.03159463
16	0x3c580551	0.013184861
17	0x3dae92d1	0.08524097
18	0xbd91c0ff	-0.07116889
19	0xbdb395cd	-0.087688066
20	0x3c9dacc7	0.019247426
21	0xbd624635	-0.055242736
22	0x3db3bce0	0.087762594
23	0xbcf19618	-0.029490516
24	0x3da2ee04	0.07955554
25	0x3d9b27bf	0.0757594
26	0x3cd2bf74	0.025726058
27	0xbcd1e1a4	-0.02562029
28	0xbdab0e67	-0.083523564
29	0xbb4002f6	-0.002929864
30	0xbd86c46e	-0.06580435
31	0xbd9fa872	-0.077958
32	0xbc102ff2	-0.008800494
33	0x3d8126b7	0.063062124
34	0x3c4a6f31	0.012355612
35	0xbd224f10	-0.03962618
36	0x3d045afa	0.032313325
37	0xbc22f572	-0.009946214
38	0xbd2b9b9a	-0.04189644
39	0xbce21613	-0.027598416
40	0x3c96d88f	0.01841381
41	0x3d105b5d	0.03524338
42	0x3da0441e	0.07825492
43	0xbc4513e0	-0.012028664
44	0xbd7a03e1	-0.061038855
45	0xbc6d5ce9	-0.014487484
46	0x3d0e12ca	0.034685887
47	0x3d4f66c8	0.05063513
48	0x3c0f4e28	0.008746661
49	0xbcfd5c01	-0.03092766
50	0xbc86edca	-0.016470809
51	0x3bdc5a9c	0.0067246687
52	0xbd8e6ea2	-0.06954695
53	0xbcdab723	-0.026698655
54	0x3d2becf7	0.041974034
55	0xbb8bb0b0	-0.004263006
56	0x3db2e160	0.08734393
57	0xbc913910	-0.017727405
58	0xbdadb644	-0.0848203
59	0x3d71d338	0.059039325
60	0xbd65a360	-0.05606401
61	0x3bea72de	0.0071548065
62	0xbd6b6036	-0.0574648
63	0xbd224eeb	-0.039626043
64	0x3ca9e218	0.020737693
65	0xbdbb23cb	-0.09137686
66	0x3ceba693	0.028765952
67	0xbda0aef3	-0.07845869
68	0xbb911e3c	-0.004428653
69	0xbbe28211	-0.006912478
70	0x3d5978ac	0.053093597
71	0xbbb9e548	-0.0056730844
72	0x3da07ca9	0.07836277
73	0x3b2819ce	0.0025650146
74	0xbd922553	-0.07136025
75	0x3d13f510	0.03612238
76	0x3d158b07	0.03650954
77	0x3c903715	0.01760439
78	0x3b859fd4	0.004077891
79	0xbd416a77	-0.047220673
80	0x3d8ca293	0.06866946
81	0xbd3b91c1	-0.0457933
82	0x3da0d985	0.078539886
83	0x3d934a87	0.07191949
84	0xbcb51d20	-0.022108614
85	0xbd1b9d7a	-0.03799198
86	0xbda1eaf0	-0.07906139
87	0x3d414796	0.04718741
88	0xbd6e64e8	-0.0582017
89	0xbda8b578	-0.082377374
90	0xbce2d130	-0.027687639
91	0x3d93369d	0.07188151
92	0xbd334d3a	-0.04377482
93	0x3d7bf1f8	0.061510056
94	0x3d53a59a	0.0516716
95	0x3d9ba74e	0.0760027
96	0xbd09ff82	-0.033690937
97	0x3d7694a6	0.060200356
98	0xbc2b1a59	-0.0104432935
99	0xb9cabd1b	-0.00038669337
100	0xbccebeba	-0.02523743
101	0xbda3d632	-0.07999839
102	0x3d9d8ada	0.076924995
103	0xbc72da6b	-0.014822583
104	0xbb93f71b	-0.0045155413
105	0x3da2a904	0.079423934
106	0x3d711b5c	0.058863983
107	0xbd9ff685	-0.07810692
108	0x3b53b48e	0.0032303664
109	0xbd6562e3	-0.05600251
110	0xbd9574aa	-0.072976425
111	0xbd2de395	-0.042453367
112	0x3d8aa53c	0.06769797
113	0xbd094503	-0.03351308
114	0x3d7c9d05	0.061673183
115	0x3cf0e262	0.029404823
116	0x3d9da41d	0.07697318
117	0x3d112b77	0.035441842
118	0x3d5a7a3a	0.05333922
119	0x3d18cf89	0.037307296
120	0xbcc23be6	-0.023710202
121	0xbd06d38a	-0.032916583
122	0x3d544b15	0.051829416
123	0x3a53e427	0.00080830086
124	0xbd94c5fa	-0.072643235
125	0x3be3bded	0.006950131
126	0x3d5635f8	0.052297562
127	0x3d003fcc	0.03131084
128	0x3db65d6f	0.0890454
129	0x3da7a16d	0.081850864
130	0xbcc92caa	-0.02455743
131	0x3d6d683d	0.057960737
132	0x3dbe6a03	0.09297564
133	0xbd47bd19	-0.048764322
134	0xbcd27fe0	-0.025695741
135	0x3cc0bcb2	0.023527477
136	0xbcb60766	-0.022220325
137	0x3d8ef65b	0.06980582
138	0xbd308e5a	-0.043104507
139	0xbcefe5d9	-0.029284405
140	0x3c2878f4	0.010282744
141	0x3d0d9263	0.034563433
142	0xbc4c65d0	-0.012475446
143	0xbcc2144e	-0.023691323
144	0x3d3c1d41	0.045926336
145	0xbd9f9158	-0.07791394
146	0xbd983ab2	-0.0743307
147	0x3d84c139	0.06482167
148	0xbd4439f6	-0.04790684
149	0xbcb88efa	-0.022529114
150	0x3da1f636	0.07908289
151	0xbce3f00c	-0.027824424
152	0xbc196614	-0.009362716
153	0xbdaafa49	-0.08348519
154	0x3c8e39df	0.01736158
155	0x3d6da88d	0.05802207
156	0x3da07066	0.07833938
157	0xbc2e1c15	-0.010626812
158	0xbc3a69e8	-0.011377789
159	0xbc46d62b	-0.012136023
160	0x3c9e1c6d	0.019300664
161	0xbda8a810	-0.082351804
162	0xbcdad773	-0.026714062
163	0xbd3f6585	-0.046727676
164	0x3cc9e2fc	0.024644367
165	0x3d17c093	0.037048887
166	0xbd9c0cb2	-0.07619609
167	0xbccf4d7e	-0.025305506
168	0xbd358bf4	-0.044322923
169	0x3d7a4105	0.061097164
170	0x3d5b5988	0.05355218
171	0x3d6298cd	0.055321503
172	0x3bab7ed8	0.005233627
173	0xbcfbce79	-0.030738102
174	0x3b89ec51	0.0042090793
175	0x3cf43f58	0.02981536
176	0xbc747bb3	-0.01492207
177	0xbd42b199	-0.04753265
178	0x3d102f10	0.035201132
179	0x3d33baa2	0.04387916
180	0x3dc4e7c8	0.09614521
181	0xbd81d776	-0.06339924
182	0x3d075e88	0.033049136
183	0x3d9f6d91	0.0778457
184	0x3c39982e	0.011327786
185	0x3d92aeea	0.071622685
186	0xbd877a97	-0.06615179
187	0xbd32e7cb	-0.043678086
188	0x3d04b0fd	0.03239535
189	0x3d6c3883	0.05767108
190	0xbd8ac869	-0.067765065
191	0x3dbb9e91	0.091611035
192	0x3d861932	0.065477744
193	0x3d9afc04	0.075675994
194	0xbd4ad196	-0.049516283
195	0xbb88470b	-0.0041588596
196	0x3d68fed9	0.056883667
197	0x3d4cadda	0.049970485
198	0x3d85f325	0.06540517
199	0x3c11c552	0.0088971425
200	0x3be8eb00	0.0071080923
201	0x3d705c0f	0.058681544
202	0xbd2019eb	-0.039087217
203	0x3a473440	0.00075990334
204	0x3cdf2bb5	0.02724252
205	0x3d8b01a0	0.06787419
206	0x3d3126c3	0.043249857
207	0x3d5ee321	0.054415826
208	0x3c9310ed	0.017952407
209	0xbd83cb3f	-0.064352505
210	0xbd1ed58f	-0.038777884
211	0x3c20f12d	0.009823126
212	0x3ce8f85e	0.028438743
213	0xbd789306	-0.060687087
214	0x3d9393f3	0.072059534
215	0x3d34d6b6	0.044150077
216	0xbd5eb473	-0.05437131
217	0xbd723363	-0.059131037
218	0xbd4a47db	-0.049384933
219	0x3dc181b6	0.094485685
220	0x3d0477e1	0.032340888
221	0xbc98c4d1	-0.018648537
222	0x3ca406b2	0.020022724
223	0x3d56e2c6	0.05246236
224	0xbca22d39	-0.019796954
225	0x3d4c9e5a	0.049955703
226	0x3d435d30	0.047696292
227	0xbd8e5eae	-0.069516525
228	0xbc944ade	-0.018102106
229	0xbcff1cf4	-0.031141736
230	0xbca650d8	-0.020302221
231	0xbcd85221	-0.02640635
232	0x3d0e3240	0.03471589
233	0x3d598c13	0.0531121
234	0x3dc3296f	0.09529387
235	0xbd84a5c1	-0.064769275
236	0x3db92c59	0.09041662
237	0x3d16d55b	0.036824565
238	0xbdb35aef	-0.087575786
239	0x3dbde964	0.09273031
240	0x3dc229cb	0.094806276
241	0x3d3341bc	0.04376386
242	0xbcb6552e	-0.022257414
243	0xbd6bdba0	-0.057582498
244	0xbda8399e	-0.082141146
245	0xbd7710ea	-0.060318865
246	0xbd9c8a6e	-0.07643591
247	0xbd874fd0	-0.0660702
248	0xbc1519d2	-0.009100394
249	0xbda714db	-0.08158275
250	0x3d14d4c9	0.03633574
251	0x3d901b9b	0.07036515
252	0xbd8fb9bd	-0.07017849
253	0x3c955e91	0.01823357
254	0xbc972f62	-0.018455211
255	0xbcfe7bd0	-0.031064898

actor_mean.2.bias f4 [2]
0	0xbd9b83cf	-0.075935
1	0xbd96d186	-0.07364182
