path-planning/drone-path-planning-ppo-dynamics/models/ppo_model_episode_50.pth (torch, 344037 bytes, 17 tensors)

feature.0.weight f4 [128, 7]
00000000: 61c2 9fbe 83c3 103e 886c 113e 726f 9a3e
00000010: cbf7 0f3e f3d2 bb3e 8796 b1bd f203 933e
00000020: 3a70 7e3e d13b 59be 6839 5a3e 78bc 8f3e
00000030: 2d41 85be db53 41be c308 90be a822 223e
00000040: 0681 1ebe 897e 41be c2cf 553e 2e05 3f3e
00000050: 911f 823e ebe1 0d3e ac70 643d e6ad 9e3e
00000060: 5c8f 3cbe b37d a73e c237 87be e7f3 32be
00000070: 7c6d e43d 876c adbb 72e8 17bc 0433 5bbe
00000080: fb81 5cbe 3797 56be 5e8a a53d e3bb 57be
00000090: efe2 a9be 8a4b 5ebb e10f b3be 648b b5be
000000a0: 1afe 57be 0aa7 843e 8704 9f3e 6984 92be
000000b0: 0f51 95be 7006 c33c b858 38bc 40d5 60be
000000c0: 6237 9f3e 83e8 c4bd 229b 663e 23c3 dc3d
000000d0: 9161 aabe 0949 82bd d15e 86be 4c3a 9cbe
000000e0: 26a6 aa3d 9385 34be 9612 2bbe 9595 8d3e
000000f0: 0eed e6bd d57f 053e 3f41 533c cb99 b9be
00000100: d402 dc3d 6827 4e3d b97c a3be 3f51 46be
00000110: b9b5 223e 2e71 073e 86b7 953b 56fa 8b3c
00000120: 27e0 23be 5924 3cbe 587a 9e3e a485 b63e
00000130: fd4a 733d 542d b8bd ba91 673d c1e7 ff3d
00000140: bb99 9ebe 7c99 ddbd d251 a1be a239 4f3e
00000150: b161 c9bd dac4 8c3e 03c3 ba3d 3583 81be
00000160: fae2 02be 48a1 dbbd 4602 a4be 0965 41be
00000170: 34ce adbe 5ff9 9dbd 2e04 b73e 4271 2e3d
00000180: 3ab0 68be a026 a3be 0d30 9fbe c067 543d
00000190: ce22 b4be ca80 5e3e 383d 963e 142a 293e
000001a0: 2645 c4be 8cc9 ce3d f487 9dbe 5206 ad3e
000001b0: 52ff 74be 4971 343e dcae ba3e f939 37bd
000001c0: e441 b7be 0f4d 693e bc07 993d 1baa ad3c
000001d0: a36a 1dbe fad1 853e 6bc9 663e 7250 8b3d
000001e0: c6a5 243e 5dfe a6be f9b6 943e 9e48 9d3e
000001f0: bc46 623e 1c4f c33d e401 2d3e 9726 803e
00000200: 2fd2 77be 0ec4 8bbe 7c72 6d3e f357 8a3d
00000210: 2af3 98be 6384 a43d 37fb 94be 65ee 2d3e
00000220: 9498 b03e af30 c2bd 0644 4d3e ae8f bcbe
00000230: fab5 be3e 925e 99be 44e3 5dbe acd3 5dbe
00000240: 5a29 a03e 1c70 bf3c 4731 563e 0a68 bd3e
00000250: 5a20 9b3c b50e 143e 7a78 9f3e 3d21 b63d
00000260: e19a 823e c9ad 98be 91fd 17be 39ee 88bd
00000270: e9a5 8bbe bdd4 a0be a966 243e dabe 863d
00000280: ae78 a43e f766 b23e c412 69bd 9132 483d
00000290: 0c19 75be 4347 06be c203 ee3d 7a95 dabc
000002a0: 16bb a9be 6f9e 813e 28e4 a43e 056e 1fbe
000002b0: db0b babe 8120 0abe cbac 99bd 3894 e53c
000002c0: 66bc 6ebe 5574 aa3e c041 4ebe ecba cfbd
000002d0: ffb0 a73e 321e f9bc d6b7 2f3c caed a2be
000002e0: 6662 983e 5a84 303e 6890 e73d 833c 0cbe
000002f0: 2bb8 883d 9f02 053d 25b5 a0be eb0a bbbc
00000300: b63f 21be db39 0cbe f437 b0be 636e c8bd
00000310: 1b7a 48be a116 40bd 610d b1be d4b1 08bd
00000320: 2d45 383d 530e 4e3e 8822 a4bb 9e0b 17be
00000330: de1c 47be 4e5b dabc 2d5d c3be 59aa ad3e
00000340: df4c 993e 7c08 ba3e 633a e5bc 7d3f 4ebe
00000350: cf64 9bbd 140d 7f3d 250f 5c3e 8ae1 53bd
00000360: e425 a8be a153 323e 3503 c2be 9ba6 07be
00000370: f4ca 8b3e 8997 1b3e ca2f 613e bde6 283e
00000380: c028 eb3d 7c0b 08be 982b 6f3e f430 383e
00000390: dcc6 fb3d bf9d 533e a550 053e 804b af3e
000003a0: b94f 6a3e bba7 bfbe 8a8a a73e 686e 223e
000003b0: ce18 01bc 40c2 543d 687f 79bc a36c bfbe
000003c0: 35e9 a73e 7d95 9b3e 3c6a db3d 2ed9 6fbe
000003d0: fe8f 2fbe 91fe 83be 01c4 983e 77d6 f53d
000003e0: 89ed 35be 0167 113e 3957 853e cbef 893e
000003f0: 9a6f af3e 73ff 6d3e f67c 98bd cf18 923e
-0.31202987 0.14137082 0.14201558 0.3016315 0.1405937 0.3668438 -0.08671289 0.28713948
0.24847499 -0.21214224 0.21310961 0.28073478 -0.26026288 -0.18879645 -0.28131685 0.15833533
-0.15478906 -0.18895926 0.20880035 0.1865432 0.25414708 0.13855712 0.055771515 0.3099205
-0.18414062 0.32713088 -0.26409727 -0.17475854 0.11153695 -0.0052924785 -0.009271728 -0.2140618
-0.21533959 -0.20956121 0.08083032 -0.21067767 -0.3318095 -0.0033919537 -0.34973052 -0.3545791
-0.21093026 0.2590869 0.31058142 -0.28616646 -0.29163405 0.02380678 -0.011251621 -0.21956348
0.3109694 -0.096146606 0.22520116 0.10779407 -0.33277562 -0.063615866 -0.26244214 -0.30513227
0.083324715 -0.1762908 -0.16706309 0.27653185 -0.11275683 0.13037045 0.012893974 -0.36250147
0.10742727 0.05033055 -0.31931093 -0.1936693 0.15889634 0.13226768 0.004568997 0.017087143
-0.16003476 -0.1837324 0.30952716 0.35648835 0.059397686 -0.08993021 0.05653546 0.124953754
-0.30976662 -0.108202904 -0.31507736 0.20236829 -0.09833086 0.27493936 0.09119227 -0.25295416
-0.12781897 -0.10724121 -0.32032984 -0.18886198 -0.33946383 -0.077135794 0.35745376 0.04258848
-0.22723475 -0.31865406 -0.31091347 0.051856756 -0.35182804 0.21728817 0.2934358 0.16519958
-0.38334006 0.10097036 -0.30767787 0.33793885 -0.23925522 0.1762134 0.36461532 -0.04473302
-0.35792458 0.22783302 0.07472178 0.021199277 -0.1537271 0.26136762 0.22537772 0.06802453
0.16078863 -0.3261594 0.29045847 0.30719465 0.22097296 0.09536573 0.16895252 0.25029442
-0.24201272 -0.27298015 0.23188204 0.06755056 -0.2987302 0.08033063 -0.29097912 0.16985472
0.34491408 -0.09481942 0.2004548 -0.3682837 0.37248212 -0.29954964 -0.21668726 -0.21662778
0.3128155 0.023368888 0.20917235 0.36993438 0.018936325 0.14458735 0.31146604 0.088930584
0.25508788 -0.29820088 -0.14842822 -0.06686062 -0.27275017 -0.31412306 0.16054787 0.06579371
0.3212332 0.3484418 -0.056902662 0.04887635 -0.23935336 -0.13113122 0.116218105 -0.026682604
-0.33150548 0.25316188 0.3220532 -0.15569313 -0.3633717 -0.13488962 -0.07503661 0.028024778
-0.23314056 0.3329188 -0.20142269 -0.101430744 0.32752225 -0.030409906 0.010724982 -0.31822044
0.29762572 0.17237988 0.1130684 -0.13694958 0.06675752 0.032473203 -0.31388202 -0.022832355
-0.1574696 -0.13693945 -0.3441769 -0.097866796 -0.1957783 -0.04689658 -0.3458052 -0.033372715
0.044987846 0.20122652 -0.0050089993 -0.14750525 -0.19444606 -0.026654866 -0.38157025 0.33919027
0.2994146 0.36334598 -0.027981943 -0.20141406 -0.07587587 0.06226833 0.21490152 -0.051728763
-0.32841408 0.17414714 -0.37893072 -0.13247149 0.27303278 0.15194525 0.21990886 0.1649427
0.11482382 -0.13285631 0.23356473 0.17987424 0.12293789 0.20665644 0.13019045 0.3423729
0.22881974 -0.37432656 0.32722884 0.15862429 -0.007879449 0.051943064 -0.01522813 -0.3738757
0.3279511 0.30387488 0.10713622 -0.23422691 -0.17144772 -0.25780156 0.2983704 0.120037965
-0.17766394 0.14199449 0.26043108 0.2694076 0.34264833 0.23241977 -0.074457094 0.28534552

feature.0.bias f4 [128]
00000000: 0a7e f2bd 119c 48bd a01d 0d3e 48a0 42bd
00000010: 255f 7d3d 163c 99bd c3bc 0fbe b526 b0be
00000020: 6ef3 083e 5f4d e9bd ec07 dbbd 71b3 753e
00000030: 8f23 42be 0f2d bbbe e294 e3b8 4dc5 85be
00000040: b8f7 693e 59ea 983d 46c7 dbbc 3554 c63d
00000050: 4c33 983d 9a39 00be 7957 a1be 424e 55be
00000060: 3ac4 9a3e 1f33 1abe 257e 62bd e9e7 8bbe
00000070: 31e1 9cbe 134d 54be a713 19be 7eb9 34be
00000080: 25ee 3ebe 7511 b13e 9592 98be c26d c13e
00000090: c584 f6bd 28ce 3f3d 7e07 923e 67fc 9ebe
000000a0: e52e 433d 61e6 14be a033 7d3e 4207 82be
000000b0: d802 e03d d3f4 90bd d08b cbb9 1059 51be
000000c0: e409 48be 751c 3f3e 24ef 953e 3538 16be
000000d0: 7ec8 3abb ae02 103e 43b6 ed3d b7ea 61bd
000000e0: 5b87 14be 9f0b 6e3e 1dfa 90be d288 323e
000000f0: 5bf4 9b3c 7597 90be c9ef 42be 4264 763d
00000100: 439d 463e 7203 933e 0aad 803e 981b 583e
00000110: 2990 47be 7077 b9bd 64e8 5b3e fa6d 5f3e
00000120: ec44 94be 6968 98be 32ac a03e 5cac 54be
00000130: f0b7 34bd 5b7a 76be fe8f 83be b944 5c3e
00000140: b1c5 52bd 6723 32be b2b7 a1be 2e9f 58be
00000150: c3e0 b43e 8ce3 06be 82e0 2a3d 0c03 90be
00000160: d54e 25be 24ad 60be f8aa 8fbe 631b 393e
00000170: a2b7 8f3e 164c bdbe 0913 87be e72c b13e
00000180: 86af 71be 43a5 9b3e 6cf2 96bd 85f0 a93e
00000190: 2572 b3be 7534 8cbd a8b0 093e 2293 31be
000001a0: 0497 5a3e 5867 01be 4e01 1dbe d9ca b1be
000001b0: ad68 403e 24f9 c63d 971c 51bc c1ea ab3e
000001c0: 4c26 de3a 2a43 d13d eee4 49bc 9fc1 723e
000001d0: 9059 563b 9255 f63b 3817 b3be 5718 b63e
000001e0: 7854 463e 1664 383d 155d 533e 272c 273e
000001f0: 0549 74be 8218 33be c66e 973e b3f6 79be
-0.11840446 -0.04897696 0.13780832 -0.047516137 0.061858315 -0.074821636 -0.1403685 -0.3440453
0.13374111 -0.113917105 -0.1069487 0.23994233 -0.18958877 -0.36557814 -0.00010851935 -0.2612709
0.22848403 0.07466573 -0.02682842 0.0968403 0.07431659 -0.12521973 -0.3151205 -0.20830634
0.30227834 -0.15058564 -0.055296082 -0.2732537 -0.30640557 -0.20732526 -0.14948903 -0.17648885
-0.18645532 0.3458363 -0.29799333 0.3777905 -0.120370425 0.046827465 0.2852134 -0.31051943
0.047652144 -0.14541008 0.24726725 -0.25396162 0.109380424 -0.070779465 -0.00038823346 -0.20444131
-0.19535023 0.18663199 0.29284012 -0.14669879 -0.002850085 0.14063522 0.11607029 -0.055155482
-0.14504759 0.2324662 -0.2831582 0.17435005 0.019037416 -0.28240553 -0.19036783 0.060154207
0.19395928 0.28713566 0.25132018 0.21104276 -0.19488586 -0.09055984 0.21475369 0.21819296
-0.28958833 -0.2976716 0.31381375 -0.20768875 -0.04412073 -0.24070112 -0.25695795 0.2151059
-0.051458064 -0.17396317 -0.3158546 -0.21154472 0.3532773 -0.1317274 0.041718014 -0.28127325
-0.16143353 -0.21941048 -0.28060126 0.18076853 0.28069788 -0.3697211 -0.2638171 0.3460457
-0.23602113 0.30399522 -0.07370457 0.33191314 -0.35048023 -0.06845943 0.13446295 -0.17341283
0.2134667 -0.12637079 -0.15332529 -0.34725073 0.1878993 0.097154886 -0.012763164 0.3357754
0.0016948669 0.10217889 -0.0123226475 0.23706673 0.0032707192 0.007517525 -0.34978652 0.35565445
0.1936816 0.045017324 0.20640977 0.16325437 -0.2385598 -0.17489818 0.295767 -0.24410515

feature.2.weight f4 [128, 128]
00000000: 123b 833d 9c4f e03c c256 c8bb 9752 54bb
00000010: 33c7 a53c 4007 30bd 1751 a33d 511d 99bd
00000020: 917f 45bd 37ae 5fbb 01e7 8bbc 3ad8 afbd
00000030: 66c2 22bc 0d5c ed3c 2911 283d fdbe 8b3d
00000040: 2b5b 9f3c f2f9 a7bd 97aa 28bc c6f8 dcbc
00000050: 4ecd 703c 74de 9bbd b259 813d 63db 21bd
00000060: 82b4 0abd d773 98bd 35f5 a9bc 42ba e3bc
00000070: a66e abbc fc75 3cbd ed1d 813c 7120 58bd
00000080: 30c0 acbd 6d45 ce3c 9960 0dbc 204d 7d3c
00000090: 5e5f 7f3d cf00 d1bc f388 773d e992 463d
000000a0: 67fb 6f3d e280 373d 85a3 993d 895e 31bd
000000b0: e6f7 c33b 7bdb fe3c 7355 bcbc 9f46 8dbd
000000c0: 8e97 4cbd fb0e 1a3d 1d2c 57bd dac0 a63d
000000d0: 5586 73bc d0f9 38bd 4478 b9bd 1ef1 1dbd
000000e0: 1f4b 43bd 72f2 a5bd d51b ddbc 6a26 223c
000000f0: 55f2 aeb9 ee6e 3c3d 0250 9fbd 6758 0dbd
00000100: 4c52 6c3d 1fd9 38bd 5586 f3bc 7391 94bd
00000110: 73b7 8fbc b45d 5abd ee56 b8bd d14a 99bc
00000120: adbf 1d3d cd12 07bd d018 833d a736 4d3d
00000130: 2187 48bc df7a e5bb 9a24 6ebd 6288 75bd
00000140: 925b 263d b176 92bc f146 833d 8ada 70bd
00000150: 09bb 113d 60f9 42bd abd5 7c3d 7152 92bd
00000160: 3794 f63b d73c 27bb 1c63 343d ad92 e0bc
00000170: 5ef9 0dbc 83cd d5bb 8698 87bd cb20 acbd
00000180: e747 4abc 332a 23bd 40d7 59bd 2751 c4bc
00000190: c28d 34bc b18b d8bc 03a6 bbbd 9856 913d
000001a0: d92c e1bc 31cd 9abd 3f70 59bc 4ee1 8bbd
000001b0: ca99 5a3d e6ee 83bc 2ba0 533d 1b3e 83bd
000001c0: 3d79 a8bd 53aa 35bd 0ad2 a83d 56a2 903d
000001d0: 76fd 0d3d f395 14bd c358 2d3d f822 773d
000001e0: 6d6b ebbc 5e41 193d 3c17 59bb 9cf4 babb
000001f0: e298 d83c fcd2 063d 4bbb e13c 1f70 d2bc
00000200: 385a 22bd c1b8 64bd fe4e a8bc 5fea 88bd
00000210: a699 ff3a 2b14 a4bd 7ed4 0f3d b7f7 bcbd
00000220: f35a ec3c a992 37bd eaa1 123d 3aa0 923d
00000230: f185 c7bc 7c26 1dbb 4914 a33d 7c36 aa3c
00000240: 9655 bfbd e1fb b1bd 412c b8bc 7a64 183d
00000250: bb65 5cbd 02eb d23d e093 ae3c 6977 97bc
00000260: f010 7bbd 245d 5e3d aa3a 593c 0b69 a73d
00000270: bfdb 28bd 0218 6b3d 1e6e d93c c5c8 493c
00000280: 4b3b fb3c b7a6 10bd 4c06 80bd 1431 9a3d
00000290: ae6a a8bd 98fa 0b3d 241e f5bc b476 80bd
000002a0: 0aeb 90bc 0883 90bc f09a 183d 8a12 adbc
000002b0: 3319 b8ba 6b40 743d e012 3dbd efd2 643d
000002c0: 365a 923d 0d83 fdbc 0e10 95bd a0ce c4bd
000002d0: 66c4 1c3d c82d 323d 4566 48bd 5959 343d
000002e0: 677b c3bc 30be 50bd 547a 14bd a6c2 31bd
000002f0: a0d9 c83a 48a4 da3c 63e3 46bd bdc9 41bd
00000300: 12eb 96ba f412 b23d f280 1c3d 9e9a 3f3d
00000310: 5cd2 813c 583a a7bc 7f46 dd3c 0bc9 953d
00000320: 4a2e b3bb 895c e03b e110 863d 224a fdbc
00000330: 3048 b33d bde6 eb3c cfe1 553c 5e1b 613d
00000340: 1478 84bd 17d8 893d 9f41 1d3c d8fd 34bd
00000350: 3a94 97bd 4130 6ebc adfc a0bd 98eb 5dbc
00000360: 38de 293d 2e4f 45bd be3d bcbd 6afd 7a3d
00000370: 14c8 7a3d c136 d43a 731c 39bd e0eb aebc
00000380: 4819 d53c 8274 1f3c 8812 9d3d 56d6 893d
00000390: e859 b0bd 515f 883c e1c3 c9bc 9a71 9d3c
000003a0: 54d1 7b3d 895d 10bd 1104 103d 4419 87bd
000003b0: 7265 d5bc 9e88 38bd 6c67 ea3b b750 a6bd
000003c0: 4505 88bd 7563 f6bc 29d8 8b3d bb7f 1b3c
000003d0: 3fc7 8a3c d9ac 08bd f9ec 6fbd a2bd 053c
000003e0: 35b1 a0bb 0ccb 2abc 94ce 03bb 8260 243b
000003f0: 7044 013d 7ae3 8dbc 7c80 b93b eba9 8e3c
0.06407751 0.02738171 -0.006113858 -0.003239786 0.020236587 -0.042975664 0.07974451 -0.07476295
-0.04821736 -0.003413094 -0.017077925 -0.08586164 -0.0099340435 0.028974557 0.04103199 0.068235375
0.019452652 -0.0820197 -0.010294578 -0.026974093 0.014697386 -0.07610789 0.06315936 -0.039515864
-0.033863552 -0.0744397 -0.020746807 -0.027798776 -0.020926785 -0.046010956 0.01576134 -0.052765314
-0.08435094 0.02517959 -0.008628988 0.015460283 0.06234681 -0.02551308 0.06043334 0.04847995
0.058589365 0.044800647 0.07501892 -0.043303046 0.0059804795 0.031110516 -0.022989964 -0.068982355
-0.04994922 0.037611943 -0.052532304 0.08142252 -0.01486357 -0.045160115 -0.09056142 -0.038560025
-0.047679063 -0.081028834 -0.02699081 0.009896854 -0.00033368418 0.04600423 -0.07778932 -0.034508135
0.057695672 -0.045128938 -0.02972714 -0.07254305 -0.01754353 -0.05331202 -0.090009555 -0.018712433
0.038512874 -0.032976914 0.06401217 0.05010095 -0.0122392485 -0.0070031728 -0.058140375 -0.059944518
0.040614672 -0.017878862 0.064100154 -0.058802165 0.03557876 -0.047601104 0.061727207 -0.07144631
0.007524993 -0.002551844 0.04403983 -0.02741369 -0.008665411 -0.006524743 -0.066208884 -0.08404692
-0.012346244 -0.039835166 -0.053183794 -0.023964478 -0.011020126 -0.026433798 -0.091625236 0.070965946
-0.027487205 -0.075586684 -0.01327139 -0.06830083 0.05336932 -0.016105127 0.05166642 -0.0640833
-0.08226249 -0.044351887 0.08243187 0.07062213 0.034665547 -0.036275815 0.042320978 0.060336083
-0.028737748 0.037415855 -0.003312542 -0.0057054292 0.026440088 0.032916054 0.027555129 -0.02568823
-0.03963682 -0.055840258 -0.020545479 -0.06685328 0.0019500747 -0.08011659 0.035114758 -0.09226935
0.028851962 -0.0448176 0.035798945 0.07159467 -0.02435586 -0.0023979237 0.079628535 0.020777933
-0.09342496 -0.0869062 -0.02248204 0.037205197 -0.053807955 0.102987304 0.021310747 -0.018489556
-0.06129545 0.054288045 0.0132586155 0.08174332 -0.04122519 0.057395943 0.026541766 0.012315934
0.030667922 -0.03531524 -0.06251201 0.07528892 -0.082234725 0.03417453 -0.029921599 -0.06272641
-0.0176902 -0.017640606 0.037257135 -0.021127004 -0.0014045596 0.059631746 -0.04616058 0.055865224
0.071461126 -0.030946279 -0.07278453 -0.09609723 0.038273238 0.04350069 -0.048925657 0.04403052
-0.023862554 -0.050962627 -0.036249474 -0.04339852 0.0015323646 0.026689664 -0.048556697 -0.047311533
-0.0011514148 0.08695021 0.03820891 0.046778314 0.015847377 -0.020413563 0.027011154 0.073137365
-0.0054681646 0.0068469686 0.06546188 -0.030919138 0.08754003 0.028796548 0.013054325 0.05495774
-0.064682156 0.06730669 0.009598165 -0.044187397 -0.07401319 -0.014537872 -0.07860694 -0.013544939
0.04147169 -0.048171215 -0.09191464 0.06127683 0.061225966 0.0016190634 -0.045193147 -0.021352708
0.026013032 0.0097323675 0.0766955 0.067303345 -0.08610898 0.016647013 -0.024629535 0.019219209
0.061478928 -0.035245452 0.035160128 -0.06596616 -0.02604935 -0.045052163 0.007153442 -0.08120864
-0.0664163 -0.030076722 0.06828339 0.009490903 0.016940711 -0.033367965 -0.058575604 0.008162888
-0.004903937 -0.010424387 -0.0020112144 0.0025081937 0.031559408 -0.017320383 0.0056610685 0.017415008

feature.2.bias f4 [128]
00000000: 02ec c439 5b9c 203d ca00 bc3d ea61 013d
00000010: 7c52 38bd 7260 3fbd 0419 b43b a9d3 dd3b
00000020: 63d4 883d 2863 0f3d f928 333d 54cc 9ebd
00000030: 3086 253d cb56 c3bd 79ac 57bd 1bd2 e33c
00000040: 7b63 103d d94c d4bb bfae 90bd 2680 983d
00000050: 734c ff3c 0bdf abbc 8228 08b8 25ec 65bd
00000060: d565 b2bb 6ac0 773d c0f9 9ebd b325 db3c
00000070: 986c 40bc f4c6 20bd 1794 403d 628b d23c
00000080: 325a 6fbd 93a0 61bc d114 893d 0838 11bd
00000090: a7ee 8c3d 5dca 97bd 30ae e03c 91bf 833d
000000a0: a374 53bc 8a2e acbd d0dc 3c3d baa1 973c
000000b0: f03f 25bd 15c4 223c 7f9b 8cbd 9d1b dc3c
000000c0: 9717 a83d e02c 983c 70b6 b53d bab7 35bd
000000d0: 5bec 67bd 0d73 e03c 17c5 103d fd7f 80bd
000000e0: f591 14bd 0744 ae3d cc93 983c a6a0 f93b
000000f0: 81b6 99bc 784a 78bd d10f cd3d 9ce7 35bd
00000100: e60b 3dbd 27ee 443d d47e b43c 369c 493c
00000110: 9b4a 3d3d 8620 e6bc 3c84 923d 52e1 863c
00000120: 9334 9c3b 6ee3 0a3d 94a7 9bbd 36e6 35bb
00000130: 9899 ae3b 0759 6e3b 55ff 893b 1494 8a3c
00000140: d80b cb3c bcd7 94bd d7c7 f4bc 890f 3ebc
00000150: c5d0 a33d 6272 9ebc 5cca 99bb c470 fabc
00000160: ddcd 6ebc 1ef0 54bd f545 57bd f191 45bd
00000170: 7b30 223d b2a0 a93d 852a a2bd 9eaa 52bd
00000180: 484c 01bc cc31 993d d2c3 773d 50f8 c2bd
00000190: 4124 4c3d 818e 783d e39e e3bc 5b80 b23c
000001a0: cb82 213d 6004 653c 3bb1 263d db56 28bd
000001b0: a835 d73b 6c6c 2a3d 9d1a 04bd 83a9 333d
000001c0: 750a 033d 1d3a 44bd 2b34 39bc 2e7d 9f3b
000001d0: fc14 723d 303d b73c 239b a33d 3830 43bd
000001e0: 4646 7c3c d110 3fbd a780 2bbd 8985 00bc
000001f0: c2a8 973b b142 b03b 0e36 b4bc 26fc df3c
0.00037559873 0.039211612 0.09179838 0.03158752 -0.04500054 -0.046722837 0.005496146 0.0067696166
0.066811346 0.035006672 0.043740246 -0.07753816 0.040411174 -0.09538039 -0.052654717 0.027810147
0.035251122 -0.0064788875 -0.0706458 0.074463174 0.031164384 -0.020980379 -3.2462653e-05 -0.056133408
-0.005444268 0.060486235 -0.0776248 0.026751375 -0.011744641 -0.039252236 0.04701623 0.025701229
-0.058435626 -0.013771194 0.066934235 -0.035453826 0.06881457 -0.074116446 0.02742681 0.06433023
-0.012906226 -0.08407314 0.04610902 0.018509734 -0.04034418 0.009934445 -0.06865596 0.026868636
0.082076244 0.018576086 0.08872688 -0.04436467 -0.05662189 0.02739861 0.03534421 -0.06274412
-0.036272008 0.08509069 0.018625163 0.0076180277 -0.018763782 -0.060617894 0.10012782 -0.044410333
-0.046153925 0.048078682 0.022033133 0.01230531 0.046213727 -0.02809168 0.07154128 0.016464863
0.0047670095 0.0339083 -0.07600322 -0.0027755625 0.0053283684 0.0036368982 0.004211346 0.016916312
0.024785921 -0.072677106 -0.029880447 -0.011600384 0.07998804 -0.019341651 -0.0046933126 -0.030571349
-0.014575449 -0.051986806 -0.05255695 -0.048234884 0.039597016 0.08282603 -0.07918266 -0.051432244
-0.007891722 0.07480201 0.060489483 -0.09520018 0.049839262 0.060682777 -0.027785724 0.02178972
0.039431375 0.013978094 0.040696364 -0.041098457 0.0065676756 0.041607305 -0.032251943 0.04386283
0.031992394 -0.047906984 -0.011303942 0.0048672175 0.059102044 0.022368044 0.07988574 -0.047653407
0.015397614 -0.046646897 -0.04187074 -0.007844337 0.004628272 0.005379044 -0.021998432 0.027341913

feature.4.weight f4 [128, 128]
00000000: 2f72 ffbc a026 1cbd b012 10bd 0dd9 88bc
00000010: ef25 753d e4de 9fbd f567 92bd 0811 603c
00000020: c0be 813b c854 0abd ae41 2f3d f5d9 7cbd
00000030: 0c53 a83d cc96 96bd 28a2 d1bc 5957 97bd
00000040: 0fa2 4cbd 24af ca3b fa17 8ebd c2d3 763d
00000050: c9a0 8cbd cdd7 0bbc 4be6 afbd 6d49 963d
00000060: 984d 483d 0105 98bd 0f04 88bc fae8 73bd
00000070: 46f5 2dbc d68c 523d 4a51 623d 6a20 16bd
00000080: d322 adbc 4559 683d 69f1 f8bb 5943 42bd
00000090: 95ab 833d 50ed 02bd d872 47bd 9e5a 25bd
000000a0: 0678 84bc 5d65 5c3d e418 183d 8c8b 6dbd
000000b0: 2e95 ac3c 2bcd 87bb 80d6 413c bae0 883d
000000c0: 985b 84bd da00 4c3d f0dd b2bb d5e5 13bd
000000d0: ad67 c23c a062 7b3d 433d 863d 7646 1d3d
000000e0: 9a44 023d 4b57 a4bd e49e a63d eeea b2bd
000000f0: d591 ed3c b2c7 19bd 5e3e 9cbd 56c4 71bd
00000100: 2b5e ae3c 840f 1b3c bfa6 a63d ab16 97bd
00000110: ddf2 9c3d 751c 2dbc 902a acbd 6146 3b3d
00000120: b1cd 333d 3fbf ba3c 0341 1dbd e80e 3bbc
00000130: c4cb 92bd c4f6 1a3c cc14 8dbd 6d5b 923d
00000140: 6d9d b4bd 0bb7 bfbc 3815 30bc 255d a33d
00000150: 2b4b 863d c60b be3a 0806 a4bc 0383 c6bc
00000160: cc38 7fbc f036 543d db58 9cbd e470 7b3d
00000170: 5f4f 31bd c8ef 12bc 5b85 f0bb abcf 93bd
00000180: c88f e8bc ed7a 8c3d 555b 343c bb12 adbd
00000190: d124 303d 32b0 cb3c 913b 5c3d f747 21bc
000001a0: 1102 2abd e433 603d 5925 6f3d ca8e 53bd
000001b0: e63c b13d c6d5 abbc bd19 8fbd 26b4 133d
000001c0: 41ba e8bc 1cc2 953d 0728 9abd e33d ad3d
000001d0: 90b1 223d f7d4 c7bb 8fb3 e83c d0e5 a83b
000001e0: ac7f b63c d623 dcbc 23db b03d ca8f 873d
000001f0: f763 a03d 75e0 d33c 3662 a13d 5760 bebc
00000200: d761 523c 8727 bcbd d14d 9a3d 636e ebba
00000210: 2b2a 9b3d b2bf 3bbd aca2 60bc a394 5e3d
00000220: a22a 2ebd ce7d 07bd 6bcc a7bc 6a65 acbd
00000230: 268d 60bd 4cae 20bd a347 0fbd f8f9 9cbd
00000240: 6ed8 863d 3eda 983d da91 843d 4eb6 bcbc
00000250: 67a0 3b3d 7961 b53c 2c3b 67bd 9ab7 e53c
00000260: 65be debc a300 21bd db9e 0bbd 8948 143c
00000270: ae65 443d 5baf ed3b 2374 10bc f170 893d
00000280: 6587 59bd 706c aa3c 8abc d0bc 2403 19bd
00000290: 1b78 fd3c 2aae da3b 88ff b4bd 51d7 f63a
000002a0: e148 403d 4db0 85bd 45e2 8f3d 502d 34bd
000002b0: 93cc 8c3d fc25 a8bd 0de1 92bc 0f47 a23c
000002c0: 2078 a43d 0a41 9fbd 7a92 85bd cac2 9bbd
000002d0: c5a2 993d 9f62 7c3d b06f 4abd e535 32bd
000002e0: ae25 ac3c c3b2 e73c 8480 acbd a50f a3bb
000002f0: a880 41bd e41c 9dbd 986f d93c da00 b5bd
00000300: 4593 8c3d e7d2 a53d 7dfa a53d 816c 1abd
00000310: 39da 61bd 93d5 a2bd b805 993d abe0 6bbd
00000320: 504c 9ebd 2127 90bd 9345 a63d 221a 9b3d
00000330: 4884 a8bd 9444 793c d828 32bd 28ec 32bd
00000340: a67a b7bd fa90 dbba eaa8 163d 4cd7 ad3d
00000350: ae3a 23bd e612 1c3d ef57 70bc 29e9 85bd
00000360: 0771 553c 7a33 2bbd 39d5 8a3b 07d1 df3c
00000370: 6a20 783d d142 023d d3db f8bc 15eb 4b3d
00000380: 208e 5dbd 4d52 56bb f90c 9abc 2695 a13d
00000390: a553 5bbd f57f 58bb b1d7 213d 7266 76bd
000003a0: b91b 4b3d 3fb5 32bd b1a0 89bb cdb9 fc3c
000003b0: 3190 bb3c 19b4 bcbc fb38 65bd e87b 5cbb
000003c0: 72b5 723d 924c 9b3d c537 043d b4a2 8b3d
000003d0: afc9 b1bd 989b 1e3d 8e02 463d d3b1 e8bc
000003e0: 6fcb d3bc b4b6 1dbd 04b3 9ebd 25b7 a93d
000003f0: da72 08bc ce2d cf3c e093 34bb c836 b03c
-0.031182377 -0.038122773 -0.03517407 -0.01670506 0.05985063 -0.07806185 -0.071487345 0.013675936
0.0039595068 -0.03377226 0.042787246 -0.061731298 0.08218965 -0.07352981 -0.025590017 -0.07389707
-0.04995924 0.006185429 -0.06938167 0.06026054 -0.06866605 -0.008535338 -0.08588847 0.073382236
0.048902124 -0.074228294 -0.016603498 -0.059548356 -0.01061756 0.051403843 0.055253305 -0.036652006
-0.02113477 0.05672576 -0.0075971377 -0.04742751 0.06429211 -0.0319646 -0.048693508 -0.040369622
-0.016170513 0.053807605 0.037133113 -0.05799441 0.021067228 -0.004144331 0.011830926 0.06683488
-0.064627826 0.0498055 -0.005458586 -0.036107857 0.023731077 0.061373353 0.065546535 0.038397275
0.031803705 -0.08024462 0.08135775 -0.087362155 0.029000202 -0.03754396 -0.07629083 -0.05902513
0.021285137 0.009464148 0.08137273 -0.073773704 0.0766351 -0.010565867 -0.08406556 0.045721415
0.043897334 0.022796271 -0.038392078 -0.011417128 -0.071677715 0.009458248 -0.06888732 0.07146344
-0.08819089 -0.023402711 -0.010747246 0.0797675 0.06557306 0.0014499358 -0.020022407 -0.024232393
-0.015577506 0.051810205 -0.07634135 0.061386958 -0.043288585 -0.008968301 -0.007340116 -0.07217344
-0.028388873 0.06859384 0.011008103 -0.08450838 0.04300386 0.02486429 0.053767744 -0.009843818
-0.041505877 0.054736987 0.058385227 -0.051649846 0.086541936 -0.020975959 -0.06987331 0.036060475
-0.028409125 0.07312414 -0.07527166 0.084590696 0.039720118 -0.0060983854 0.028405933 0.005154349
0.022277676 -0.026872557 0.08635547 0.066192225 0.07831567 0.025863865 0.078800604 -0.023239298
0.01284071 -0.09187227 0.075343736 -0.0017961975 0.07576402 -0.04583711 -0.013710659 0.05434097
-0.042521127 -0.03307896 -0.020483216 -0.08417781 -0.05482211 -0.039228722 -0.034980427 -0.07664865
0.065842494 0.074635014 0.064731315 -0.023036148 0.04580727 0.022141205 -0.056452915 0.02804165
-0.027190397 -0.039307248 -0.034087043 0.009050497 0.04794853 0.00725357 -0.008816752 0.06710995
-0.053107638 0.02080366 -0.025480527 -0.03735651 0.03094106 0.006673594 -0.08837801 0.001883248
0.046944503 -0.06527767 0.07025579 -0.043988526 0.06874957 -0.0821037 -0.017929578 0.019809274
0.080307245 -0.07776077 -0.06522079 -0.076055124 0.07501749 0.06161749 -0.04942292 -0.04350843
0.02101406 0.028283482 -0.0842295 -0.00497623 -0.047241837 -0.07671526 0.02654247 -0.08838053
0.06864027 0.08096867 0.081044175 -0.037701134 -0.055139754 -0.07950892 0.07471794 -0.057587307
-0.07729399 -0.07038713 0.08118739 0.07573344 -0.08228356 0.015214104 -0.043495983 -0.043682247
-0.0895894 -0.001675158 0.036782183 0.0848833 -0.039850883 0.03810396 -0.0146694025 -0.065386124
0.013027436 -0.04179714 0.004236844 0.027321352 0.060577787 0.031802002 -0.030378258 0.04978474
-0.05409062 -0.0032702864 -0.018805014 0.07889776 -0.053546567 -0.0033035253 0.03951234 -0.060156293
0.049586985 -0.04362988 -0.004200064 0.030850315 0.022895904 -0.023035096 -0.055962544 -0.003364319
0.05925507 0.07582964 0.03227975 0.068181425 -0.08681046 0.038722605 0.04834228 -0.028405106
-0.02585384 -0.038504317 -0.07748988 0.08286885 -0.008328164 0.025290396 -0.002755396 0.021510497

feature.4.bias f4 [128]
00000000: 8d67 b2bd 3de5 853d 9248 9cbc a12b 75bd
00000010: bd01 c2bc 6cd1 9abd bf77 313c e066 f13c
00000020: cbca 103d 0357 f2bc c0e9 b43c 4e12 823d
00000030: b9e8 b83a 5c9e 1dbd f99e aebd 6920 553d
00000040: 6423 50bd 7000 b83d 4ea1 a0bc 83f1 c7bc
00000050: 6e59 47bc 3d34 f0bc ff9b 9bbd a5e0 edbc
00000060: 7567 4ebc 880d 44bd 27ea eb3c 77c3 85bd
00000070: afab b4bd db85 113d 546b 76bc c2e6 753c
00000080: bdc5 a6bd 27ea 11bd f7cb c43d 2ca2 3e3d
00000090: dce6 dfbc b3ad 34bd 19d7 8f3c 13d2 9c3c
000000a0: 2215 55bd b94b 1e3d 6bb0 343d 08b1 d4bc
000000b0: 0b73 283d aa84 28bd 1f98 ac3c 23ea 893d
000000c0: 0e23 a03d e7bc fdbc b519 2dbd e938 1e3d
000000d0: a733 efbb 70fa a93d 4ca6 b5bc 1613 06bd
000000e0: fe71 21bc 988f ae3d 1183 98bd 69b8 343c
000000f0: 35b6 fb3c 76da 7dbc bc6f 49bd d026 993d
00000100: 18a0 4d3c a6cc 59bc 76d0 baba f3ad a33c
00000110: a875 983d 2fbd d73c 355e f23c ea2b 093d
00000120: 8c1f acba a480 983b 7dc1 f9bc 8691 87bd
00000130: 7d7e 40bd e759 b63c 4130 b6bd dc77 a33d
00000140: 1e8b 25bc 0e75 50bd 9311 a5bd 5c30 ab3d
00000150: d866 bfbb b693 6cbb 5766 b1bb 26ab a4bd
00000160: 7c82 523d 27e8 a73d 7cc9 96bd a84c 3ebd
00000170: 266d 653d dd7f 463d 1672 62bd e5d8 8a3d
00000180: 0e95 a0bd ce84 80bd 3269 0ebd f45d 86bc
00000190: a7f5 d63a c55a 043d 0cd3 8b3c eb40 883d
000001a0: b52a 493d 3776 6ebd fdff 21bb fce4 993d
000001b0: bbbe 903d 37fe 48bd ca65 fabb 5a98 aa3c
000001c0: 38b0 20bc a06e 58bd e62a 433c 11d3 8f3d
000001d0: 3a2d 42bb 0a10 5a3d f6e6 bcbd a806 8abc
000001e0: 7562 86bb 700d 203d 20f7 7d3d 0d65 9f3b
000001f0: 2ea6 4dba b763 633d 3829 873d 38ee 36bd
-0.08711157 0.06537864 -0.019077573 -0.05985606 -0.02368247 -0.07559475 0.010831772 0.029468
0.03534965 -0.029582506 0.022084117 0.063511476 0.0014107443 -0.0384811 -0.085264154 0.05203286
-0.050815 0.089844584 -0.019608166 -0.024407154 -0.012167318 -0.029321784 -0.07598113 -0.029037783
-0.012597908 -0.047864467 0.028798176 -0.065314226 -0.088218085 0.035528045 -0.015040237 0.01500863
-0.08143184 -0.035623696 0.09609216 0.046541378 -0.027331762 -0.044110965 0.017558621 0.01914314
-0.052022107 0.038646434 0.044113558 -0.025963321 0.04112534 -0.041142143 0.02106863 0.06734111
0.07819186 -0.030973865 -0.042260844 0.038628493 -0.0072998586 0.0829972 -0.022174023 -0.032733046
-0.009853838 0.08523482 -0.07446874 0.011030295 0.030726532 -0.01549398 -0.049178824 0.07478106
0.012550376 -0.013293421 -0.00142528 0.019980406 0.07444316 0.026335327 0.029585937 0.033489145
-0.001313196 0.004654007 -0.03048777 -0.06619553 -0.04699563 0.022259666 -0.088959225 0.07981846
-0.010103969 -0.050892882 -0.08059993 0.08358833 -0.0058411174 -0.0036098785 -0.005413811 -0.080404565
0.05139397 0.081985764 -0.07362649 -0.046459824 0.056012295 0.048461784 -0.055284582 0.067796506
-0.0784093 -0.062753305 -0.03476829 -0.016402222 0.0016400114 0.032313127 0.017068408 0.06653007
0.049112994 -0.058218207 -0.0024719231 0.075143784 0.07067629 -0.049070563 -0.0076415287 0.0208246
-0.009807639 -0.052839875 0.011912083 0.070226796 -0.0029629008 0.053237952 -0.0922374 -0.016848877
-0.0041010925 0.039075315 0.062003255 0.004864341 -0.0007844892 0.055515017 0.06599659 -0.044660777

actor_mean.0.weight f4 [128, 128]
00000000: 2cad 9e3d a681 33bd 15fe eebc b513 733b
00000010: 0d63 863d 31dd 913d cd8f b73c bd03 30bd
00000020: aecc 6c3d 200b ab3c b4bc a13d fadf c1bc
00000030: 4750 b83d e78b 9f3d 6365 90bd 2a6a 2cbd
00000040: 43c4 953d 3f9a 893d c3fa d03c be01 013d
00000050: 89fa 123d 17ae 4ebc 2a2b 85bc f632 7ebd
00000060: f80a d03c a094 4a3b 5eab c33c e050 3a3d
00000070: 02a2 2ebd 798c 933d 319a 0cbd 7f54 b0ba
00000080: 82ba 603d 0cf7 a8bd 7295 b83a 0343 74bd
00000090: 6475 173d b45d 81bd 3416 ad3d 3d97 32bd
000000a0: 48a1 60bd e186 de3c 3ef3 7a3d ad40 a0bd
000000b0: 57f7 023d 7b50 a63c 75ac 8dba cc9e 91bd
000000c0: 116b c43d 0c58 b13d 5838 723d 91ab 4bbd
000000d0: 9114 9ebd eb3d f23c 58be 2b3d f2cd e9bb
000000e0: 5813 c4bc 0c81 353d f81e 2f3c 35a1 993d
000000f0: 6e65 e8bc 0b07 a4bc e4c6 8f3d d9b6 95bd
00000100: 1767 bf3c 8deb 4a3d 700d 78bd 5065 af3d
00000110: 9c1b 49bd dc4c ccbc 155d 9dbc a1b3 8abd
00000120: 2003 c13d 0500 18bd 4fac b23d aa40 e83c
00000130: fa12 483d 009d 523d 8036 6e3d f7fc 84bd
00000140: 3a8f a53c 2ba5 edbc e954 83bd d8a1 d13b
00000150: 5024 a23d 4223 aa3c 6709 a13d 217f 9d3d
00000160: b102 89bb 1e9d a33d af99 983d beb6 6fbd
00000170: f931 7d3d a30c e3bc e475 75bd dd12 06bd
00000180: c877 a13c 7231 2abd e531 5b3d 3b3b 6dbd
00000190: be0a 6e3c a525 9f3d a021 7d3b f758 1bbd
000001a0: 6874 2bbd 72f8 84bd 7463 3a3d 4aba b33d
000001b0: 9e83 c8bc 0e68 0fbd 74f9 9c3d 94c1 d13d
000001c0: bcd5 88bd 4e8f 973d 2313 623d f83f 673d
000001d0: 6275 023d 95c0 9b3d acc6 06bd 1f20 69bd
000001e0: e2c3 663d 73de b3bd a739 ef3c 56ea 223d
000001f0: 29f3 a5bd 4cab 4c3c d7c5 13bd 5ba9 07bd
00000200: 752c ae3d a98a abbd 2fe8 84bd f66d 773c
00000210: 75ae 9f3d d5c9 42bc 80ca 11bd 0503 81bd
00000220: f0f0 833d eb49 5ebc 12e3 743d a6cf d63c
00000230: d1f7 963d cdf4 8ebd 4947 20bc 308e 54bd
00000240: 52bd 82bd bf08 4f3d 163d 853c 66db c23c
00000250: ccc3 123d 74f7 6a3c b50a 843c f495 acbd
00000260: 11af 063d 50ea 97bd b014 433d 68f8 963d
00000270: 2913 813d a6f6 aabd 78e3 a83d 5246 053d
00000280: 8966 b4bd 668a 98bd 4ed6 013c 8008 ae3b
00000290: dc62 943c 735f 523d fc1f 2fbc 58d2 54bd
000002a0: 1350 a03d 5fd4 66bd 2c71 94bd 325f 913d
000002b0: 8ea5 aebd 1196 923d 1fc5 fe3c 504b 0eba
000002c0: 1e6d 52bc 064a c2bc b0c9 443d fb84 0bbd
000002d0: 28a4 93bd 9dad 8f3d 3837 3e3d 71c7 febb
000002e0: 4fde 67bd 497f 903d fcb7 a0bd 2709 233b
000002f0: 7ffd 5bbd 2124 0f3d 3f5b 773d f066 883d
00000300: 86f3 91bc 5391 3bbc ea06 db3c b981 a63d
00000310: 444b 99bd ec18 03bc 90aa 1f3d 6986 d8bc
00000320: 6421 99bd 45e7 52bd 0149 a23d 3173 9abd
00000330: 4b53 97bd 706d 43bd b35c 953d 63ff a6bc
00000340: 32d3 abbd 2e49 a5bd ef3c f23c 092e 4bbd
00000350: cbc3 65bc 0f63 b03d e81c ef3b 4758 aebd
00000360: dca7 4a3d 5b87 9b3d 14fc 32bc 4ae4 173c
00000370: 831d 993d f189 78bd 1673 253d 2eba 4c3c
00000380: c959 1f3c b616 833c 6572 6e3d 2606 a2bd
00000390: 58dc b2bb fbfe 98bd 0345 8abc 702e 4cbc
000003a0: 06e2 d83a b109 ae3d 15d8 933d a026 dfbb
000003b0: af41 393d 41a1 b3bc 3a33 513d fa0e e43a
000003c0: f0eb a7bd 6dc6 8cbc 6fd3 403c b5f5 acbd
000003d0: 67e8 2d3d e60b 91bd e83d 243d 31e9 763d
000003e0: fbf8 a6bc 79e8 82bd 01db 093d 1ff8 8fbd
000003f0: f02d 443d 8231 a2bd c673 8e3c 9807 583d
0.07747874 -0.043824814 -0.02917389 0.0037090604 0.06561861 0.07122267 0.022407437 -0.042972315
0.057812385 0.020879328 0.078973204 -0.02366637 0.08999687 0.07790356 -0.07050588 -0.042093433
0.073128246 0.06718873 0.025510198 0.031495802 0.03588346 -0.012614748 -0.016255934 -0.06206032
0.025395855 0.0030911341 0.023885425 0.045487285 -0.04263497 0.072045274 -0.034326736 -0.0013452916
0.054865368 -0.082502455 0.0014082624 -0.05963422 0.036977187 -0.063167006 0.084515005 -0.043601263
-0.05484131 0.027163925 0.06126713 -0.07824836 0.031974163 0.020302048 -0.0010808842 -0.07110366
0.09590734 0.08659372 0.059135765 -0.049724165 -0.077187665 0.02957054 0.041929573 -0.0071351463
-0.023935005 0.04431252 0.010688536 0.07501451 -0.028368678 -0.02002289 0.07020357 -0.07310266
0.023364587 0.049541045 -0.06055969 0.08564246 -0.049098596 -0.024938993 -0.019209424 -0.06772543
0.09424424 -0.037109394 0.087242715 0.028351147 0.048846222 0.051419258 0.058157444 -0.06493562
0.020209897 -0.029009422 -0.0641268 0.006397467 0.07917082 0.020768765 0.078631215 0.076902635
-0.004181229 0.07988952 0.07451188 -0.058523886 0.061815236 -0.027715987 -0.059926882 -0.032732833
0.019710436 -0.04155106 0.05351438 -0.057917815 0.014528928 0.07770852 0.0038624778 -0.03792664
-0.04185906 -0.064927 0.045505002 0.08775766 -0.024476822 -0.035011344 0.07664767 0.10242
-0.066813916 0.0740038 0.05519403 0.05645749 0.031850226 0.076050915 -0.032904312 -0.0569154
0.056339152 -0.08782663 0.029202295 0.03977426 -0.0810302 0.012492012 -0.036077347 -0.033120494
0.08504573 -0.08376057 -0.06489598 0.0151019 0.07796947 -0.011888941 -0.03559351 -0.06299404
0.064424396 -0.013567428 0.059786864 0.026222061 0.07371486 -0.06980286 -0.009782621 -0.051893413
-0.06383766 0.05054545 0.01626448 0.023786258 0.035831258 0.014341224 0.016118387 -0.08427039
0.0328818 -0.074177384 0.04762715 0.073715985 0.06302483 -0.08347826 0.08246511 0.032537766
-0.088086195 -0.074482724 0.007924629 0.005311072 0.018113546 0.05136056 -0.010688778 -0.051958412
0.07827773 -0.056354877 -0.07248148 0.07098235 -0.08527671 0.07157529 0.031099854 -0.00054280926
-0.012843398 -0.023716938 0.048043907 -0.034062367 -0.07209045 0.07015536 0.04643938 -0.00777524
-0.056608494 0.07055528 -0.07847592 0.0024877281 -0.05370855 0.034946565 0.060389753 0.06660259
-0.017816316 -0.011448222 0.026736695 0.081302114 -0.07485059 -0.008001547 0.03898102 -0.02643128
-0.07477072 -0.051490087 0.07924081 -0.07541502 -0.07388934 -0.04771179 0.072930716 -0.02038545
-0.08389892 -0.080705985 0.029570071 -0.04960445 -0.014023731 0.08612644 0.007297147 -0.08512931
0.04947649 0.075941764 -0.010924358 0.009270737 0.07476332 -0.060678426 0.040392958 0.012495561
0.009725996 0.01600204 0.058214564 -0.07911329 -0.005458396 -0.07470509 -0.01687861 -0.012462243
0.0016546852 0.08497942 0.07218949 -0.0068100244 0.045228656 -0.021927478 0.051074244 0.0017399483
-0.081992984 -0.01718446 0.01176916 -0.084453024 0.042457964 -0.070823476 0.0400981 0.060280982
-0.020382395 -0.06391997 0.033656124 -0.07029747 0.047895372 -0.07919599 0.01738919 0.052741617

actor_mean.0.bias f4 [128]
00000000: 38f2 ca3c 2a49 94bd e8bc afbc df9d 983d
00000010: 8e4c 81bd d1f3 9f3d 1103 943d 83b6 21bc
00000020: 9d2c dd3c b42f 54bd 012d 85bd e4bb 833d
00000030: a224 8ebd ee5a 2ebd 8e70 c43d 7f39 8bbb
00000040: 054f df3b c879 82bc c667 553d d659 f2bc
00000050: c9e2 563d eef9 353d 2d67 fc3c 0dce b83c
00000060: 7465 62bd 3f71 37bd 80cf 21bd 2038 46bd
00000070: a044 2ebd 202d 2cbd 4614 b7bb b67c c73d
00000080: 30f2 b23d 110e d3bb fb85 5abc 9e3e 403d
00000090: 4435 e5bb bab9 beba 7158 903d c33d 863b
000000a0: 6352 95bd eb28 a93d 0dea 8cbc 640b 7b3d
000000b0: d604 433d ba02 d9b9 5379 90bd 3a06 873d
000000c0: 0dbf c93b 961b 0bbd 08d0 6ebc d896 943d
000000d0: 2ca5 a9bb 0a5b 0e3d 6450 af3d af62 96bd
000000e0: 8961 983d 3158 74bd 0f98 be3d 1c7e adbd
000000f0: ca18 03bc a96b 28bd 5abe aebd 5353 2bbd
00000100: 6ef0 2b3d c8d4 b0bd 897a 8f3d f883 c53c
00000110: c77d 3fbd c00a a83d 4eea 57bd c310 b63d
00000120: 6d82 c83d e478 a93d 1141 4ebc db37 01bb
00000130: 28a3 00bc 2c9a 6fbc 7a5f 9b3c 52c9 0ebd
00000140: 84d5 97bd 44b9 5abd 1ef0 163b 68b8 1bbd
00000150: c125 bf3d 47bf 87bd 78ae c63c baf3 1b3d
00000160: 14d9 97bd a9e3 283d 777e 1b3d 2d6c b3bd
00000170: bd88 c93d 7bb5 53bc ad85 61bd 35f1 403d
00000180: 8978 a5bd be36 243d e19d 01bd 8d06 85bd
00000190: 6930 363c fec4 ea3c 4789 22bd 5efe b93c
000001a0: fa6a 4cbd 748e 6abd aeed 103d af39 6cbd
000001b0: 63c2 76bd ae11 353d 9b8a b83d 9647 b7bd
000001c0: 99a5 b83d 7dd1 a1bd 6331 343c b722 13bc
000001d0: 5da4 303c db5b 11bc f5dd 41bd 4148 64bd
000001e0: 94d5 b4bd 6469 a0bc 67d0 a63d ef25 ac3d
000001f0: 8db0 673d 532a 1abd a1b4 ac3c 5c5e a7bd
0.024773702 -0.072405174 -0.021452382 0.074519865 -0.0631343 0.07810176 0.07227147 -0.009870174
0.026998812 -0.051803306 -0.065027244 0.06432322 -0.06940581 -0.042567186 0.095917806 -0.0042487974
0.00681484 -0.01592721 0.05210092 -0.029583853 0.052462373 0.044427805 0.030810917 0.02255919
-0.055272534 -0.044785734 -0.039504528 -0.04839337 -0.042545915 -0.042035222 -0.0055871336 0.097405836
0.087376 -0.006440886 -0.0133376075 0.046934716 -0.006994875 -0.00145512 0.07048119 0.004096718
-0.07291105 0.082597576 -0.017201448 0.06129016 0.047612034 -0.00041391497 -0.07054391 0.065929845
0.006156808 -0.033961855 -0.014575966 0.07255334 -0.0051771607 0.03475479 0.08560255 -0.07343041
0.07440478 -0.05965442 0.093063466 -0.08471319 -0.008001516 -0.041118298 -0.085324004 -0.04182751
0.04197734 -0.08634335 0.070057936 0.02411078 -0.04675081 0.082051754 -0.052713685 0.08889916
0.09790502 0.08275011 -0.012588755 -0.001971713 -0.0078513995 -0.01462416 0.018966425 -0.034859963
-0.07413772 -0.05339934 0.0023031305 -0.03801766 0.09333373 -0.0662828 0.024253115 0.038074233
-0.07414451 0.04123274 0.037962403 -0.08760867 0.09840534 -0.012921686 -0.055059124 0.047105033
-0.08079631 0.04009127 -0.031644706 -0.0649539 0.01111994 0.028658386 -0.0396817 0.0227043
-0.04990671 -0.05726476 0.03538292 -0.0576722 -0.060243975 0.044206314 0.09010812 -0.08949201
0.0901596 -0.07901285 0.010998103 -0.008980445 0.010781375 -0.008871998 -0.047330815 -0.05573297
-0.08829799 -0.019581504 0.08145218 0.08405673 0.056564856 -0.03763802 0.021082224 -0.081722945

actor_mean.2.weight f4 [2, 128]
00000000: 4a48 bc3d 69ff 113c 56a4 83bc 449a a4bc
00000010: 0641 84bd b41e 42bd 1006 c83d 7785 193b
00000020: e770 93bd d7c0 123d 37b8 15bd a3b7 83bd
00000030: 3648 f4bc 1691 87bc 79df 513d 58c8 023d
00000040: 0ea7 dfbc 6258 0fbd 9e9b 0d3d 0c8e d53b
00000050: 5fad 813c 3999 12bd 0246 6d3d 2d84 b1bb
00000060: 3dc6 1fbd 9f07 143d bf3c 8fbd 29bc 9f3c
00000070: 888f 373c b774 63bc 8d58 92bc a275 ad3d
00000080: 72c3 b1bb a0a9 8c3d 0cd9 31bb 9045 f13c
00000090: 83a8 ab3d 6295 84bd e540 41bc 5d1d 2ebd
000000a0: 4b13 18bd f00d a9bc 0845 1a3d 67e7 a23d
000000b0: fcc2 19bd 662c 11bd 4cb9 61bc cdd0 09bd
000000c0: e344 6dbd 80f4 993d 7234 c8bc 8caf 76bd
000000d0: 371d ebbc c85d ad3b e5e0 8b3d 8536 8ebd
000000e0: b5f9 82bd 8053 53bb 03e6 ae3a 3481 a33d
000000f0: 1777 27bd 0d68 7dbd 48ab 98bd 6587 8b3d
00000100: 4d48 d13c 007a 61bd 63e2 033d e4a2 933d
00000110: cb86 103d 09de 2e3d 5274 a83c dbbe bf3c
00000120: 29ff 1a3d 5266 143d 1d93 a3bc d97a 88bd
00000130: 6ae6 823d 4f91 edbb 9a48 cf3b 015b d1bc
00000140: 75a4 bb3c 827c aa3c 7b9e bf3d e95f 14bd
00000150: 026e be3d 9128 18bd 21c1 99bd 3471 0d3d
00000160: 7f27 bcbd ba51 8d3c f693 44bd 92e3 67bd
00000170: a186 4d3d f4a6 2fbc cbb1 9c3c 3d8e ddba
00000180: 3e3d 743d a6a5 bc3d ea96 bf3c 124e aebd
00000190: 8814 043d a6b5 ccbc fa94 d33c fec0 c43d
000001a0: 61d2 5dbd 0584 32bd ecda a13d 386c eabc
000001b0: a2be 973c 7b48 debc 135f 243c a19a 51bb
000001c0: 64c4 9a3d 890b 10bd 21c4 403b 6b71 d2bb
000001d0: 4898 c83d 119c 71bc 9675 d53c 62d3 9d3d
000001e0: 3bbf 45bd 66e0 a2bd 4c07 8f3d 330c c83d
000001f0: 947d ae3d 136f b13d 03ad f23c aee6 8bbd
00000200: ae70 25bd 9834 ef3c 451a 683d 35bc 84bd
00000210: ec9d 25bd 2c25 b43d c969 253d e3da 67bd
00000220: 170c 6e3d 80bd cd3c dbc9 9abd 3606 55bc
00000230: 1e1d 1ebd 2ce6 f9bb 06fa ecbc fef3 703c
00000240: 18f1 9abd 1dd5 1c3d 2233 ab3d e7b7 d03c
00000250: 4917 283d c7de 0f3d e912 3bbd ce91 46bd
00000260: 709c 7e3d 4f97 ad3d 283a 42bd 028f a63d
00000270: c65a b53c 2fd0 703d d8be 823d 00f9 3d3d
00000280: 9fe7 733d 4f39 c33d 3b78 8b3b dcb8 2fbd
00000290: 9657 033c 0b05 85bd 5785 19bd 0923 37bd
000002a0: 0a4b d4bb 8e3a 393d 0352 4eba da73 8bbd
000002b0: 5f3e 9fbc 6063 9dbd 536c 103d 7f57 bf3d
000002c0: e6e3 7b3b 2a25 533d 11dd 073c 5378 603c
000002d0: 98f2 043d 6c6e bd3c c731 77bd 3128 97bd
000002e0: 447a 96bd 91a0 6abd 4082 453d cec3 e7bc
000002f0: b0b2 e13c af5e 40bd 5c40 1b3d ca0e 4fbd
00000300: ff68 f43c 1d15 1a3d 76b5 f23c 4ac4 59bb
00000310: 5cef b23d 6004 c53c aa2e 793c ee80 46bc
00000320: 6680 193d ff27 f33c db5f 97bd ba24 833d
00000330: 78f8 2bba 5ea4 d43c 2b03 d4bc 86ed 633c
00000340: 99cc 8fbd f498 a9bd ee8b 71bd 4903 e2bc
00000350: e968 db3c e84d 853d f2a8 a83d 9ace f63c
00000360: 3720 c63b 1076 883d d240 c23d d5df 4c3d
00000370: 34cc b63d ed0a a3bd 69c4 e53c 4a3a 073d
00000380: 5f34 a63d c287 4d3d db1b e5bb 208d a63c
00000390: aefd 06bc 8dcd 8cbc 656c 143d d027 84bd
000003a0: b023 ee3c 4ad0 663d 91f2 033d b762 4b3d
000003b0: d8e8 66bc 9339 b23d 9541 723c 9184 59bd
000003c0: 356e dbbc bf94 543c 993f 843d 7777 b93d
000003d0: 722c 863d e525 8d3d 7e0c 9abd 2a82 ab3d
000003e0: e9fa 463c bf9d 8b3d 30dd 793d 184e 45bd
000003f0: 192c 1a3d 61da 5cbd a14f 2b3d 9902 7e3c
0.091934755 0.008910992 -0.016069572 -0.02009309 -0.06457715 -0.047392562 0.09766781 0.0023425499
-0.07199269 0.035828438 -0.036552634 -0.0643151 -0.02981959 -0.016548675 0.05123851 0.031929344
-0.027301338 -0.034996398 0.034572236 0.0065171774 0.01582974 -0.035790656 0.057928093 -0.005417368
-0.039007414 0.03614008 -0.06994008 0.019498901 0.011203654 -0.013882807 -0.01786449 0.08469702
-0.00542491 0.06868291 -0.0027137427 0.029452115 0.083817504 -0.06473805 -0.011795257 -0.04250847
-0.037127774 -0.020636529 0.03766349 0.07954293 -0.037539467 -0.035442732 -0.013777088 -0.033646394
-0.057927024 0.07517338 -0.02443907 -0.06022601 -0.028700454 0.0052907206 0.068300046 -0.069439925
-0.06395284 -0.0032245815 0.0013343695 0.07983628 -0.040885057 -0.06186681 -0.07454544 0.06812934
0.025547171 -0.05504799 0.03219832 0.07208803 0.0352848 0.042692218 0.020563278 0.023406437
0.037840996 0.036230393 -0.01996761 -0.06664056 0.06391604 -0.007249988 0.0063257935 -0.02555609
0.022905568 0.020811323 0.093563996 -0.03622428 0.09298326 -0.037148062 -0.075075395 0.034531787
-0.09187221 0.017250884 -0.04799267 -0.056613512 0.05017722 -0.010720957 0.019127747 -0.0016903352
0.059628718 0.092112824 0.023387391 -0.085109845 0.032246143 -0.02498896 0.025827873 0.09607123
-0.05415571 -0.043582935 0.07903084 -0.028616056 0.018523518 -0.02713417 0.010032433 -0.0031983035
0.0755699 -0.03516725 0.0029413777 -0.006422212 0.0979467 -0.014746682 0.026057046 0.07706334
-0.048278075 -0.07952957 0.06983814 0.09767952 0.08520046 0.08663764 0.029623514 -0.06831108
-0.040390663 0.029199883 0.056665678 -0.0648121 -0.04043381 0.087961525 0.040384088 -0.05660523
0.058117 0.025114775 -0.07558032 -0.013001969 -0.038601987 -0.0076263156 -0.028927814 0.01470661
-0.07565516 0.03828918 0.08359362 0.025478316 0.04103783 0.035124566 -0.04567233 -0.048478894
0.06216091 0.084761254 -0.047418743 0.08132745 0.02213801 0.05879229 0.06384057 0.046380043
0.059547063 0.09532415 0.004256276 -0.042900905 0.008016488 -0.064951025 -0.03748068 -0.044711147
-0.006478672 0.045221858 -0.0007870497 -0.06809206 -0.01943892 -0.0768497 0.035259556 0.093428604
0.0038435399 0.051549114 0.008292452 0.0137005625 0.032457918 0.023123942 -0.060350206 -0.07380713
-0.07347539 -0.057282034 0.04821992 -0.02829161 0.027551025 -0.046965297 0.037903175 -0.050551213
0.029835222 0.03761779 0.029627543 -0.003322857 0.087370604 0.024049938 0.0152088795 -0.0121157
0.037475966 0.029682158 -0.0739133 0.064034894 -0.0006560157 0.025957283 -0.025880417 0.0139116105
-0.07021446 -0.082811266 -0.058971338 -0.027589457 0.026783423 0.06509 0.08235349 0.030127812
0.006046321 0.06663144 0.0948502 0.05001815 0.089256674 -0.07961068 0.028047757 0.033014573
0.08115458 0.050178297 -0.006991846 0.020330966 -0.008239193 -0.017187858 0.036236186 -0.06452906
0.029069752 0.056350984 0.03221375 0.04965469 -0.0140936 0.08702388 0.014786144 -0.05310494
-0.02678595 0.012974917 0.06457443 0.09055989 0.06551446 0.068919934 -0.07521914 0.08374436
0.012144783 0.06817197 0.061001956 -0.04817018 0.03763971 -0.0539192 0.041823987 0.015503549

actor_mean.2.bias f4 [2]
00000000: f815 89bd 5244 33bd
-0.06693643 -0.043766327
