path-planning/drone-path-planning-ppo-dynamics/models/ppo_model_episode_1500.pth (torch, 344149 bytes, 17 tensors)

feature.0.weight f4 [128, 7]
-0.19579893 -0.205877 0.37351575 0.2832855 -0.062191006 0.28695998 -0.062572666 0.36758983
0.3197986 -0.10123688 0.35271534 0.25473574 0.25147513 0.14487006 -0.1700598 -0.03183121
0.06728528 0.007673368 0.031539556 0.0372407 -0.13857712 0.2749636 0.14678378 -0.0029326903
0.37822583 0.1613734 0.32406452 0.41875023 0.21467519 0.30366224 -0.2987643 0.30354849
-0.22298348 0.35302845 -0.30310568 -0.27024728 -0.14728682 -0.049968466 0.0852362 0.2453839
0.22753476 0.21570383 0.32293007 -0.38489306 -0.1991184 -0.2115098 -0.11528697 0.3762101
0.2506985 -0.31679237 -0.0746583 0.2968267 -0.04651649 0.35379633 -0.21417682 -0.043901086
-0.31839398 -0.30184796 -0.012200486 -0.042014133 -0.37921315 0.14122964 0.16477664 -0.3066684
0.30548382 0.14088733 -0.35303852 -0.046773434 -0.34345093 0.17148253 -0.33629575 0.25004303
0.09290791 0.17402855 -0.030583704 0.07918994 0.21222118 0.0791255 0.35354215 0.07428006
-0.2905827 -0.28613043 0.2881571 -0.18374452 0.012480574 0.31286445 -0.078136325 -0.3811488
-0.35621944 0.062262665 0.21792363 0.14862129 -0.32051834 -0.24469277 -0.2015273 0.21364817
-0.22156543 0.06768122 -0.060323764 -0.38303447 -0.25026995 0.2262701 -0.06155046 0.02246268
0.0081939 -0.38248128 0.3630455 0.31108934 -0.16907984 -0.26263934 0.08120089 -0.053542744
-0.052626383 -0.05309499 -0.2982747 -0.14592624 -0.16086607 -0.24505058 0.15695773 0.21658023
0.06451146 0.12363618 0.22358058 0.11591136 -0.2003969 -0.1944528 -0.21253026 -0.2605212
-0.36026382 0.26930216 0.18786216 -0.27112353 0.037904646 0.12310708 -0.1236587 -0.13137701
0.24201949 -0.16395397 -0.11065937 0.23777391 0.08665549 0.25599417 0.23652726 -0.22546117
-0.11973006 0.20434047 0.24099772 0.3521462 0.26358804 -0.093764886 0.015099952 0.04484118
-0.0026378636 -0.27014562 0.27455685 -0.28353968 0.24986826 0.13647664 -0.07893116 -0.35450825
-0.051995914 0.19965431 -0.3280142 -0.29824036 -0.042827204 -0.05886345 -0.3135379 -0.3336231
-0.3632074 0.24251582 -0.002307216 0.2044784 -0.12895226 0.28902468 0.13652825 0.38589603
-0.04189002 -0.37033853 0.04873281 -0.2727578 0.28091055 0.3810117 -0.26411182 -0.17514236
-0.022485314 0.35677052 0.021602754 -0.00050880545 -0.1839862 -0.35961866 -0.111976296 0.120263554
0.19457367 0.32496476 0.042174738 0.37880164 -0.081535056 0.20655265 -0.34663126 -0.30713236
0.22427116 0.09918659 0.11372178 0.22301954 -0.33201027 0.23443568 -0.20068347 -0.057281107
0.06354377 -0.0040855426 0.11624591 0.09929334 -0.14071876 0.08894764 0.037385903 -0.27645048
0.21665356 -0.22594406 -0.34663364 -0.25919107 0.17328528 -0.06344558 -0.10928573 -0.13982828
-0.15722147 -0.19020353 0.070965625 0.33613098 0.18245482 0.01885302 0.27209577 -0.025658386
-0.33990353 -0.10202912 0.17713326 -0.016307225 -0.23773265 -0.04001578 0.18016492 -0.28441304
0.039949283 -0.1317853 0.02413735 -0.32568514 -0.3871521 -0.15795441 -0.35248706 -0.19505951
-0.09261036 -0.3569183 -0.06829043 0.17343274 0.3439036 -0.1614678 -0.09432157 0.31621823
00000000: 847f 48be 6cd1 52be 753d bf3e cc0a 913e
00000010: ffbb 7ebd 6bec 923e 1926 80bd bc34 bc3e
00000020: a4bc a33e 4855 cfbd 1b97 b43e b96c 823e
00000030: 59c1 803e d158 143e 2824 2ebe 7161 02bd
00000040: ddcc 893d e070 fb3b 9f2f 013d b489 183d
00000050: 29e7 0dbe 07c8 8c3e 7d4e 163e 6132 40bb
00000060: d1a6 c13e 123f 253e c9eb a53e 6e66 d63e
00000070: d0d3 5b3e 9e79 9b3e a2f7 98be b56a 9b3e
00000080: c855 64be 25c0 b43e ab30 9bbe da5d 8abe
00000090: 5bd2 16be bcab 4cbd 5190 ae3d eb45 7b3e
000000a0: dffe 683e 77e1 5c3e 1757 a53e b410 c5be
000000b0: b2e5 4bbe 0696 58be 931b ecbd 9c9e c03e
000000c0: 8e5b 803e 9c32 a2be 73e6 98bd abf9 973e
000000d0: 1388 3ebd cb24 b53e 2b51 5bbe a0d1 33bd
000000e0: 8904 a3be d18b 9abe 8ce4 47bc 0317 2cbd
000000f0: 3a28 c2be 819e 103e 35bb 283e a403 9dbe
00000100: 6068 9c3e c544 103e 77c1 b4be 8095 3fbd
00000110: cdd8 afbe 1e99 2f3e f52e acbe a405 803e
00000120: 8146 be3d 8a34 323e ad8a fabc 562e a23d
00000130: 8250 593e 8d0c a23d 7a03 b53e 2520 983d
00000140: 41c7 94be b07f 92be 5489 933e 8627 3cbe
00000150: 527b 4c3c c52f a03e f005 a0bd ef25 c3be
00000160: 6562 b6be 2307 7f3d 5f27 5f3e 2e30 183e
00000170: fb1a a4be be90 7abe 2c5d 4ebe 96c6 5a3e
00000180: 0ce2 62be 749c 8a3d 0d16 77bd 181d c4be
00000190: 6223 80be 59b3 673e 561c 7cbd a703 b83c
000001a0: b53f 063c 96d4 c3be 1ae1 b93e 1a47 9f3e
000001b0: 4423 2dbe aa78 86be a74c a63d a34f 5bbd
000001c0: c38e 57bd 227a 59bd 76b7 98be b06d 15be
000001d0: 13ba 24be 8aee 7abe 87b9 203e 35c7 5d3e
000001e0: 961e 843d f734 fd3d 4ff2 643e ef62 ed3d
000001f0: d834 4dbe a31e 47be 88a1 59be 0963 85be
00000200: 8074 b8be f9e1 893e f05e 403e b4d0 8abe
00000210: e741 1b3d 911f fc3d c640 fdbd b287 06be
00000220: f5d3 773e 8de3 27be 61a1 e2bd 017b 733e
00000230: 6f78 b13d ab11 833e 3434 723e 4bdf 66be
00000240: 0935 f5bd a13e 513e 1bc8 763e 824c b43e
00000250: 03f5 863e ce07 c0bd ca65 773c 63ab 373d
00000260: 02e0 2cbb 8750 8abe b792 8c3e 1d2c 91be
00000270: 77dd 7f3e 88c0 0b3e a9a6 a1bd 1b82 b5be
00000280: abf9 54bd 2e72 4c3e 7af1 a7be f6b2 98be
00000290: 946b 2fbd cd1a 71bd 0a88 a0be a6d0 aabe
000002a0: 52f6 b9be 1156 783e a934 17bb c962 513e
000002b0: 100c 04be 0bfb 933e 10ce 0b3e 2a94 c53e
000002c0: df94 2bbd 039d bdbe 0e9c 473d e9a6 8bbe
000002d0: 82d3 8f3e f713 c33e aa39 87be 8558 33be
000002e0: 1f33 b8bc a0aa b63e 42f8 b03c 5b61 05ba
000002f0: e166 3cbe f01f b8be d453 e5bd bd4c f63d
00000300: 523e 473e c861 a63e 6bbf 2c3d 4af2 c13e
00000310: dafb a6bd 8a82 533e a779 b1be 7440 9dbe
00000320: 57a7 653e 5722 cb3d f7e6 e83d 3c5f 643e
00000330: 40fd a9be e80f 703e f87f 4dbe 989f 6abd
00000340: 3c23 823d 04e0 85bb 5612 ee3d 4f5a cb3d
00000350: 9418 10be 2e2a b63d f621 193d eb8a 8dbe
00000360: 6eda 5d3e e15d 67be f779 b1be b1b4 84be
00000370: b271 313e c2ef 81bd 32d1 dfbd 252f 0fbe
00000380: aafe 20be b7c4 42be 6d56 913d 5c19 ac3e
00000390: 70d5 3a3e a671 9a3c 2350 8b3e 8931 d2bc
000003a0: d607 aebe a5f4 d0bd 6c62 353e bb96 85bc
000003b0: 3070 73be 96e7 23bd 277d 383e 969e 91be
000003c0: dca1 233d baf2 06be b1bb c53c 34c0 a6be
000003d0: cd38 c6be cdbe 21be 2f79 b4be aebd 47be
000003e0: 80aa bdbd ffbd b6be dadb 8bbd 5a98 313e
000003f0: 2214 b03e d157 25be ab2b c1bd 5be7 a13e

feature.0.bias f4 [128]
-0.33167735 -0.034042403 0.32282835 -0.35125887 -0.19629377 0.052821007 0.2753184 0.25500688
0.37142885 -0.13430752 -0.22698155 -0.012789026 0.18333596 0.284602 -0.06020582 -0.12271372
-0.0020520757 -0.11295465 0.20242952 -0.24298221 0.10478276 0.07133033 -0.35807467 0.37818342
0.36936024 -0.21570367 -0.15964977 0.15075015 -0.31484172 -0.26669186 0.11703807 0.22716494
-0.053724542 0.24329242 -0.2670226 -0.18198845 0.011307154 0.101425424 -0.2777549 -0.14300527
0.039513845 0.33149505 -0.03989637 0.0803129 0.009641055 0.22729185 -0.055348583 0.25935987
-0.2502157 -0.20939118 0.3250573 -0.35657626 -0.22018227 0.075786285 0.061061148 -0.25248483
-0.05283476 0.15074445 -0.17158692 -0.3279385 -0.026095413 -0.030929154 0.11618548 0.24162799
-0.026071992 -0.34565413 -0.2307266 0.2821305 0.32591653 0.35792252 0.24837555 -0.33491105
-0.009087122 -0.2811276 0.2675526 0.2262029 0.33490622 -0.35117063 0.30164117 0.18262984
0.24768096 -0.18043856 -0.129557 0.17896235 -0.24370563 -0.30872956 0.14068535 -0.24389334
0.08764659 -0.079373755 -0.32206532 0.36639318 -0.15176047 -0.16356696 0.3760246 0.044836923
0.37660053 -0.17827488 0.34143877 0.23120427 0.036413103 -0.019361965 -0.2324016 0.28553036
0.1918621 -0.300082 0.20211907 -0.026342567 -0.3011424 0.16999838 -0.14118527 0.099056244
-0.01932638 0.10929234 -0.008130739 -0.33329815 0.25300202 0.33625573 -0.25785753 -0.2966652
-0.29565188 -0.35102078 0.27383995 -0.018642562 -0.13818087 0.029975511 0.09124521 -0.13387644
00000000: 9dd1 a9be 0c70 0bbd c249 a53e 34d8 b3be
00000010: 3c01 49be d75a 583d 89f6 8c3e 4390 823e
00000020: ec2b be3e e987 09be da6d 68be 1089 51bc
00000030: 6cbc 3b3e 5ab7 913e 619a 76bd 5551 fbbd
00000040: 1e7c 06bb c454 e7bd af49 4f3e 54d0 78be
00000050: 5898 d63d a315 923d 9055 b7be 42a1 c13e
00000060: c91c bd3e 6ce1 5cbe 3b7b 23be 3f5e 1a3e
00000070: ef32 a1be d68b 88be a8b1 ef3d ed9d 683e
00000080: 440e 5cbd a621 793e 30b7 88be 2e5b 3abe
00000090: a441 393c 22b8 cf3d e435 8ebe f96f 12be
000000a0: 45d9 213d b8b9 a93e 606a 23bd 177b a43d
000000b0: 84f5 1d3c 32bf 683e 32b5 62bd d1ca 843e
000000c0: 461c 80be a46a 56be e96d a63e 2a91 b6be
000000d0: 7677 61be d735 9b3d 411b 7a3d b145 81be
000000e0: 4369 58bd c15c 1a3e 7bb4 2fbe 8ee7 a7be
000000f0: 0cc6 d5bc 235f fdbc a7f2 ed3d 546d 773e
00000100: ee94 d5bc 94f9 b0be 9843 6cbe 6973 903e
00000110: 88de a63e 9f41 b73e 2956 7e3e 7679 abbe
00000120: 27e2 14bc f5ef 8fbe a8fc 883e bca1 673e
00000130: d478 ab3e a3cc b3be b670 9a3e 5103 3b3e
00000140: 14a0 7d3e e3c4 38be 97aa 04be e841 373e
00000150: f88d 79be cd11 9ebe d20f 103e 2dbf 79be
00000160: 0e80 b33d b58e a2bd bfe5 a4be e397 bb3e
00000170: 1967 1bbe 197e 27be 4c86 c03e eca6 373d
00000180: c9d1 c03e b18d 36be 10d1 ae3e d0c0 6c3e
00000190: e825 153d fc9c 9ebc affa 6dbe 0931 923e
000001a0: 8077 443e 59a4 99be 4df8 4e3e 5ecc d7bc
000001b0: 562f 9abe 0e14 2e3e df92 10be 00de ca3d
000001c0: 5b52 9ebc aad4 df3d cb36 05bc 0ea6 aabe
000001d0: 7b89 813e b629 ac3e e705 84be 80e4 97be
000001e0: af5f 97be ffb8 b3be c034 8c3e 49b8 98bc
000001f0: 497f 0dbe 348f f53c c5de ba3d e816 09be

feature.2.weight f4 [128, 128]
0.018634178 0.03560975 0.07502069 -0.0038247344 -0.06506334 -0.019436479 -0.0738971 -0.036720444
0.08520125 -0.070450805 -0.02640108 -0.048006453 -0.08246481 0.016835501 -0.098289125 -0.06655117
-0.0155434 0.02119884 -0.018981433 -0.025713008 0.0009994128 0.0019999295 0.055977434 0.09218253
0.0062693534 0.009137916 -0.03480337 -0.06765716 -0.069007605 -0.07542606 0.056920085 0.081091926
-0.054226633 0.038991794 -0.055954598 -0.08983865 0.05130744 0.03217249 -0.104794644 -0.013164902
0.046647154 0.075314045 0.09037624 0.058287576 0.10511309 0.04286072 0.021030808 -0.013035869
-0.11535433 0.012597963 0.07361624 0.0065934723 -0.11501439 -0.04507999 -0.09576735 -0.03017676
-0.07454293 0.06005346 0.014631406 -0.04606835 0.048524648 0.012502739 -0.0838059 -0.007915497
0.016785154 0.016885398 0.014002202 -0.037900783 0.004354521 0.025535895 0.064116895 0.020358872
0.01832772 0.07890495 -0.0639958 -0.002025833 0.047350083 0.06019734 0.0030401913 0.06527495
-0.0019017515 0.0061805537 -0.03219865 0.05507518 -0.053380333 -0.060060944 0.08010397 0.0055457754
-0.04403635 -0.0038013333 -0.036703173 0.06755336 0.008048025 -0.024185803 0.015025664 0.08399537
0.024838673 -0.04738728 0.0395594 -0.012178061 -0.08977213 0.026412759 -0.0054351245 -0.017646821
-0.040760215 0.00080236996 0.053489055 0.05802793 0.006761147 0.060159985 1.4633473e-05 0.06851956
-0.07620978 -0.05881022 -0.026117923 -0.116750166 0.09256112 0.023326464 0.06436262 -0.019199682
-0.032050364 -0.08593897 -0.0012305676 0.0036499924 -0.02070026 6.8443887e-06 -0.074248135 -0.006726901
-0.097455345 0.0020950097 -0.04921879 0.032359637 -0.06690411 -0.0041464996 0.021512717 0.049548883
0.060267363 0.025245793 -0.049272563 -0.09743858 0.06853435 -0.00020386941 0.046789397 -0.09397638
0.029354604 0.045301434 -0.018989826 -0.061365765 -0.059073914 -0.07973322 -0.016109798 0.043426692
-0.035211205 -0.01169541 -0.089851536 -0.061704047 -0.09070137 -0.030316519 0.03502869 -0.022799337
-0.10766267 0.014869753 0.01768025 -0.0021186108 0.06430157 0.054339197 -0.037578393 -0.007129211
0.03798986 0.008655814 0.067076325 -0.072937354 0.015923355 -0.08093845 0.05808881 0.04831856
-0.07084697 -0.057296827 0.019811392 -0.007975947 -0.01514129 -0.07090002 0.04605321 0.04802104
-0.07783567 -0.049787384 -0.044908278 0.030901015 -0.07340419 0.059310127 -0.05139094 0.018925859
0.032382596 0.05158841 -0.043492373 -0.06272005 0.073361546 0.05527657 0.03270079 0.015286573
-0.014548396 0.09246281 -0.011767832 -0.085296795 0.036135342 -0.019719109 0.06913611 -0.015824996
-0.0009435229 -0.093307555 0.03588901 -0.08300642 -0.06069783 -0.06908172 0.0277571 -0.011830072
-0.08694635 -0.10015193 0.02012223 0.034552004 -0.0572213 0.012269173 0.010170769 -0.046865925
0.11966308 -0.011651997 0.05352726 -0.058385488 -0.09029014 -0.010851156 -0.07930975 0.064074926
0.052932307 0.052512202 -0.045099434 0.059453797 0.039007407 -0.072979376 0.06734305 0.011694832
0.0012950221 -0.007496547 -0.081226915 0.03572028 -0.0342385 0.029701456 0.057481688 0.057010863
-0.020803703 -0.1124801 -0.075409174 -0.05852513 -0.007030634 -0.07076351 -0.07257803 -0.08980035
00000000: b4a6 983c 87db 113d 73a4 993d 65a8 7abb
00000010: ee3f 85bd 4039 9fbc 5d57 97bd 2d68 16bd
00000020: fe7d ae3d 8348 90bd 1447 d8bc 6aa2 44bd
00000030: 4fe3 a8bd 9bea 893c cf4b c9bd fb4b 88bd
00000040: bfa9 7ebc 31a9 ad3c f37e 9bbc 16a4 d2bc
00000050: bbfe 823a 4011 033b 9848 653d 32ca bc3d
00000060: 266f cd3b 33b7 153c fa8d 0ebd d68f 8abd
00000070: dc53 8dbd fa78 9abd 0925 693d 8613 a63d
00000080: bf1c 5ebd dcb5 1f3d a630 65bd 53fd b7bd
00000090: c027 523d 4dc7 033d 939e d6bd 9ab1 57bc
000000a0: 1611 3f3d 403e 9a3d 2e17 b93d f4be 6e3d
000000b0: 8845 d73d b98e 2f3d cd48 ac3c 6694 55bc
000000c0: e43e ecbd b067 4e3c 1cc4 963d 0e0e d83b
000000d0: aa8c ebbd cca5 38bd ac21 c4bd 4135 f7bc
000000e0: f7a9 98bd 9efa 753d 91b8 6f3c 2bb2 3cbd
000000f0: c8c1 463d 4ad8 4c3c 6da2 abbd 00b0 01bc
00000100: 0581 893c 3f53 8a3c 7e69 653c da3d 1bbd
00000110: 5fb0 8e3b a730 d13c b84f 833d a6c7 a63c
00000120: 0424 963c eb98 a13d 3b10 83bd d6c3 04bb
00000130: 29f2 413d 7c91 763d f23d 473b dfae 853d
00000140: 3144 f9ba 3e86 ca3b bbe2 03bd 8396 613d
00000150: 56a5 5abd 7702 76bd 8d0d a43d 56b9 b53b
00000160: 765f 34bd ca1f 79bb 1156 16bd 6a59 8a3d
00000170: dddb 033c 4e21 c6bc 342e 763c c405 ac3d
00000180: 797a cb3c 2a19 42bd 0a09 223d 7d86 47bc
00000190: 73da b7bd 925f d83c 2119 b2bb 1190 90bc
000001a0: 2ff4 26bd 2356 523a 5717 5b3d b2ae 6d3d
000001b0: 9d8c dd3b 516a 763d 4a82 7537 fc53 8c3d
000001c0: e013 9cbd fce2 70bd 41f5 d5bc b61a efbd
000001d0: af90 bd3d 2417 bf3c 8dd0 833d a748 9dbc
000001e0: 3e47 03bd c500 b0bd ff4a a1ba b634 6f3b
000001f0: 9793 a9bc daa8 e536 680f 98bd 566d dcbb
00000200: ab96 c7bd 6e4c 093b a499 49bd 8a8b 043d
00000210: 0605 89bd 5cdf 87bb 703b b03c c5f3 4a3d
00000220: e9da 763d 44d0 ce3c 07d2 49bd e18d c7bd
00000230: bd5b 8c3d c7c5 55b9 3da6 3f3d b076 c0bd
00000240: 1179 f03c ff8d 393d 8d90 9bbc ab5a 7bbd
00000250: 7df7 71bd 2c4b a3bd b2f8 83bc 30e0 313d
00000260: a039 10bd 1b9e 3fbc 1504 b8bd 62bd 7cbd
00000270: a4c1 b9bd 595a f8bc 3e7a 0f3d adc5 babc
00000280: 3f7e dcbd 44a0 733c 2cd6 903c 64d8 0abb
00000290: 8bb0 833d c792 5e3d cdeb 19bd 289c e9bb
000002a0: 419b 1b3d 1ed1 0d3c 505f 893d 2e60 95bd
000002b0: b271 823c 0fc3 a5bd 88ee 6d3d afe9 453d
000002c0: 3718 91bd 14b0 6abd 804b a23c 8cad 02bc
000002d0: 2c13 78bc 0834 91bd 4aa2 3c3d b6b1 443d
000002e0: 4f68 9fbd dbed 4bbd bef1 37bd 2024 fd3c
000002f0: f054 96bd 2def 723d 4e7f 52bd 670a 9b3c
00000300: 9da3 043d 5e4e 533d 0f25 32bd 5f73 80bd
00000310: 943e 963d af69 623d 43f1 053d 8974 7a3c
00000320: 655c 6ebc 245d bd3d ddcd 40bc 16b0 aebd
00000330: a702 143d f889 a1bc 3c97 8d3d 6ca3 81bc
00000340: c056 77ba 0818 bfbd 5b00 133d 45ff a9bd
00000350: 4a9e 78bd b87a 8dbd dc62 e33c ebd2 41bc
00000360: ee10 b2bd 741c cdbd 60d7 a43c 6786 0d3d
00000370: e260 6abd a404 493c 4ca3 263c 7cf6 3fbd
00000380: eb11 f53d 05e8 3ebc 663f 5b3d 9f25 6fbd
00000390: 09ea b8bd 0cc9 31bc 266d a2bd b739 833d
000003a0: 8ccf 583d 0917 573d 2fba 38bd d385 733d
000003b0: 3bc6 1f3d 3676 95bd 27eb 893d ae9b 3f3c
000003c0: bbbd a93a 98a5 f5bb 4c5a a6bd 6e4f 123d
000003d0: ab3d 0cbd 7850 f33c eb71 6b3d 3984 693d
000003e0: 876c aabc f75b e6bd 2070 9abd 0cb8 6fbd
000003f0: 3c61 e6bb 76ec 90bd caa3 94bd 3fe9 b7bd

feature.2.bias f4 [128]
0.072770506 0.11027717 0.07181151 -0.08943667 -0.042528637 -0.07714868 -0.0039835926 0.014303861
-0.029836243 0.072349794 -0.011921278 -0.066275306 0.09094355 -0.05155973 -0.08420272 0.010007437
-0.0721526 -0.06138672 0.015952438 0.044063926 -0.078281 -0.03915728 0.07093841 0.028100643
-0.04617185 -0.01599496 0.09098508 0.040683184 -0.024267966 -0.035292108 0.077413544 0.003451704
0.11565331 0.055057097 -0.011331608 0.068656966 -0.06762543 -0.0043251277 0.107414104 0.06168708
-0.02475414 -0.03177299 0.005288789 -0.02619034 -0.059644982 -0.086867385 0.08113858 0.0068743136
-0.021369375 0.012114668 -0.009594376 -0.02139494 -0.022341644 0.033184133 -0.09214943 0.014664658
-0.042139795 0.020437358 0.0012549413 0.041933693 0.08378966 0.072535634 -0.023541512 -0.0075853826
0.060828246 0.07112162 -0.06051064 -0.004555859 -0.004499089 -0.006006596 0.08124376 0.11208918
-0.060066592 0.012204452 -0.07305899 0.0011533112 -0.012283091 0.055528384 -0.061597586 -0.078840666
-0.0018425199 -0.0031475576 0.04353207 0.054851264 -0.034662347 -0.0048653125 0.039356448 0.06279713
-0.010350297 -0.019746624 0.047320228 -0.04283945 0.016070817 0.050462283 -0.031106863 0.044571742
-0.017823322 -0.02706682 -0.06474939 0.034906432 0.03435408 -0.007276205 0.06003999 0.09427802
0.07538505 -0.024168788 -0.07788081 0.02460101 0.040005993 0.08305847 -0.087095365 -0.09276247
-0.039312184 0.06691294 -0.0343742 0.055924527 -0.06880786 0.0036540264 -0.07867196 -0.031188052
-0.0634426 -0.06511102 0.04495842 0.095089525 0.038984437 0.038023017 0.032101773 0.067363754
00000000: b408 953d ffd8 e13d ea11 933d 932a b7bd
00000010: 8232 2ebd 2100 9ebd cc88 82bb be5a 6a3c
00000020: 236b f4bc 212c 943d 7751 43bc 59bb 87bd
00000030: 9d40 ba3d 4c30 53bd 7a72 acbd 3cf6 233c
00000040: bec4 93bd a470 7bbd b0ae 823c 607c 343d
00000050: ca51 a0bd 6263 20bd 2848 913d 5233 e63c
00000060: b21e 3dbd dd07 83bc 6356 ba3d 69a3 263d
00000070: 9dcd c6bc 758e 10bd fe8a 9e3d fc35 623b
00000080: a5db ec3d 8d83 613d 35a8 39bc 069c 8c3d
00000090: 347f 8abd cdb9 8dbb edfb db3d 97ab 7c3d
000000a0: 32c9 cabc 6524 02bd 944d ad3b 208d d6bc
000000b0: 4c4e 74bd 87e7 b1bd fc2b a63d ec41 e13b
000000c0: d40e afbc 9a7c 463c bb31 1dbc 7144 afbc
000000d0: d305 b7bc 16ec 073d d7b8 bcbd 0944 703c
000000e0: c79a 2cbd 3f6c a73c d87c a43a aac2 2b3d
000000f0: ea99 ab3d 908d 943d 21da c0bc cd8e f8bb
00000100: 0a27 793d 36a8 913d 01da 77bd 5149 95bb
00000110: 186d 93bb fbd2 c4bb 2163 a63d 038f e53d
00000120: 6308 76bd 2ff5 473c f49f 95bd b42a 973a
00000130: 053f 49bc bb71 633d c04d 7cbd 3777 a1bd
00000140: b580 f1ba 4147 4ebb af4e 323d b8ab 603d
00000150: 1bfa 0dbd 336d 9fbb 3a34 213d c89b 803d
00000160: 4b94 29bc acc3 a1bc dbd2 413d 6b78 2fbd
00000170: f2a6 833c 8ab1 4e3d d2d3 febc dc90 363d
00000180: 3702 92bc 3cbb ddbc 549b 84bd 0cfa 0e3d
00000190: ddb6 0c3d 3b6d eebb 7eec 753d d614 c13d
000001a0: 7a63 9a3d 9ffd c5bc f97f 9fbd 0f88 c93c
000001b0: 53dd 233d 8f1a aa3d 0e5f b2bd 40fa bdbd
000001c0: d005 21bd a709 893d f6cb 0cbd 1e11 653d
000001d0: 23eb 8cbd 6478 6f3b c41e a1bd 167e ffbc
000001e0: 32ee 81bd ed58 85bd 5226 383d 4cbe c23d
000001f0: 25ae 1f3d 06be 1b3d 267d 033d 02f6 893d

feature.4.weight f4 [128, 128]
0.020370567 0.1044145 -0.03368671 -0.040251832 0.034641 -0.05218717 -0.027877256 0.05827737
0.0074715805 0.049390428 -0.05479716 0.07738495 0.05990488 0.029072873 -0.08225985 -0.009799389
0.09006693 -0.008762372 0.06801238 0.038995765 0.0133920405 -0.031890057 0.09963008 -0.05846817
-0.05325093 0.08297107 -0.037033413 -0.084953345 0.006650667 0.051909626 -0.06111861 0.09331163
-0.048134282 0.06366206 0.06903685 0.03468609 -0.047169305 -0.024428746 -0.012270569 -0.046190806
-0.016149309 0.066490754 -0.004745305 0.012290528 0.08843189 0.028386295 0.047626145 0.067204796
-0.08225805 0.07213683 0.044196215 -0.053473976 0.065675 -0.033761285 0.010751782 0.059876118
0.009562365 -0.05827681 0.002377581 0.08347781 0.019543463 -0.01893756 -0.06063022 0.014854416
0.07435069 -0.040198512 0.016138913 0.038920745 0.051001016 -0.02924434 0.009655655 0.00036726604
0.01707016 0.046281844 -0.0409879 -0.04384636 -0.07925719 -0.08659264 -0.048337694 -0.09272291
-0.09150274 -0.057445016 -0.0865314 0.067763284 0.07204966 0.10566318 0.027294716 -0.010048722
0.037785567 0.03622034 0.092914514 0.007240479 0.06890006 0.029253991 -0.01217967 -0.018914877
0.11298782 0.022875044 -0.044806704 0.0044275285 -0.046691004 0.05717046 0.023791969 0.109033726
0.08746727 0.022127079 0.020700408 -0.054244276 -0.03077944 0.024445884 -0.035582703 -0.026773496
-0.0706404 0.045417182 -0.032389432 -0.005610283 0.010556996 0.018924799 0.016523084 0.056465857
-0.08098226 0.041782796 0.09074922 -0.046582036 0.014194993 -0.007342452 0.022268066 -0.032576773
-0.053702846 -0.05228159 -0.03287937 -0.020924168 -0.08023362 -0.012131521 0.08775419 -0.041964132
0.09403704 -0.041465584 0.10927745 -0.079014294 0.025865696 0.06936012 0.057248637 -0.10235413
-0.024135021 0.059529476 0.016991863 0.093612105 0.09121878 -0.044327814 0.06728868 0.070314184
-0.08196567 0.035234608 0.058951724 0.041143004 0.010037904 -0.011066962 0.0058016544 -0.01897014
0.045373164 -0.01532656 0.03954003 0.078400664 0.0057208776 -0.01866221 0.021192769 0.085248284
0.0018806759 0.08045516 0.0419043 -0.022191633 -0.03565507 0.06210936 -0.009161122 -0.0028637145
-0.055370715 0.039190847 0.019861137 0.07264922 -0.013741599 -0.0031147394 -0.04857748 0.05452058
0.055327564 0.10535931 -0.0554556 0.018932799 0.027640957 0.017936122 0.09076817 0.053387564
0.06832625 -0.025362268 -0.08786605 0.015937822 0.009748062 -0.060123295 -0.008079386 -0.08865315
0.038781106 0.026526868 0.05357403 -0.09877933 0.049097955 -0.04953157 0.07599146 -0.055814195
-0.050109997 -0.042638328 -0.008618198 -0.00030686066 -0.06374074 -0.06333271 -0.043836586 -0.03179708
0.0056683193 0.04184663 -0.061229825 0.035246503 -0.05163094 -0.0032551016 0.07705046 0.078318685
-0.0006872562 -0.029052591 0.088903315 0.041184127 0.09380863 -0.10443502 0.03939555 -0.05736936
-0.046170976 0.06332911 0.095673434 -0.07647485 0.07742778 0.062335126 -0.009519296 -0.07168024
0.061178543 -0.008745788 -0.07578568 0.07245886 -0.028726641 -0.033859972 0.06246513 -0.010336185
0.094444044 0.03624432 0.08484768 0.017196048 0.017202757 -0.038211036 0.04315272 0.03504922
00000000: 2de0 a63c 45d7 d53d 13fb 09bd 1bdf 24bd
00000010: b9e3 0d3d 37c2 55bd d85e e4bc 40b4 6e3d
00000020: 29d4 f43b 9e4d 4a3d fd72 60bd 007c 9e3d
00000030: d25e 753d 3c2a ee3c da77 a8bd 9e8d 20bc
00000040: 0375 b83d 0d90 0fbc 134a 8b3d 06ba 1f3d
00000050: 4a6a 5b3c 269f 02bd db0a cc3d 527c 6fbd
00000060: a61d 5abd bdec a93d 59b0 17bd 05fc adbd
00000070: d7ed d93b 309f 543d 8257 7abd 2b1a bf3d
00000080: 7428 45bd 4161 823d 3163 8d3d 0013 0e3d
00000090: 9a34 41bd cb1e c8bc 7f0a 49bc 9232 3dbd
000000a0: 8e4b 84bc 4e2c 883d 817e 9bbb 365e 493c
000000b0: c71b b53d 608a e83c a213 433d aba2 893d
000000c0: e976 a8bd 79bc 933d 1707 353d 8707 5bbd
000000d0: 9d80 863d 4649 0abd 3e28 303c a940 753d
000000e0: 77ab 1c3c aab3 6ebd 31d1 1b3b 6af6 aa3d
000000f0: 9d19 a03c f122 9bbc 6557 78bd f05f 733c
00000100: 2d45 983d 32a7 24bd c135 843c 5c6b 1f3d
00000110: 71e6 503d d391 efbc c132 1e3c 9d8d c039
00000120: b8d6 8b3c 0892 3d3d eee2 27bd 3e98 33bd
00000130: 9851 a2bd 7b57 b1bd bffd 45bd 82e5 bdbd
00000140: ca65 bbbd 774b 6bbd 6037 b1bd 7ac7 8a3d
00000150: c68e 933d f065 d83d 2b99 df3c 65a3 24bc
00000160: 0ac5 1a3d c75b 143d f749 be3d 8a41 ed3b
00000170: 7a1b 8d3d 11a6 ef3c 3d8d 47bc 5ff3 9abc
00000180: 2866 e73d 7264 bb3c 3c87 37bd cd14 913b
00000190: 113f 3fbd 922b 6a3d 60e7 c23c 134d df3d
000001a0: 0a22 b33d d943 b53c e793 a93c 3f2f 5ebd
000001b0: 2a25 fcbc bc42 c83c 2bbf 11bd 1754 dbbc
000001c0: eaab 90bd 5e07 3a3d c8aa 04bd 77d6 b7bb
000001d0: 40f7 2c3c 2e08 9b3c 6b5b 873c be48 673d
000001e0: 07da a5bd 7024 2b3d bada b93d cecc 3ebd
000001f0: 1e92 683c f498 f0bb 856b b63c 396f 05bd
00000200: 84f7 5bbd 3825 56bd 85ac 06bd 2969 abbc
00000210: 8651 a4bd 49c3 46bc 78b8 b33d 95e2 2bbd
00000220: 7e96 c03d d1d7 29bd dbcc df3d 3fd2 a1bd
00000230: 4ce4 d33c ae0c 8e3d 8c7d 6a3d 0b9f d1bd
00000240: cfb6 c5bc 2ed5 733d 8532 8b3c b4b7 bf3d
00000250: e9d0 ba3d 1591 35bd a6ce 893d e200 903d
00000260: 9edd a7bd 2a52 103d 5d77 713d 9185 283d
00000270: 0576 243c 3452 35bc ce1b be3b 4467 9bbc
00000280: 36d9 393d 401c 7bbc baf4 213d 8790 a03d
00000290: 3376 bb3b 7ee1 98bc 759c ad3c a796 ae3d
000002a0: 0381 f63a adc5 a43d d8a3 2b3d 3acb b5bc
000002b0: 0d0b 12bd 6266 7e3d 8818 16bc 28ad 3bbb
000002c0: 67cc 62bd 9586 203d d3b3 a23c 1dc9 943d
000002d0: 7224 61bc a820 4cbb 2ef9 46bd f950 5f3d
000002e0: 289f 623d 9fc6 d73d 6925 63bd f518 9b3c
000002f0: 4a6f e23c c6ee 923c aae4 b93d ebac 5a3d
00000300: a2ee 8b3d 88c4 cfbc 1ef3 b3bd 0990 823c
00000310: 56b6 1f3c d843 76bd 675f 04bc c88f b5bd
00000320: f0d8 1e3d e04e d93c 7170 5b3d d14c cabd
00000330: f01a 493d 9ee1 4abd 69a1 9b3d 6d9d 64bd
00000340: 2440 4dbd 87a5 2ebd 5833 0dbc 24e2 a0b9
00000350: 818a 82bd 94b4 81bd fe8d 33bd a83d 02bd
00000360: 4fbd b93b 5f67 2b3d 20cc 7abd a35e 103d
00000370: f77a 53bd 8b53 55bb a2cc 9d3d 8c65 a03d
00000380: fc28 34ba b3ff edbc f112 b63d b0b0 283d
00000390: bd1e c03d 07e2 d5bd 3a5d 213d 22fc 6abd
000003a0: c71d 3dbd b1b2 813d 6ff0 c33d d99e 9cbd
000003b0: 7592 9e3d 1e53 7f3d d2f6 1bbc 17cd 92bd
000003c0: 5a96 7a3d 7e4a 0fbc 8635 9bbd 5065 943d
000003d0: 2254 ebbc c1b0 0abd 70db 7f3d 1a59 29bc
000003e0: e16b c13d ed74 143d 9fc4 ad3d bade 8c3c
000003f0: ccec 8c3c 2d83 1cbd e8c0 303d c58f 0f3d

feature.4.bias f4 [128]
0.009981652 0.07358884 -0.06269922 -0.09214962 0.089200065 -0.056152612 -0.026868276 0.0087559605
0.08185917 0.008259649 -0.03889111 0.009364181 0.017601172 -0.044317406 0.036808282 0.10143071
-0.06154408 0.0639615 0.01925661 0.111063704 -0.039522637 -0.053336497 -0.0028028486 0.06975931
-0.031598855 0.10538315 0.03051268 -0.08490257 -0.006498323 -0.0830418 -0.009607506 -0.07406983
0.04972938 0.017775832 0.06260545 0.010001756 0.027642174 0.07439792 -0.059323624 0.015469485
-0.06539192 0.08995548 -0.076500736 -0.07101033 0.006972372 -0.08740441 0.036184616 -0.07760264
-0.07126131 0.07594041 -0.06516103 0.099512115 0.050303448 0.0698653 0.015323428 -0.023572478
-0.037523404 0.030901348 0.0682668 0.012856029 -0.006034341 0.07254014 0.027440563 -0.0740161
-0.055062007 0.047834486 0.084137425 0.015598942 -0.04156559 0.08377006 -0.056013446 0.08818601
0.0455771 0.02188132 -0.006031959 -0.040911395 -0.0076534557 0.07090127 -0.009512119 0.03706883
0.10344672 -0.045999624 0.020658456 0.040117376 0.0059157168 0.05966102 0.11063572 -0.024310222
0.0154818 0.07234697 0.045344576 0.030307 -0.054511435 0.031828143 -0.059420057 0.088362806
0.06366657 0.015124775 -0.019461429 0.06953695 -0.06907876 0.07851931 0.027749227 0.09153704
0.0025981115 0.05322098 4.6682027e-05 0.01948944 -0.09089463 -0.07089712 0.11831358 -0.07577264
0.073302805 0.061988913 0.023815082 -0.010390764 -0.047639225 0.05295599 -0.010740528 -0.0046111504
0.042294092 -0.0509532 0.0061242376 0.07714814 0.02165824 0.0329198 0.047172174 0.010528956
00000000: 158a 233c bfb5 963d 7368 80bd f1b8 bcbd
00000010: 86ae b63d 4800 66bd dc1a dcbc 2975 0f3c
00000020: c8a5 a73d 7b53 073c 494c 1fbd 396c 193c
00000030: 5530 903c 2b86 35bd 48c4 163d e7ba cf3d
00000040: a515 7cbd 3ffe 823d 0ac0 9d3c 5e75 e33d
00000050: 7de2 21bd 5f77 5abd ffaf 37bb f8dd 8e3d
00000060: cd6d 01bd 1fd3 d73d baf5 f93c 66e1 adbd
00000070: e2ef d4bb d211 aabd cd68 1dbc ecb1 97bd
00000080: 09b1 4b3d 9f9e 913c 4937 803d 68de 233c
00000090: d771 e23c f05d 983d 54fd 72bd b973 7d3c
000000a0: 33ec 85bd 943a b83d 6bac 9cbd dd6d 91bd
000000b0: 7f78 e43b 1501 b3bd 5236 143d 22ee 9ebd
000000c0: 73f1 91bd a586 9b3d 2573 85bd 02cd cb3d
000000d0: fd0a 4e3d 8a15 8f3d 1e0f 7b3c 121b c1bc
000000e0: 24b2 19bd d324 fd3c 77cf 8b3d 18a2 523c
000000f0: b9bb c5bb ed8f 943d 08cb e03c c195 97bd
00000100: b388 61bd 18ee 433d 3e50 ac3d b492 7f3c
00000110: ae40 2abd a38f ab3d 5b6e 65bd de9a b43d
00000120: 0eaf 3a3d 7440 b33c bda7 c5bb b592 27bd
00000130: d7c9 fabb af34 913d b8d8 1bbc 7cd5 173d
00000140: e0db d33d 1a6a 3cbd ec3b a93c 1e52 243d
00000150: a1d8 c13b 1d5f 743d fb94 e23d 3b26 c7bc
00000160: 60a7 7d3c a62a 943d 3cbb 393d 6346 f83c
00000170: 6247 5fbd 3a5e 023d 7262 73bd 8ff7 b43d
00000180: 9e63 823d e7cd 773c 936d 9fbc 6369 8e3d
00000190: 2a79 8dbd bbce a03d 5952 e33c c677 bb3d
000001a0: 1445 2a3b 3efe 593d 72cc 4338 51a8 9f3c
000001b0: f726 babd 8232 91bd 644e f23d b02e 9bbd
000001c0: c81f 963d 16e8 7d3d d917 c33c 063e 2abc
000001d0: 5921 43bd 61e8 583d 0af9 2fbc 2219 97bb
000001e0: 923c 2d3d 4db4 50bd d4ad c83b d8ff 9d3d
000001f0: 9f6c b13c ead6 063d 9c37 413d a481 2c3c

actor_mean.0.weight f4 [128, 128]
0.029374631 -0.0033417577 0.07337875 0.029649729 -0.05961942 -0.041716084 -0.02739027 0.005657264
-0.006741262 -0.04654099 -0.05355276 0.07079899 0.09316143 -0.075550035 0.01627351 -0.024362693
0.07478933 -0.0430264 -0.015912846 -0.050917447 0.032766245 0.09300037 0.058059074 0.00983579
-0.013473034 0.07290051 0.06084765 0.04724472 -0.07217628 -0.05672877 -0.07234037 -0.07079411
-0.048521414 -0.07743016 0.06605984 0.06203299 -0.062637575 0.05064525 -0.0019809122 -0.054525096
0.06333186 0.067402 0.008364891 0.029227812 -0.03613091 0.028553545 0.008800878 0.049230658
-0.02278291 0.036777873 -0.04662498 0.08653371 -0.013178807 0.025747724 -0.02074327 -0.059397437
0.0042464472 0.033290967 0.076834634 -0.0133582195 -0.08823798 -0.045141857 0.060044102 -0.046855196
-0.024984777 -0.06735322 -0.07738896 -0.021185001 -0.07312979 0.05882338 0.036055133 -0.016097644
-0.07982512 -0.047665957 0.07711674 0.090003796 0.043519795 -0.03736334 0.0117793055 0.026638422
0.0137392 -0.0053687724 0.039921157 -0.0006408967 0.09938269 -0.012771573 -0.04742297 0.053387236
0.021111932 0.037833277 -0.014413896 0.012347892 0.048113998 0.059811562 -0.008238968 -0.03900981
-0.056505293 -0.027493332 0.043190077 -0.063856006 -0.057685696 -0.04346443 0.074187264 0.06820151
0.0063618044 0.028264146 0.08760995 0.051379077 0.057385594 0.07881718 -0.055205014 0.054783672
-0.011779281 -0.038803946 -0.023967184 0.041240767 0.005953348 -0.008716567 0.007066878 0.026303554
-0.033354647 0.098643795 0.040725455 0.016933683 -0.10614449 0.0022485866 0.036782645 -0.018674033
0.06750237 0.034457978 -0.0006002238 -0.011023466 -0.001974643 -0.009877618 -0.027014783 -0.07704036
-0.040312793 0.06514368 0.0023392756 -0.067362584 0.037474267 0.006313406 -0.08767191 -0.06918366
0.08174774 -0.051086713 0.022123553 0.032224476 -0.07244174 -0.02126614 -0.017825926 -0.012075276
0.024348486 -0.04414884 -0.026392262 0.07513488 0.05251877 -0.0212485 -0.023571566 0.07598465
0.091983505 0.030657245 -0.02943469 0.07508408 0.037874628 0.03053643 -0.05284759 -0.08479355
0.06649053 -0.01843752 -0.027973438 -0.08771478 0.048091237 -0.020904949 0.0016659286 0.014385931
-0.06556399 -0.030096931 -0.07017389 0.0421589 -0.051437233 0.0288 -0.036746047 -0.03591002
-0.010482276 0.042638116 0.0465237 0.0018369758 0.05252785 -0.012682047 0.06748118 -0.066160925
-0.03146732 -0.081457995 0.058231793 -0.025843915 -0.017331932 -0.06829417 0.048675656 -0.0069389767
-0.09709344 0.0096688215 0.019360023 0.00054156163 0.052346814 -0.057196252 0.030703947 0.08972508
0.037859198 -0.0032916276 -0.037856635 -0.048765764 0.079257935 -0.08202319 -0.0327726 0.030588444
0.061243292 0.021783862 0.017848756 -0.019520823 -0.03869168 0.03695737 0.04982609 0.06616439
-0.092240795 -0.08523671 0.035800505 -0.0045431764 0.055083435 -0.046673756 -0.058258783 0.04425608
0.048070364 -0.100901626 0.045018326 0.031524774 0.05976849 0.040831417 0.06007719 -0.020204231
0.03772163 -0.027033238 0.029382786 0.044751 0.019589676 0.055192 -0.03700304 0.05412276
0.0375035 -0.04331821 0.067194976 -0.062166817 -0.07973322 -0.026368974 0.058365785 0.03662973
00000000: 11a3 f03c 6401 5bbb 9947 963d fde3 f23c
00000010: 7e33 74bd 7cde 2abd 8f61 e0bc 9260 b93b
00000020: cee5 dcbb c4a1 3ebd 245a 5bbd 10ff 903d
00000030: 6bcb be3d fab9 9abd 0650 853c 4594 c7bc
00000040: 262b 993d 733c 30bd a85b 82bc d08e 50bd
00000050: e635 063d fa76 be3d 5acf 6d3d 4b26 213c
00000060: 00be 5cbc dd4c 953d 633b 793d ae83 413d
00000070: 28d1 93bd 6d5c 68bd 3027 94bd 81fc 90bd
00000080: 64be 46bd b493 9ebd 624a 873d 4e16 7e3d
00000090: 2148 80bd 6571 4f3d 31d2 01bb b555 5fbd
000000a0: 22b4 813d 0f0a 8a3d e50c 093c 2a6f ef3c
000000b0: 01fe 13bd 20e9 e93c 8f31 103c 16a6 493d
000000c0: 3aa3 babc 65a4 163d d6f9 3ebd 9638 b13d
000000d0: eceb 57bc e4ec d23c caed a9bc ba4a 73bd
000000e0: c825 8b3b 1c5c 083d 7a5b 9d3d 6fdc 5abc
000000f0: 1db6 b4bd abe6 38bd cef0 753d 3ceb 3fbd
00000100: e0ac ccbc 7cf0 89bd 1a7e 9ebd 2b8c adbc
00000110: 12c5 95bd c9f0 703d 8cae 133d 35df 83bc
00000120: 5a7b a3bd 613d 43bd 62ef 9d3d e953 b83d
00000130: d041 323d 4d0a 19bd fdfd 403c d238 da3c
00000140: 621a 613c 87ec afbb 5e84 233d d901 28ba
00000150: 2789 cb3d dc3f 51bc 973e 42bd 93ac 5a3d
00000160: eef2 ac3c 11f7 1a3d 4328 6cbc d04e 4a3c
00000170: 2f13 453d f8fc 743d bdfc 06bc c0c8 1fbd
00000180: 1872 67bd b239 e1bc 14e8 303d f0c6 82bd
00000190: d647 6cbd c207 32bd 7eef 973d 3cad 8b3d
000001a0: af76 d03b 368a e73c d86c b33d de72 523d
000001b0: 280d 6b3d e76a a13d a71e 62bd d864 603d
000001c0: e3fd 40bc e3f0 1ebd d456 c4bc 14ec 283d
000001d0: 4d14 c33b efcf 0ebc 4591 e73b 8d7a d73c
000001e0: e29e 08bd c205 ca3d bccf 263d 82b8 8a3c
000001f0: 4862 d9bd 065d 133b 66a9 163d 49fa 98bc
00000200: af3e 8a3d cf23 0d3d 5658 1dba c49b 34bc
00000210: 0369 01bb bcd5 21bc 1b4e ddbc 56c7 9dbd
00000220: 071f 25bd 0d6a 853d 884e 193b 65f5 89bd
00000230: 9e7e 193d b0e0 ce3b 558d b3bd 2ab0 8dbd
00000240: 5c6b a73d 4d40 51bd 743c b53c d0fd 033d
00000250: 565c 94bd 5436 aebc ad07 92bc 61d7 45bc
00000260: 7a76 c73c 6ad5 34bd 9634 d8bc 51e0 993d
00000270: ec1d 573d 5611 aebc 2819 c1bc d79d 9b3d
00000280: d961 bc3d e724 fb3c 0521 f1bc afc5 993d
00000290: 6d22 1b3d 8927 fa3c b776 58bd 3ea8 adbd
000002a0: 302c 883d 480a 97bc 8d28 e5bc cea3 b3bd
000002b0: 51fb 443d db40 abbc 4a5b da3a f8b2 6b3c
000002c0: 6a46 86bd d78d f6bc 54b7 8fbd d0ae 2c3d
000002d0: d9af 52bd faed eb3c 0683 16bd 6316 13bd
000002e0: dabd 2bbc 4ea5 2e3d a38f 3e3d aec6 f03a
000002f0: 7127 573d 5cc8 4fbc 9333 8a3d 617f 87bd
00000300: e0e3 00bd 73d3 a6bd 7684 6e3d 9eb6 d3bc
00000310: b2fb 8dbc d0dd 8bbd 2060 473d 5b60 e3bb
00000320: edd8 c6bd fa69 1e3c e998 9e3c 96f7 0d3a
00000330: 9d69 563d 9e46 6abd d886 fb3c c8c1 b73d
00000340: 3f12 1b3d 59b8 57bb 8f0f 1bbd 9cbe 47bd
00000350: fc51 a23d c6fb a7bd 903c 06bd 9e94 fa3c
00000360: 3fda 7a3d 1274 b23c 8e37 923c 22ea 9fbc
00000370: 2b7b 1ebd 9c60 173d 7116 4c3d 3281 873d
00000380: bee8 bcbd 9690 aebd 8da3 123d edde 94bb
00000390: 2b9f 613d fb2c 3fbd c3a0 6ebd dd45 353d
000003a0: 6ee5 443d 83a5 cebd 2365 383d 1f20 013d
000003b0: cecf 743d d83e 273d 8013 763d 5883 a5bc
000003c0: ff81 1a3d cf74 ddbc 2bb4 f03c d34c 373d
000003d0: 877a a03c 0211 623d 8090 17bd d4af 5d3d
000003e0: 459d 193d 6f6e 31bd 859d 893d a2a2 7ebd
000003f0: 2c4b a3bd bf03 d8bc f610 6f3d 0e09 163d

actor_mean.0.bias f4 [128]
0.042459227 -0.016158203 0.08340305 -0.08660976 0.03760283 -0.07245703 0.0063794735 0.034544215
0.0349131 -0.0009844981 -0.031793743 -0.066619664 -0.07308662 0.081126414 0.0015222784 -0.041519962
-0.055934384 -0.01901115 0.069254614 -0.08211912 -0.0050973655 -0.050393198 -0.052757643 -0.06358118
0.06667824 0.08745825 0.062088747 -0.02146781 -0.08005428 0.003334082 0.066105366 -0.0019712106
0.019874118 -0.06316172 -0.041328166 -0.0032154992 -0.07600214 0.0282819 -0.05464775 0.03927797
-0.02496226 -0.012427574 0.081947714 -0.016778365 0.04461133 -0.051259607 0.054194614 -0.059244223
-0.08171943 0.051518664 -0.07708117 0.06253968 -0.0014800408 -0.021384088 0.048123002 -0.062472846
0.0846238 0.07101949 -0.08289852 0.08330413 -0.087670885 0.013857577 0.070028976 -0.04573023
-0.05754559 0.08858288 0.009373621 0.08235361 -0.07090283 0.08630456 0.0746567 -0.030260324
0.061447795 -0.005472771 0.08432276 -0.0754451 -0.055692423 -0.06025364 -0.056825005 0.07629663
-0.0072212312 0.02413058 0.035162956 -0.053804412 0.09084276 -0.003105187 -0.04408991 -0.053654402
-0.020258958 0.037849285 -0.08826726 -0.034706894 0.072776556 0.08374808 0.03693251 -0.0050108377
0.064538464 0.016865652 -0.04123192 -0.047766812 0.056231793 0.055308398 -0.089000046 -0.011425859
-0.09026121 -0.022745624 -0.0302931 0.020205962 0.022190051 -0.08832206 0.031329058 0.08869628
-0.046230696 0.030173147 0.061508115 0.042779822 0.014962596 0.06282181 0.0310395 -0.044326283
0.0350113 0.078234404 0.06136365 0.06711564 -0.024430884 -0.043009322 -0.029511793 -0.06248788
00000000: bae9 2d3d 355e 84bc 38cf aa3d 7560 b1bd
00000010: 6d05 1a3d 5a64 94bd e70a d13b 3c7e 0d3d
00000020: 0a01 0f3d 460a 81ba 283a 02bd e46f 88bd
00000030: 70ae 95bd 9b25 a63d 3087 c73a d610 2abd
00000040: 741b 65bd 45bd 9bbc 5dd5 8d3d 122e a8bd
00000050: cd07 a7bb 1969 4ebd 6618 58bd da36 82bd
00000060: 9a8e 883d 501d b33d c550 7e3d 43dd afbc
00000070: 80f3 a3bd 9d80 5a3b 4062 873d 6d2f 01bb
00000080: 0ccf a23c ef5a 81bd b947 29bd 20bb 52bb
00000090: 03a7 9bbd 71af e73c 52d6 5fbd f0e1 203d
000000a0: a77d ccbc 069d 4bbc 34d4 a73d c872 89bc
000000b0: 5fba 363d 98f5 51bd 2cfb 5d3d 12aa 72bd
000000c0: 845c a7bd 3c05 533d bcdc 9dbd ce14 803d
000000d0: eefd c1ba af2d afbc a01c 453d 87e3 7fbd
000000e0: 3e4f ad3d ab72 913d b3c6 a9bd 5b9b aa3d
000000f0: cb8c b3bd e40a 633c 5a6b 8f3d 9f4f 3bbd
00000100: edb4 6bbd f16a b53d d193 193c 02a9 a83d
00000110: 8135 91bd 72c0 b03d 9de5 983d 80e4 f7bc
00000120: afb0 7b3d ee54 b3bb 69b1 ac3d f682 9abd
00000130: bd1d 64bd 85cc 76bd 56c1 68bd 6841 9c3d
00000140: 14a0 ecbb 7ead c53c 0807 103d 0462 5cbd
00000150: c50b ba3d 6580 4bbb 9f97 34bd b8c4 5bbd
00000160: 1df6 a5bc da07 1b3d 77c5 b4bd d128 0ebd
00000170: e00b 953d 1d84 ab3d 8b46 173d f431 a4bb
00000180: be2c 843d d629 8a3c cde2 28bd 22a7 43bd
00000190: 4f53 663d 0f8b 623d a845 b6bd 8733 3bbc
000001a0: dfda b8bd 0855 babc 3c29 f8bc f986 a53c
000001b0: e9c7 b53c 32e2 b4bd e652 003d 65a6 b53d
000001c0: 665c 3dbd ad2d f73c efef 7b3d e539 2f3d
000001d0: ad25 753c b9a8 803d 8d46 fe3c 7a8f 35bd
000001e0: 0268 0f3d 5c39 a03d 7358 7b3d ed73 893d
000001f0: 4723 c8bc 8b2a 30bd b7c2 f1bc 4bf3 7fbd

actor_mean.2.weight f4 [2, 128]
0.09279973 0.00894862 -0.07406751 0.007578842 -0.008531036 0.028007254 0.009194545 -0.00020587652
0.093377605 -0.024050506 -0.08549729 -0.021864643 0.023367297 0.07081549 0.09456512 -0.039949175
0.032899342 -0.06590081 -0.03347403 0.07477753 0.049101897 0.053245842 -0.058338124 -0.07390461
0.08227002 0.034951776 -0.066259444 -0.044510063 0.024888976 -0.0002370727 0.039770007 -0.0248196
0.03768701 -0.058568195 0.11647101 0.029932864 -0.039389886 0.054185994 0.024462432 -0.042110473
0.0811301 -0.047656186 0.099020086 -0.07463393 0.046037734 0.014986587 0.0465201 -0.032407723
0.0315095 0.020962879 -0.01710489 -0.07178594 -0.045134526 0.053788956 0.035578378 0.05323349
-0.044429556 -0.09365221 -0.08408337 0.018262433 -0.06177844 0.025593895 0.034882244 -0.020899303
-0.073625706 0.010473935 -0.017006045 0.03382799 -0.079178914 -0.014186553 -0.03793632 0.025402434
-0.05024501 -0.023334749 -0.059395295 -0.07706544 -0.080758534 -0.036908474 -0.0654035 -0.03866774
0.04587717 -0.00071798486 0.017998056 0.07971796 0.090248145 0.01199518 0.088672444 -0.085271895
-0.03813785 -0.071503 -0.033344343 -0.058702808 -0.06812903 -0.07610243 0.0119231045 0.0010036478
-0.052691028 0.0034563774 0.022931624 0.057517517 0.04250291 0.045515586 0.043402117 0.07785783
-0.039127775 0.09249213 -0.054015994 -0.05175271 -0.06435574 0.08236121 0.051974986 0.090855464
-0.050140567 -0.008242869 0.043214697 -0.048502374 0.023789225 -0.046145584 0.061935194 0.101637244
0.08847949 -0.008290424 -0.032162473 0.0039399113 -0.06541675 -0.029526211 0.04294969 0.05624289
0.0265878 -0.042283878 -0.081624195 0.020512938 0.07434441 -0.063078746 -0.07626652 -0.065616
-0.013604128 0.015153825 -0.075820416 0.022525592 0.02815443 0.06237493 0.081902005 -0.06805687
-0.019168543 -0.05199073 -0.028998679 -0.08776038 -0.012753748 -0.054464426 0.032076467 0.044428423
0.09806934 -0.025417086 0.07335674 0.048799384 -0.03778206 0.06909392 0.051202796 0.0062062903
-0.055967588 0.013760423 0.066594884 -0.043594934 -0.019994432 -0.03734289 -0.0047237873 0.041298527
-0.04446862 -0.04118684 0.00371518 -0.03832987 -0.007855326 0.077652365 0.034742877 0.022126906
-0.07665703 -0.016946403 -0.014309965 -0.015607121 0.07064213 -0.025703056 0.014217303 0.07825549
0.065076075 -0.032857507 -0.048358925 -0.08960229 -0.032305412 -0.05804242 -0.0075764856 -0.005822466
-0.06787737 0.06751468 -0.07508892 0.013962176 -0.08207874 0.028912116 0.06776674 0.039781112
0.06400223 0.1002285 0.0609471 0.0066619203 -0.08174533 -0.0554124 -0.073484235 0.0027141664
-0.01572367 0.047183778 0.04133278 -0.06714549 0.047780428 0.012219821 -0.062274672 -0.0069279093
-0.07776442 -0.032300584 0.06074484 0.032420944 -0.030764949 0.007589141 0.039581303 0.043525703
0.023684185 0.022058507 0.086923294 -0.04906832 -0.06253817 0.087822475 -0.03179773 0.040798817
-0.06809523 -0.030751761 -0.041398887 -0.068744004 0.0025370305 0.012158881 0.05260068 0.005170049
-0.071956806 -0.04746672 -0.07332566 0.025416533 -0.078950845 -0.0030653258 0.021096531 -0.0021951753
-0.00400484 0.010623779 -0.011732235 -0.09275795 0.086721145 0.0043874285 0.05628073 -0.054160777
00000000: c90d be3d 3c9d 123c b5b0 97bd ef57 f83b
00000010: c2c5 0bbc 786f e53c b8a4 163c 8fe0 57b9
00000020: c23c bf3d 9105 c5bc 3419 afbd 7b1d b3bc
00000030: c66c bf3c b607 913d 5cab c13d bfa1 23bd
00000040: 76c1 063d 01f7 86bd 111c 09bd f624 993d
00000050: 121f 493d 5018 5a3d f5f3 6ebd 4d5b 97bd
00000060: 2f7d a83d 9829 0f3d 08b3 87bd 2f50 36bd
00000070: f7e3 cb3c b896 78b9 e0e5 223d 7952 cbbc
00000080: b25d 1a3d 34e5 6fbd 5a88 ee3d c435 f53c
00000090: 4a57 21bd 22f2 5d3d 7065 c83c 087c 2cbd
000000a0: 8a27 a63d 2233 43bd 0bcb ca3d add9 98bd
000000b0: 1092 3c3d 4d8a 753c dc8b 3e3d f6bd 04bd
000000c0: 1b10 013d 58ba ab3c 8e1f 8cbc 8204 93bd
000000d0: fbde 38bd cf51 5c3d a2ba 113d 5c0b 5a3d
000000e0: c4fb 35bd bbcc bfbd e733 acbd 199b 953c
000000f0: 640b 7dbd 4aaa d13c afe0 0e3d 0435 abbc
00000100: 13c9 96bd de9a 2b3c 4350 8bbc 388f 0a3d
00000110: 8e28 a2bd b76e 68bc 1d63 1bbd c418 d03c
00000120: b6cd 4dbd 8428 bfbc 7b48 73bd 7cd4 9dbd
00000130: bb64 a5bd 572d 17bd 45f2 85bd 1062 1ebd
00000140: b3e9 3b3d 2637 3cba a970 933c 2b43 a33d
00000150: 05d4 b83d 6e87 443c e699 b53d 08a3 aebd
00000160: 6f36 1cbd 2a70 92bd 1494 08bd 5b72 70bd
00000170: 3c87 8bbd 97db 9bbd 2059 433c d58c 833a
00000180: 8cd2 57bd 6484 623b 1adb bb3c 7d97 6b3d
00000190: 8817 2e3d 8d6e 3a3d 6bc6 313d ed73 9f3d
000001a0: 7244 20bd 846c bd3d e03f 5dbd a6fa 53bd
000001b0: f1cc 83bd feac a83d b9e3 543d 6e12 ba3d
000001c0: 3260 4dbd 190d 07bc e501 313d 6daa 46bd
000001d0: 9fe1 c23c 2703 3dbd c2af 7d3d 3027 d03d
000001e0: bc34 b53d 8fd4 07bc ccbc 03bd 5f1a 813b
000001f0: 38f9 85bd f4e0 f1bc 04ec 2f3d f25e 663d
00000200: a8ce d93c dc31 2dbd 962a a7bd c00a a83c
00000210: e241 983d 6e2f 81bd 9f31 9cbd ae61 86bd
00000220: d9e3 5ebc c047 783c bc47 9bbd 9787 b83c
00000230: 1fa4 e63c db7c 7f3d 3dbc a73d 6661 8bbd
00000240: 5907 9dbc 3bf4 54bd a38e edbc b7bb b3bd
00000250: 19f5 50bc 1716 5fbd 9d62 033d 94fa 353d
00000260: 94d8 c83d 7e37 d0bc 0f3c 963d dde1 473d
00000270: 5dc1 1abd 1d81 8d3d 06ba 513d 235e cb3b
00000280: 453e 65bd 6673 613c e662 883d 9a90 32bd
00000290: 5dcb a3bc dcf4 18bd 00ca 9abb a528 293d
000002a0: ba24 36bd 88b3 28bd 617a 733b c8ff 1cbd
000002b0: a0b3 00bc 3408 9f3d 8c4e 0e3d 7c43 b53c
000002c0: 5cfe 9cbd 2fd3 8abc 5874 6abc 03b5 7fbc
000002d0: d2ac 903d 378f d2bc b1ef 683c 6a44 a03d
000002e0: 9b46 853d 9895 06bd 0214 46bd 6881 b7bd
000002f0: ae52 04bd e3bd 6dbd 2b44 f8bb 63ca bebb
00000300: 4a03 8bbd 2345 8a3d 38c8 99bd 9cc1 643c
00000310: e618 a8bd 1ad9 ec3c 4ac9 8a3d 85f1 223d
00000320: 9a13 833d 9a44 cd3d aba3 793d 3d4c da3b
00000330: 186a a7bd 1df8 62bd e77e 96bd 28e0 313b
00000340: edce 80bc c743 413d 904c 293d 9383 89bd
00000350: 69b5 433d a535 483c ba13 7fbd 8403 e3bb
00000360: f442 9fbd 9e4d 04bd 95cf 783d d3cb 043d
00000370: c606 fcbc 54ae f83b 0120 223d 0248 323d
00000380: 5605 c23c 0bb4 b43c d704 b23d ddfb 48bd
00000390: 0314 80bd 45dc b33d 563e 02bd a91c 273d
000003a0: 8375 8bbd 1eeb fbbc e191 29bd a8c9 8cbd
000003b0: 4f44 263b 0b36 473c d073 573d 8469 a93b
000003c0: 175e 93bd 776c 42bd c32b 96bd 5536 d03c
000003d0: fbb0 a1bd a2e3 48bb a2d2 ac3c eedc 0fbb
000003e0: 083b 83bb 5c0f 2e3c 8f38 40bc e1f7 bdbd
000003f0: db9a b13d 6bc4 8f3b 9f86 663d b1d7 5dbd

actor_mean.2.bias f4 [2]
-0.03883423 -0.004634477
00000000: a410 1fbd d0dc 97bb
