path-planning/drone-path-planning-ppo-dynamics/models/ppo_model_episode_1000.pth (torch, 344149 bytes, 17 tensors)

feature.0.weight f4 [128, 7]
0	0xbe56dd28	-0.20982802
1	0xbe4fa653	-0.20278291
2	0x3eb802db	0.3593968
3	0x3e939c20	0.2883005
4	0xbd851986	-0.06499009
5	0x3e93c730	0.28862906
6	0xbd7a4bd3	-0.061107468
7	0x3ebdb311	0.3705068
8	0x3ea0505b	0.31311306
9	0xbdb25243	-0.087070964
10	0x3eb68c85	0.35654083
11	0x3e869f9d	0.2629365
12	0x3e855162	0.26038653
13	0x3e15d9e6	0.14633903
14	0xbe31d023	-0.17364554
15	0xbd144e24	-0.036207333
16	0x3d969272	0.07352151
17	0x3b9588e6	0.0045634387
18	0x3d1d920e	0.038469367
19	0x3d1bf6b3	0.038077068
20	0xbe08ec3d	-0.13371368
21	0x3e89f04b	0.2694114
22	0x3e1adda1	0.15123607
23	0xbc51caa7	-0.012804664
24	0x3ec2352a	0.37931186
25	0x3e21ba1b	0.1579365
26	0x3ea53585	0.32267395
27	0x3ed47880	0.41498184
28	0x3e6340c3	0.22192673
29	0x3e9cdb89	0.30636242
30	0xbe9c78e6	-0.30560988
31	0x3e961283	0.29310998
32	0xbe6dc50b	-0.23219697
33	0x3eae3dfd	0.34031668
34	0xbe997c85	-0.29977813
35	0xbe8dc8d9	-0.27692297
36	0xbe0e78a8	-0.13913214
37	0xbd6d871a	-0.05799017
38	0x3dabe7dc	0.08393833
39	0x3e7a112d	0.24420615
40	0x3e62672a	0.22109666
41	0x3e5d6fc2	0.21624663
42	0x3ea59252	0.32338196
43	0xbec53a77	-0.38521168
44	0xbe527b1b	-0.20554774
45	0xbe6879df	-0.2270274
46	0xbdf695f8	-0.12040323
47	0x3ebb6812	0.36602837
48	0x3e7f1684	0.24910933
49	0xbea55a3c	-0.32295406
50	0xbda0ee29	-0.078579254
51	0x3e9f5d49	0.31125858
52	0xbd9f4995	-0.077777065
53	0x3ebd7018	0.36999583
54	0xbe7155c7	-0.23567878
55	0xbcc3f238	-0.02391921
56	0xbea4132f	-0.32045886
57	0xbe9d9035	-0.30774084
58	0xbc793282	-0.015209796
59	0xbd6fcf7f	-0.058547493
60	0xbec2a54b	-0.38016734
61	0x3e086830	0.13320994
62	0x3e326437	0.17421041
63	0xbe9dde12	-0.3083349
64	0x3e9d8856	0.3076808
65	0x3e0d009d	0.13769765
66	0xbeb16f38	-0.34655166
67	0xbd435d30	-0.047696292
68	0xbeae8de9	-0.34092644
69	0x3e29ff74	0.16601354
70	0xbeaa239c	-0.33230293
71	0x3e845979	0.25849512
72	0x3dc75689	0.09733302
73	0x3e3ad816	0.18246493
74	0xbcf590a9	-0.029976206
75	0x3da3c1f3	0.07995977
76	0x3e5cac35	0.21550067
77	0x3da6ffa5	0.08154229
78	0x3eb3a7fd	0.35089102
79	0x3daaee12	0.083461896
80	0xbe95933e	-0.292139
81	0xbe9093f2	-0.28237873
82	0x3e93e08e	0.2888226
83	0xbe3e5303	-0.18586354
84	0x3c438aa2	0.011934908
85	0x3e9ffadb	0.31246075
86	0xbd9fcb2f	-0.07802426
87	0xbec1f4e5	-0.37882152
88	0xbeb6219c	-0.35572517
89	0x3d82b0f8	0.0638141
90	0x3e5f13a6	0.21784839
91	0x3e1493f2	0.14509562
92	0xbea52308	-0.3225329
93	0xbe797b28	-0.24363387
94	0xbe4fec63	-0.20305018
95	0x3e5dc9c5	0.21659
96	0xbe629ab4	-0.22129327
97	0x3d9d7ed3	0.076902054
98	0xbd5c4007	-0.053772
99	0xbec1f79d	-0.37884226
100	0xbe87e5e6	-0.26542586
101	0x3e572df6	0.21013626
102	0xbd9ce95e	-0.07661699
103	0x3c2c1302	0.010502579
104	0xba8df991	-0.0010831823
105	0xbec5a57a	-0.3860281
106	0x3ebbf91b	0.3671349
107	0x3e9e4e40	0.30919075
108	0xbe2856d4	-0.16439372
109	0xbe8605f4	-0.26176417
110	0x3da6157a	0.08109565
111	0xbd4d776c	-0.050162718
112	0xbd6d87a5	-0.05799069
113	0xbd773736	-0.060355388
114	0xbe964a17	-0.293534
115	0xbe1dd898	-0.15414655
116	0xbe1e27e4	-0.15444905
117	0xbe7af761	-0.2450843
118	0x3e205f4d	0.15661354
119	0x3e535a3b	0.20639889
120	0x3d7a59e5	0.061120886
121	0x3df74252	0.120731965
122	0x3e5b4eb5	0.21416743
123	0x3e037869	0.12838902
124	0xbe50fa86	-0.20408067
125	0xbe4d14a3	-0.20027404
126	0xbe617473	-0.22017078
127	0xbe875d7c	-0.2643851
128	0xbeb8afca	-0.36071616
129	0x3e85604a	0.26050025
130	0x3e4558bb	0.19272129
131	0xbe8ca547	-0.27469847
132	0x3d32811e	0.043580167
133	0x3def7520	0.11692262
134	0xbe06628b	-0.13123529
135	0xbe032b06	-0.12809381
136	0x3e8041ab	0.250501
137	0xbe22602d	-0.15857
138	0xbdcde65d	-0.10053704
139	0x3e735d4c	0.23766059
140	0x3da7cad4	0.08192983
141	0x3e83106b	0.25598463
142	0x3e7146d2	0.23562172
143	0xbe6a38d4	-0.2287324
144	0xbdf080cd	-0.11743317
145	0x3e4efbe7	0.2021328
146	0x3e732642	0.23745063
147	0x3eb3d600	0.35124207
148	0x3e894e10	0.2681737
149	0xbdcb6d11	-0.09932912
150	0x3c0c96a1	0.008580835
151	0x3d2cf430	0.042225063
152	0xbc46c440	-0.012131751
153	0xbe85d81a	-0.26141435
154	0x3e8d6459	0.27615622
155	0xbe95beb2	-0.2924705
156	0x3e808d75	0.25107923
157	0x3e07c357	0.1325811
158	0xbda407ea	-0.08009322
159	0xbeb39c0c	-0.35079992
160	0xbd3e4828	-0.046455532
161	0x3e4e5abb	0.20151798
162	0xbea9a22b	-0.33131537
163	0xbe95d605	-0.29264846
164	0xbd4a11f0	-0.049333513
165	0xbd6578ab	-0.05602328
166	0xbea212fb	-0.31655106
167	0xbea6f85f	-0.32611367
168	0xbeba563f	-0.36393926
169	0x3e76ade5	0.24089773
170	0x3b75c7b5	0.0037503068
171	0x3e4b7758	0.19869745
172	0xbdfe812c	-0.12426981
173	0x3e9266cc	0.28594053
174	0x3e133951	0.14377333
175	0x3ec3f421	0.38272193
176	0xbd591eff	-0.053008076
177	0xbeb8de3a	-0.36107045
178	0x3d6b897f	0.057504173
179	0xbe880308	-0.26564813
180	0x3e96d1bb	0.29456887
181	0x3ec0d957	0.37665817
182	0xbe8977a6	-0.26849097
183	0xbe3bb45c	-0.1833052
184	0xbd2c1048	-0.042007715
185	0x3eb9a927	0.36261865
186	0x3c5c9179	0.013462418
187	0x3c0095bf	0.007848202
188	0xbe360bc7	-0.1777793
189	0xbebe2c7e	-0.3714332
190	0xbde089dc	-0.109637946
191	0x3de79c6d	0.11309133
192	0x3e43f8f3	0.19137935
193	0x3ea7412c	0.3266691
194	0x3d1d9c3e	0.038479082
195	0x3ec00b7f	0.3750877
196	0xbdb90acf	-0.09035265
197	0x3e55661f	0.20839737
198	0xbeacad0c	-0.33725774
199	0xbe9a9825	-0.30194202
200	0x3e763299	0.24042739
201	0x3dcfe37a	0.101508096
202	0x3dd578e7	0.10423451
203	0x3e753e70	0.239496
204	0xbea26e5c	-0.31724823
205	0x3e6f7774	0.23385412
206	0xbe541a4d	-0.20713158
207	0xbd942e9a	-0.07235451
208	0x3d3d4b34	0.046214297
209	0xbc8672a6	-0.01641209
210	0x3df0de07	0.11761098
211	0x3dbf7169	0.09347803
212	0xbe0e24bd	-0.13881202
213	0x3db89c20	0.090141535
214	0x3d1a6938	0.037698
215	0xbe8b36a7	-0.27190134
216	0x3e5d9f65	0.21642835
217	0xbe65e4d8	-0.22450578
218	0xbeb3023f	-0.3496265
219	0xbe85547b	-0.26041016
220	0x3e2b685f	0.16739033
221	0xbd85f0c3	-0.06540062
222	0xbde4c165	-0.111696996
223	0xbe0a02ac	-0.13477582
224	0xbe2cb147	-0.16864501
225	0xbe3778e7	-0.17917214
226	0x3d8b6606	0.06806569
227	0x3eace6ec	0.3376993
228	0x3e3f112d	0.18658896
229	0x3c503096	0.012706896
230	0x3e895628	0.26823545
231	0xbccdb775	-0.025111893
232	0xbeae2393	-0.34011516
233	0xbdd24807	-0.102676444
234	0x3e3184c2	0.173358
235	0xbc8d4af3	-0.017247653
236	0xbe76b2b2	-0.24091604
237	0xbd0766b9	-0.03305695
238	0x3e3cd88d	0.18441983
239	0xbe95efd1	-0.29284528
240	0x3d55dac6	0.05221059
241	0xbe0fd824	-0.14047295
242	0x3cd68b90	0.026189595
243	0xbea8848b	-0.32913622
244	0xbec67df1	-0.3876796
245	0xbe20255d	-0.15639253
246	0xbeb8f7c3	-0.36126527
247	0xbe45019c	-0.19238895
248	0xbdbf6eb3	-0.09347286
249	0xbeb62845	-0.35577598
250	0xbd7dcfbc	-0.06196569
251	0x3e2c6a6c	0.16837472
252	0x3eb2f99b	0.3495606
253	0xbe1dc6f2	-0.15407923
254	0xbdcc2884	-0.09968665
255	0x3ea0198b	0.31269488

feature.0.bias f4 [128]
0	0xbea9a061	-0.33130172
1	0xbd041634	-0.032247737
2	0x3ea56791	0.32305577
3	0xbeb3fa77	-0.35152027
4	0xbe48215f	-0.1954398
5	0x3d63a941	0.055581335
6	0x3e8e7f1f	0.2783136
7	0x3e85c3c9	0.26125935
8	0x3ec051ef	0.3756251
9	0xbe0ee093	-0.13952856
10	0xbe61cb37	-0.22050177
11	0xbc47da86	-0.012198096
12	0x3e41f835	0.1894234
13	0x3e93fe45	0.2890493
14	0xbd7925ca	-0.060827054
15	0xbdf49761	-0.11942936
16	0x3b37268b	0.0027946557
17	0xbdfa48c3	-0.122209094
18	0x3e51bded	0.20482607
19	0xbe7717a0	-0.24130106
20	0x3dd74584	0.10511306
21	0x3d96f95f	0.073717825
22	0xbeb5fc42	-0.3554402
23	0x3ec2aa0b	0.38020357
24	0x3ebde9de	0.3709249
25	0xbe6193d6	-0.22029051
26	0xbe17c49d	-0.14821096
27	0x3e193b53	0.14964037
28	0xbea3f915	-0.32025972
29	0xbe894219	-0.2680824
30	0x3df54866	0.119766995
31	0x3e6921d8	0.22766817
32	0xbd678148	-0.056519777
33	0x3e79d15a	0.24396268
34	0xbe85bc89	-0.26120403
35	0xbe375100	-0.17901993
36	0x3c281cdd	0.010260788
37	0x3dda13c7	0.106483035
38	0xbe902581	-0.28153613
39	0xbe150843	-0.14553933
40	0x3d21f0ee	0.03953641
41	0x3ea9e9d5	0.33186212
42	0xbd211d8d	-0.039334822
43	0x3dab43b6	0.08362524
44	0x3c4483e3	0.011994335
45	0x3e69be68	0.2282654
46	0xbd4a2e9f	-0.049360868
47	0x3e85f6c4	0.2616483
48	0xbe7da3d7	-0.24769531
49	0xbe5aa2ea	-0.2135121
50	0x3ea816fa	0.3283003
51	0xbeba0432	-0.36331326
52	0xbe613cd2	-0.21995857
53	0x3d98f80a	0.07469185
54	0x3d84872a	0.06471093
55	0xbe7ab366	-0.24482498
56	0xbd4ea263	-0.050447833
57	0x3e1e25ad	0.1544406
58	0xbe32a6e1	-0.17446472
59	0xbea45f47	-0.3210394
60	0xbcb67290	-0.022271425
61	0xbca2b13d	-0.019859904
62	0x3deeed74	0.11666384
63	0x3e8464b2	0.25858074
64	0xbcce82bf	-0.025208829
65	0xbeac5b63	-0.33663473
66	0xbe72869d	-0.23684163
67	0x3e90f1bf	0.28309438
68	0x3eac8f7a	0.33703214
69	0x3eb6919d	0.3565797
70	0x3e8055a6	0.25065345
71	0xbeabb8a3	-0.33539304
72	0xbbc7232d	-0.0060771913
73	0xbe921cb9	-0.2853754
74	0x3e89d14b	0.2691749
75	0x3e697c08	0.2280122
76	0x3eac01e6	0.33595198
77	0xbeba567c	-0.36394107
78	0x3e9faf9f	0.31188676
79	0x3e3b3bc4	0.18284518
80	0x3e7a3b8e	0.24436781
81	0xbe31a163	-0.1734672
82	0xbe0514ec	-0.12996262
83	0x3e379718	0.17928731
84	0xbe80bf26	-0.25145835
85	0xbe9cfff7	-0.30664036
86	0x3e0ec329	0.13941635
87	0xbe7da328	-0.2476927
88	0x3db495e9	0.088176556
89	0xbdad1cb6	-0.08452742
90	0xbe979169	-0.29603127
91	0x3ebb1c03	0.3654481
92	0xbe1e05c9	-0.15431894
93	0xbe1ad001	-0.1511841
94	0x3ebff037	0.37487957
95	0x3d365be4	0.044521227
96	0x3ec1f13f	0.3787937
97	0xbe32ae59	-0.17449321
98	0x3eb03de5	0.34422222
99	0x3e716ac3	0.23575883
100	0x3d105663	0.035238635
101	0xbcb4b8ce	-0.022060778
102	0xbe6b5940	-0.22983265
103	0x3e90ce9f	0.2828264
104	0x3e4ae918	0.1981548
105	0xbe97be20	-0.2963724
106	0x3e4c648d	0.19960232
107	0xbcde5398	-0.02713947
108	0xbe9c10c7	-0.3048155
109	0x3e313866	0.1730667
110	0xbe14744e	-0.14497492
111	0x3dc713de	0.09720586
112	0xbca93cb9	-0.020658838
113	0x3de006e0	0.10938811
114	0xbb9943f1	-0.0046772887
115	0xbeaa2849	-0.3323386
116	0x3e82baef	0.25533244
117	0x3eb0fcc9	0.3456786
118	0xbe83c5fb	-0.25736985
119	0xbe962d0a	-0.29331237
120	0xbe970514	-0.29496062
121	0xbeb2b260	-0.34901714
122	0x3e8f7e1f	0.2802591
123	0xbc6295ca	-0.013829658
124	0xbe0c8c34	-0.13725358
125	0x3d18481b	0.03717814
126	0x3dbac67f	0.091198914
127	0xbe070bad	-0.13188048

feature.2.weight f4 [128, 128]
0	0x3cbb2b3f	0.02284777
1	0x3d095c41	0.033535246
2	0x3d9984f7	0.07496064
3	0xba20e47c	-0.00061375625
4	0xbd8ee056	-0.069763824
5	0xbc913046	-0.017723214
6	0xbd953054	-0.072846085
7	0xbd06e3bc	-0.03293203
8	0x3db0ebf6	0.08638756
9	0xbd82fbec	-0.063957065
10	0xbcfc63fb	-0.030809393
11	0xbd4acd0a	-0.049511947
12	0xbda64582	-0.08118726
13	0x3c950bdf	0.018194137
14	0xbdc669a9	-0.09688122
15	0xbd83d626	-0.0643733
16	0xbc4af9c2	-0.012388648
17	0x3c44b04e	0.012004925
18	0xbca79d3e	-0.020460721
19	0xbcc1231f	-0.023576317
20	0x3b26e702	0.0025467281
21	0xbb70c96d	-0.0036741153
22	0x3d730858	0.05933413
23	0x3dba2e5e	0.09090875
24	0x3bacf8d2	0.005278685
25	0x3c4e2686	0.012582427
26	0xbd2a7472	-0.041614957
27	0xbd853ff7	-0.06506341
28	0xbd82a569	-0.06379206
29	0xbd943e89	-0.0723849
30	0x3d6b1932	0.057397075
31	0x3da2406a	0.07922442
32	0xbd54b4bb	-0.05193017
33	0x3d1f4b47	0.03889015
34	0xbd7fdbf5	-0.062465627
35	0xbdb45aa1	-0.088063486
36	0x3d573dc5	0.052549142
37	0x3d074d7d	0.033032883
38	0xbdc936c4	-0.09824899
39	0xbc3c0ed4	-0.011478145
40	0x3d503641	0.05083299
41	0x3d9a719d	0.07541201
42	0x3dad7c91	0.08471025
43	0x3d7135b4	0.058889106
44	0x3dd21c4a	0.10259302
45	0x3d35f1bd	0.044419993
46	0x3cd8a9a4	0.026448078
47	0xbc812017	-0.015762372
48	0xbde0b9ee	-0.10972963
49	0x3ca154bd	0.019693727
50	0x3d99a397	0.075019054
51	0x3ac5ce04	0.0015091305
52	0xbde5256e	-0.1118878
53	0xbd36d9f1	-0.04464144
54	0xbdbac565	-0.09119681
55	0xbcc0515c	-0.023476295
56	0xbd95961a	-0.0730402
57	0x3d731990	0.05935055
58	0x3ca4500f	0.020057706
59	0xbd52c550	-0.051457703
60	0x3d5225fb	0.051305752
61	0x3c4c0f35	0.0124547975
62	0xbda8e66c	-0.082470745
63	0xbbf73a55	-0.0075447955
64	0x3c41e627	0.011834658
65	0x3c96394f	0.018337874
66	0x3c9d8bcb	0.019231698
67	0xbd196314	-0.037448004
68	0x3b56f8e8	0.0032802168
69	0x3cdece79	0.027198063
70	0x3d86bb68	0.06578714
71	0x3cbfb8e2	0.023403589
72	0x3ca8f81b	0.020626118
73	0x3d911c9b	0.07085534
74	0xbd81d201	-0.06338883
75	0xbaa3fe4c	-0.00125117
76	0x3d468248	0.04846409
77	0x3d3d5cc3	0.046231043
78	0x3b9d9506	0.0048090247
79	0x3d786dcc	0.060651585
80	0xbb736bfa	-0.0037143216
81	0x3c2713b8	0.010197572
82	0xbcdb179b	-0.026744654
83	0x3d626e2e	0.055280857
84	0xbd63f327	-0.05565181
85	0xbd6a3848	-0.05718258
86	0x3da6a5ed	0.081371166
87	0xba6073be	-0.0008562169
88	0xbd25ffe0	-0.040527225
89	0x3b682272	0.0035420922
90	0xbd396268	-0.045259863
91	0x3d8bc7c6	0.06825213
92	0x3c25fdc2	0.010131301
93	0xbc99d18e	-0.018776681
94	0x3c78ca06	0.015184885
95	0x3d9f29b6	0.077716276
96	0x3caf6dd1	0.02141467
97	0xbd339076	-0.04383894
98	0x3d25dd51	0.040494267
99	0xbc872a59	-0.016499685
100	0xbdb62447	-0.08893638
101	0x3d00c245	0.03143527
102	0xbc48f6a7	-0.012265838
103	0xbc9b5f74	-0.018966414
104	0xbd171005	-0.03688051
105	0x3b4d25b5	0.0031302993
106	0x3d4dda02	0.050256737
107	0x3d60e68d	0.05490737
108	0x3c41653b	0.01180392
109	0x3d775b35	0.060389716
110	0x3b694b8f	0.0035598015
111	0x3d8d2453	0.06891694
112	0xbd938153	-0.07202401
113	0xbd5eded7	-0.054411735
114	0xbcee66ea	-0.029101808
115	0xbddaa73c	-0.10676429
116	0x3dc21ecd	0.09478531
117	0x3ccbcea6	0.024878811
118	0x3d78e632	0.060766406
119	0xbcbfa2ef	-0.023393122
120	0xbcd49afa	-0.025952805
121	0xbd9876a6	-0.074445054
122	0xba34c2b7	-0.000689547
123	0x39b37f5e	0.00034236436
124	0xbca259a2	-0.01981813
125	0x3b695cf6	0.0035608388
126	0xbd99d4ce	-0.075112924
127	0xbb9b6f29	-0.004743476
128	0xbdca72c6	-0.098851725
129	0x3aacd425	0.0013185783
130	0xbd47001d	-0.048584092
131	0x3d01df3a	0.031707026
132	0xbd8b5e8c	-0.06805143
133	0xbb69a58a	-0.0035651647
134	0x3cb0ff95	0.021606246
135	0x3d5b4201	0.053529743
136	0x3d78784c	0.0606616
137	0x3d0b2d1f	0.033978578
138	0xbd612ccc	-0.054974362
139	0xbdc6a857	-0.09700077
140	0x3d8f199a	0.06987305
141	0x39f0c9cd	0.0004592672
142	0x3d503480	0.050831318
143	0xbdb14a54	-0.08656755
144	0x3ce8cf6f	0.028419225
145	0x3d2335bf	0.03984618
146	0xbca42ae5	-0.020039985
147	0xbd6dc3db	-0.05804811
148	0xbd61530c	-0.05501084
149	0xbdab4c66	-0.08364181
150	0xbc55a4e8	-0.013039805
151	0x3d23d332	0.039996333
152	0xbd11896f	-0.035531458
153	0xbc20fa40	-0.009825289
154	0xbdbec512	-0.09314932
155	0xbd744adc	-0.059641704
156	0xbdb228b1	-0.086991675
157	0xbcde7219	-0.027154015
158	0x3d18dddd	0.03732096
159	0xbcbc30eb	-0.022972545
160	0xbddd176e	-0.107954845
161	0x3c6d219f	0.014473348
162	0x3c20cf14	0.009814996
163	0xbaa9e15b	-0.0012960838
164	0x3d86e421	0.06586481
165	0x3d69b771	0.05705971
166	0xbd1de627	-0.03854957
167	0xbb318dc6	-0.002709256
168	0x3d1fd2c5	0.039019365
169	0x3c1295a3	0.008946809
170	0x3d863f1f	0.06555008
171	0xbd905234	-0.07046929
172	0x3c93525e	0.017983612
173	0xbd9f8392	-0.07788767
174	0x3d81056e	0.06299864
175	0x3d3d92ab	0.04628245
176	0xbd8906da	-0.0669076
177	0xbd5170e3	-0.051133048
178	0x3caa9261	0.020821752
179	0xbc8167ef	-0.01579663
180	0xbc5621fe	-0.013069628
181	0xbd913cf6	-0.070917055
182	0x3d535ef7	0.051604237
183	0x3d63ed0e	0.055645995
184	0xbd9c0820	-0.07618737
185	0xbd458fe9	-0.048232947
186	0xbd2fffdd	-0.04296862
187	0x3cf7b029	0.030235367
188	0xbd8d7ccc	-0.06908569
189	0x3d831a86	0.06401543
190	0xbd564460	-0.0523113
191	0x3c98e4cb	0.018663784
192	0x3cfd2283	0.030900246
193	0x3d555df3	0.05209155
194	0xbd24652a	-0.04013554
195	0xbd7fc86b	-0.062446993
196	0x3d95f965	0.07322959
197	0x3d6bd731	0.05757827
198	0x3d0f77a6	0.035026215
199	0x3c8228c6	0.015888583
200	0xbc434ed6	-0.011920651
201	0x3da99c53	0.082817696
202	0xbc0e70de	-0.008693902
203	0xbdab7912	-0.08372702
204	0x3d14a54e	0.03629046
205	0xbc5f1038	-0.013614707
206	0x3d8fd941	0.0702386
207	0xbc8fbbd6	-0.017545622
208	0x3a392a8a	0.0007063529
209	0xbdb32555	-0.08747355
210	0x3d32664f	0.0435546
211	0xbda611c0	-0.08108854
212	0xbd775202	-0.060380943
213	0xbd8a8905	-0.06764416
214	0x3cfa7a56	0.030575912
215	0xbc390323	-0.011292252
216	0xbda670fd	-0.081270196
217	0xbdba3cb7	-0.09093612
218	0x3cb3bde6	0.021941137
219	0x3d14d6a9	0.03633753
220	0xbd5ebf5f	-0.054381724
221	0x3c8bafe9	0.017051654
222	0x3c3de189	0.011589416
223	0xbd44e377	-0.04806849
224	0x3df11822	0.11772181
225	0xbc401994	-0.011724848
226	0x3d5deba1	0.05417979
227	0xbd810cb7	-0.06301253
228	0xbdb8e4e8	-0.090280354
229	0xbbf78dea	-0.0075547593
230	0xbdae1aed	-0.085012294
231	0x3d85250b	0.06501206
232	0x3d6593a5	0.056049008
233	0x3d3fcdc1	0.04682708
234	0xbd48fc4a	-0.049068727
235	0x3d6c948d	0.057758857
236	0x3d4320e4	0.04763879
237	0xbd907527	-0.07053595
238	0x3d893cc9	0.06701047
239	0x3c83b55e	0.016077694
240	0x3bbe6d88	0.005811397
241	0xbb33c97a	-0.0027433322
242	0xbda7b9d2	-0.08189739
243	0x3d3d71fe	0.04625129
244	0xbcfe3dfc	-0.031035416
245	0x3d003899	0.031303976
246	0x3d70cc6a	0.058788694
247	0x3d80edb2	0.06295337
248	0xbc4c3508	-0.0124638155
249	0xbddfc805	-0.109268226
250	0xbd994481	-0.07483769
251	0xbd71fc28	-0.059078366
252	0xbbf4e9e3	-0.0074741705
253	0xbd8877c1	-0.06663466
254	0xbd8c0d7d	-0.0683851
255	0xbdb078e4	-0.08616808

feature.2.bias f4 [128]
0	0x3d94b4aa	0.072610214
1	0x3de2f6fd	0.110822655
2	0x3d9f6928	0.07783729
3	0xbdb72a93	-0.08943667
4	0xbd22585f	-0.03963506
5	0xbda3518c	-0.07974538
6	0xbb53011a	-0.0032196702
7	0x3c8d7312	0.017266784
8	0xbcf86fb2	-0.030326698
9	0x3d9463e8	0.07245618
10	0xbc31d359	-0.010853612
11	0xbd87bb59	-0.066275306
12	0x3db960a7	0.09051638
13	0xbd4ca881	-0.049965385
14	0xbdab6354	-0.08368555
15	0x3c2b22d8	0.010445319
16	0xbd9015d1	-0.07035411
17	0xbd7ab795	-0.061210234
18	0x3c8518c5	0.016247163
19	0x3d434d22	0.04768098
20	0xbd99a85d	-0.07502816
21	0xbd1fce09	-0.03901485
22	0x3d96ec6a	0.07369311
23	0x3ce63352	0.028100643
24	0xbd3d1eb2	-0.04617185
25	0xbc8253ce	-0.015909102
26	0x3db8d7e8	0.09025556
27	0x3d26a369	0.040683184
28	0xbcc6cd9d	-0.024267966
29	0xbd0b995d	-0.034081805
30	0x3da3b420	0.079933405
31	0x3bcd1311	0.0062583764
32	0x3dedd6dd	0.116132475
33	0x3d65b617	0.056081858
34	0xbc3536f6	-0.011060467
35	0x3d929d9d	0.071589686
36	0xbd8e71a4	-0.06955269
37	0xbaf0f437	-0.0018383329
38	0x3dde47e5	0.108535565
39	0x3d85659f	0.06513523
40	0xbcb175f9	-0.021662699
41	0xbd022465	-0.03177299
42	0x3a555e45	0.00081393524
43	0xbccec1cd	-0.025238896
44	0xbd749822	-0.059715398
45	0xbdb23efb	-0.08703419
46	0x3da72b4b	0.08162554
47	0x3be141ec	0.0068743136
48	0xbcaf0ed4	-0.021369375
49	0x3c49078a	0.012269864
50	0xbc0718c4	-0.008245651
51	0xbc9d1ed7	-0.019179745
52	0xbc93a0e2	-0.01802105
53	0x3d08b7da	0.03337846
54	0xbdbcb8d7	-0.09214943
55	0x3c873f40	0.016509652
56	0xbd1fa6e4	-0.03897752
57	0x3ca41701	0.0200305
58	0xba5504d6	-0.0008126026
59	0x3d2d4b6b	0.042308252
60	0x3dac0f48	0.08401352
61	0x3d9280aa	0.07153447
62	0xbc92b4f0	-0.017908543
63	0xbc3ab29b	-0.011395122
64	0x3d618ce4	0.055066004
65	0x3d8e4860	0.06947398
66	0xbd7f5684	-0.062338367
67	0xbbd73db4	-0.006568635
68	0xbb936d18	-0.004499089
69	0xbba2ba9e	-0.004966094
70	0x3da37562	0.07981373
71	0x3de587f1	0.112075694
72	0xbd80c192	-0.062869206
73	0x3c47f52f	0.012204452
74	0xbd97e891	-0.074174054
75	0x3b77a9d3	0.0037790432
76	0xbc1f83c9	-0.00973601
77	0x3d64df98	0.055877298
78	0xbd7c1da6	-0.061551712
79	0xbda316e9	-0.07963354
80	0xbbc2c95e	-0.005944415
81	0xbbd8923c	-0.0066092294
82	0x3d35e43f	0.044407126
83	0x3d732f94	0.059371546
84	0xbd0a7ba0	-0.033809304
85	0xbb4f7ab0	-0.003165882
86	0x3d2eabcc	0.042644307
87	0x3d850fc5	0.064971484
88	0xbbc85407	-0.0061135325
89	0xbca1c3ac	-0.019746624
90	0x3d662006	0.056182884
91	0xbd2f786b	-0.04283945
92	0x3cad4e57	0.02115552
93	0x3d5df831	0.054191772
94	0xbcf581cf	-0.029969124
95	0x3d3301ed	0.04370301
96	0xbc96c944	-0.018406518
97	0xbcddbb3c	-0.02706682
98	0xbd849b54	-0.06474939
99	0x3d0ecc6e	0.034862928
100	0x3d10a002	0.035308845
101	0xbbb53c65	-0.005530881
102	0x3d7d9c0f	0.061916407
103	0x3dc0fccd	0.09423218
104	0x3d99981c	0.07499716
105	0xbcbf0714	-0.023318805
106	0xbda4b14c	-0.08041629
107	0x3cbcd80b	0.023052236
108	0x3d39e411	0.045383517
109	0x3dac23e6	0.084052846
110	0xbdae4e30	-0.08511007
111	0xbdbf264e	-0.09333478
112	0xbd0cd3d8	-0.034381717
113	0x3d88f009	0.06686408
114	0xbd112547	-0.03543594
115	0x3d6abea9	0.057310734
116	0xbd8ceb23	-0.06880786
117	0x3b8459ea	0.004039039
118	0xbd9db9ad	-0.077014305
119	0xbcfe4b9a	-0.031041909
120	0xbd834e19	-0.0641138
121	0xbd638b13	-0.055552553
122	0x3d385613	0.04500396
123	0x3dc3093a	0.09523244
124	0x3d244b45	0.040110845
125	0x3d1755d5	0.03694709
126	0x3d0d4984	0.034493938
127	0x3d8bc0f7	0.068239145

feature.4.weight f4 [128, 128]
0	0x3c9aed9d	0.018912131
1	0x3ddc3819	0.10752887
2	0xbd0e9d37	-0.0348179
3	0xbd24df1b	-0.040251832
4	0x3d0dc059	0.034607265
5	0xbd5362b9	-0.05160782
6	0xbcbb1ea8	-0.022841766
7	0x3d7671c8	0.060167104
8	0x3c2ff848	0.010740347
9	0x3d4db78b	0.05022387
10	0xbd4fd822	-0.05074323
11	0x3d9e7c00	0.07738495
12	0x3d739b53	0.0594743
13	0x3d06192b	0.032738846
14	0xbd9da01e	-0.076965556
15	0xbc25f918	-0.010130189
16	0x3dbb213f	0.091372006
17	0xbb9f6cb6	-0.0048652543
18	0x3d881a9e	0.06645702
19	0x3d3872d4	0.045031384
20	0x3c8d976c	0.017284118
21	0xbd01bd7c	-0.031674847
22	0x3dc40fa2	0.09573294
23	0xbd6f7c52	-0.05846817
24	0xbd5a1da6	-0.05325093
25	0x3db35380	0.08756161
26	0xbd1b82b9	-0.037966464
27	0xbdadfc05	-0.084953345
28	0x3bd9edd7	0.006650667
29	0x3d5a53fc	0.05330275
30	0xbd84ecaf	-0.06490456
31	0x3dbffc28	0.09374267
32	0xbd4d79c4	-0.050164953
33	0x3d926fdd	0.071502425
34	0x3d8d2574	0.06891909
35	0x3d1bc2bb	0.038027506
36	0xbd3ca05a	-0.04605136
37	0xbcadbe7f	-0.021209
38	0xbc2cc26b	-0.0105444
39	0xbd2782b3	-0.04089613
40	0xbc530f8f	-0.012882127
41	0x3d882c4e	0.066490754
42	0xbaec915f	-0.0018048695
43	0x3c3881fa	0.011261458
44	0x3db794d6	0.08963935
45	0x3d0c6943	0.034280073
46	0x3d536b4d	0.051616002
47	0x3d89a2ab	0.067204796
48	0xbda876e9	-0.08225805
49	0x3d9b4185	0.07580856
50	0x3d42e14c	0.04757814
51	0xbd3a47a9	-0.045478497
52	0x3d89f2b2	0.067357436
53	0xbced5861	-0.028972806
54	0x3c30283e	0.010751782
55	0x3d7098fa	0.05873964
56	0x3c376a23	0.011194739
57	0xbd5ecd31	-0.054394905
58	0xba6ebf82	-0.00091075164
59	0x3daa4c79	0.08315367
60	0x3c95e9ab	0.018299898
61	0xbcaee8fd	-0.021351332
62	0xbd80b1a6	-0.06283884
63	0x3c9da6bc	0.019244544
64	0x3da5c873	0.08094873
65	0xbd67c5c3	-0.056585085
66	0x3c845f5c	0.016158752
67	0x3d4b49a9	0.049630795
68	0x3d50e671	0.051001016
69	0xbceecbfc	-0.029150002
70	0x3c17d82b	0.009267847
71	0xba658bb2	-0.0008756473
72	0x3c8cee6c	0.017203532
73	0x3d3d9208	0.046281844
74	0xbd29f2e6	-0.04149141
75	0xbd30d1a6	-0.043168686
76	0xbd9c09c6	-0.07619052
77	0xbda23088	-0.07919413
78	0xbd4c1a1f	-0.0498296
79	0xbdaf0fb2	-0.085479155
80	0xbdb1f021	-0.08688379
81	0xbd81bf4a	-0.063353136
82	0xbda9bea5	-0.08288316
83	0x3d8d9d4f	0.0691477
84	0x3d953b85	0.07286743
85	0x3dd7dcee	0.10540186
86	0x3cbd72df	0.023126064
87	0xbc4df9e6	-0.012571787
88	0x3d2e582d	0.04256456
89	0x3d145bc7	0.03622034
90	0x3dc050b7	0.09390395
91	0x3bed418a	0.007240479
92	0x3d950117	0.072755985
93	0x3d009f5b	0.031401973
94	0xbc13af3e	-0.009013949
95	0xbc97a0da	-0.018509317
96	0x3de78bfd	0.113059975
97	0x3cbb6472	0.022875044
98	0xbd37873c	-0.044806704
99	0x3b95085e	0.0045481166
100	0xbd34ba04	-0.04412271
101	0x3d6935e9	0.05693618
102	0x3cd6e476	0.026231986
103	0x3ddbbcb9	0.10729355
104	0x3db0ae28	0.08626968
105	0x3ca53331	0.020166012
106	0x3cd3c2c1	0.025849702
107	0xbd6afb14	-0.057368353
108	0xbcee5a2e	-0.029095735
109	0x3cca1f90	0.024673253
110	0xbd160a8e	-0.03663116
111	0xbcda5320	-0.026650965
112	0xbd8c3a6a	-0.06847079
113	0x3d4abc0b	0.049495738
114	0xbd0db27c	-0.034594044
115	0xbb97b7dc	-0.004630072
116	0x3c2cf740	0.010556996
117	0x3c9bdf74	0.01902745
118	0x3c8cb914	0.017178096
119	0x3d684d33	0.056714248
120	0xbd9db6ca	-0.0770088
121	0x3d2eea6d	0.042704035
122	0x3dbe693a	0.09297414
123	0xbd413f90	-0.04717976
124	0x3c342b0b	0.01099659
125	0xbc1ac7b5	-0.009447028
126	0x3cbd8670	0.023135394
127	0xbcf29e6f	-0.029616563
128	0xbd5e5c92	-0.0542875
129	0xbd5e2bce	-0.054240994
130	0xbd02765a	-0.03185115
131	0xbcab6929	-0.020924168
132	0xbda37905	-0.07982067
133	0xbc57f821	-0.013181717
134	0x3db1242f	0.086494796
135	0xbd1a866d	-0.037725855
136	0x3dbee4a0	0.093209505
137	0xbd252be3	-0.040325057
138	0x3ddd019f	0.10791325
139	0xbda1d23f	-0.079014294
140	0x3ccc5e0b	0.024947187
141	0x3d8d68fc	0.0690479
142	0x3d5ecb6c	0.054393217
143	0xbdd3e513	-0.10346427
144	0xbccc8fbe	-0.024970885
145	0x3d81d59f	0.06339573
146	0x3c7fa50d	0.015603316
147	0x3db7e82e	0.08979832
148	0x3dbcd311	0.09219945
149	0xbd3be77f	-0.04587507
150	0x3d8f9257	0.07010334
151	0x3d9000e2	0.070314184
152	0xbda7dd9e	-0.08196567
153	0x3d0b9d21	0.034085397
154	0x3d6bed41	0.05759931
155	0x3d288591	0.041143004
156	0x3c247605	0.010037904
157	0xbc3d9eb3	-0.011573481
158	0x3a936b70	0.0011247229
159	0xbc96be57	-0.018401308
160	0x3d4081e5	0.046998877
161	0xbc8a3a6d	-0.016873563
162	0x3d24578e	0.04012256
163	0x3d9b3f88	0.07580477
164	0x3c25fc56	0.010130962
165	0xbca9183b	-0.020641437
166	0x3ca4e3f1	0.020128222
167	0x3dabc42e	0.08387028
168	0x3b9881a9	0.0046541286
169	0x3da4c5ad	0.08045516
170	0x3d22adee	0.039716654
171	0xbcd02c0d	-0.02541163
172	0xbd10bf05	-0.03533842
173	0x3d78f2de	0.06077849
174	0xbc1906bd	-0.009339985
175	0xbb3bad28	-0.0028637145
176	0xbd62cc67	-0.055370715
177	0x3d1b81f0	0.037965715
178	0x3ca4f145	0.020134578
179	0x3d93c59c	0.07215425
180	0xbc42de66	-0.011893844
181	0xbb80ec04	-0.0039343853
182	0xbd46f92e	-0.04857748
183	0x3d6835c0	0.056691885
184	0x3d60d9b9	0.054895137
185	0x3dd5f4c2	0.104470745
186	0xbd60deca	-0.05489997
187	0x3c96407a	0.018341292
188	0x3cf77ee3	0.030211871
189	0x3c8ba089	0.017044323
190	0x3db310c2	0.08743431
191	0x3d68f414	0.056873396
192	0x3d84362b	0.06455644
193	0xbc941df3	-0.018080687
194	0xbdb5b261	-0.08871914
195	0x3c865dee	0.016402211
196	0x3c1fb656	0.009748062
197	0xbd7e0fde	-0.06202685
198	0xbc13a897	-0.009012363
199	0xbdb1bc40	-0.08678484
200	0x3d1de1b4	0.038545325
201	0x3cd94ee0	0.026526868
202	0x3d60bfee	0.05487054
203	0xbdca572f	-0.0987991
204	0x3d5c0453	0.05371506
205	0xbd59b923	-0.053155076
206	0x3d9aa6da	0.07551356
207	0xbd5fee6a	-0.05467073
208	0xbd4fbee7	-0.050719168
209	0xbd0faf9d	-0.035079587
210	0xbc3cb903	-0.01151872
211	0xba363df1	-0.0006951979
212	0xbd826113	-0.06366172
213	0xbd813754	-0.06309381
214	0xbd323f8e	-0.04351764
215	0xbd040250	-0.032228768
216	0x3c3ef543	0.011655155
217	0x3d2b675f	0.04184663
218	0xbd7bd899	-0.06148586
219	0x3d105ea3	0.035246503
220	0xbd5e7b1e	-0.054316632
221	0xbb288efe	-0.0025719996
222	0x3d9d69b7	0.07686179
223	0x3da185b9	0.07886834
224	0x3b61f5be	0.003447875
225	0xbcedffb3	-0.029052591
226	0x3db612f1	0.088903315
227	0x3d2d1be3	0.042262923
228	0x3dc2a1b3	0.09503498
229	0xbdd0d6fe	-0.101972565
230	0x3d128aab	0.035776775
231	0xbd71ce61	-0.05903471
232	0xbd42ade2	-0.04752911
233	0x3d7f3fc2	0.062316664
234	0x3dbff822	0.093734995
235	0xbda0367d	-0.07822893
236	0x3da0ee44	0.078579456
237	0x3d78c295	0.060732443
238	0xbc1fd41c	-0.009755161
239	0xbd9026fe	-0.07038687
240	0x3d6fbb17	0.058528032
241	0xbc07d06e	-0.00828944
242	0xbda0805b	-0.07836982
243	0x3d95004c	0.07275447
244	0xbceb5422	-0.028726641
245	0xbd0b2c7b	-0.033977967
246	0x3d825f16	0.063657925
247	0xbc50fe32	-0.012755917
248	0x3dc0efa0	0.09420705
249	0x3d225706	0.039633773
250	0x3dad13c8	0.084510386
251	0x3c86f2e5	0.016473243
252	0x3c810a33	0.015751934
253	0xbd23a1e3	-0.03994931
254	0x3d300264	0.04297103
255	0x3d088dd5	0.033338387

feature.4.bias f4 [128]
0	0x3c2b502b	0.010456125
1	0x3d951e34	0.072811514
2	0xbd806873	-0.06269922
3	0xbdbcb8f1	-0.09214962
4	0x3db550b0	0.088532805
5	0xbd5ab441	-0.05339456
6	0xbce1782a	-0.027523119
7	0x3c07b8a2	0.008283766
8	0x3daa0985	0.08302597
9	0x3bf062c1	0.007335991
10	0xbd235ef7	-0.039885487
11	0x3c2167e0	0.009851426
12	0x3c9ca123	0.019119805
13	0xbd35862b	-0.044317406
14	0x3d2b9927	0.041894104
15	0x3dcec64c	0.10096416
16	0xbd7d24e7	-0.06180277
17	0x3d83453a	0.06409688
18	0x3c938576	0.018007975
19	0x3de10a78	0.10988325
20	0xbd22642a	-0.039646305
21	0xbd6427a3	-0.055701863
22	0x3a8e976e	0.001087887
23	0x3d8c144b	0.06839808
24	0xbd0217c1	-0.031760935
25	0x3dd2c38c	0.10291204
26	0x3cf32c0d	0.029684091
27	0xbdade166	-0.08490257
28	0xbbeedb72	-0.0072893435
29	0xbda157d1	-0.07878078
30	0xbc1d68cd	-0.009607506
31	0xbd97e487	-0.07416635
32	0x3d474dca	0.04865817
33	0x3c919e9f	0.017775832
34	0x3d8f8bd8	0.07009095
35	0x3c3d0072	0.011535751
36	0x3ce40d0b	0.02783825
37	0x3d99f38c	0.07517156
38	0xbd7798dc	-0.060448512
39	0x3c6dde1d	0.014518288
40	0xbd85ec33	-0.06539192
41	0x3db957ef	0.09049975
42	0xbd8f3748	-0.06992966
43	0xbd9127e0	-0.07087684
44	0x3be4787f	0.006972372
45	0xbdb30115	-0.08740441
46	0x3d3497ca	0.04409007
47	0xbd9eee22	-0.07760264
48	0xbd91f173	-0.07126131
49	0x3d9a3c6f	0.07531058
50	0xbd9c0862	-0.076187864
51	0x3dc79f42	0.09747173
52	0x3d7609a3	0.060067784
53	0x3d8cfce3	0.06884172
54	0x3c69248a	0.014229903
55	0xbcc11b12	-0.023572478
56	0xbd1269bd	-0.03574537
57	0x3cea3dc2	0.028593902
58	0x3d8aee05	0.0678368
59	0x3c52a218	0.012856029
60	0xbbc5bbb9	-0.006034341
61	0x3d9615c6	0.07328372
62	0x3cd7837b	0.026307812
63	0xbd9795c1	-0.0740161
64	0xbd607211	-0.054796282
65	0x3d4f4f2e	0.05061262
66	0x3da76c91	0.08175004
67	0x3c75011c	0.014953878
68	0xbd2a40ae	-0.04156559
69	0x3da94fb3	0.082671545
70	0xbd656e5b	-0.056013446
71	0x3db6b516	0.08921258
72	0x3d38d008	0.04512027
73	0x3ca99af5	0.020703772
74	0xbbc5a7bd	-0.006031959
75	0xbd271fc7	-0.04080179
76	0xbc154a8a	-0.00911201
77	0x3d9081bb	0.07055994
78	0xbc22a3a3	-0.009926709
79	0x3d25f35f	0.0405153
80	0x3dd47b09	0.103750296
81	0xbd378348	-0.044802934
82	0x3cba15ab	0.02271541
83	0x3d283c38	0.041073054
84	0x3bfc48c8	0.007699106
85	0x3d6debf9	0.05808637
86	0x3de09b84	0.10967162
87	0xbcc7263b	-0.024310222
88	0x3c842e0e	0.016135242
89	0x3d96a17c	0.073550195
90	0x3d37c78e	0.044868045
91	0x3ccc8696	0.02496652
92	0xbd5f4762	-0.054511435
93	0x3d15852a	0.03650395
94	0xbd6a8f63	-0.05726565
95	0x3daf01cc	0.085452646
96	0x3d8173a2	0.06320883
97	0x3c5f1a07	0.013617045
98	0xbc9c7e7e	-0.019103285
99	0x3d8ecada	0.069722846
100	0xbd87122a	-0.065952614
101	0x3d94e8a6	0.07270937
102	0x3cddb5c9	0.027064221
103	0x3db61dee	0.088924274
104	0x3abba582	0.0014316293
105	0x3d564b9f	0.05231821
106	0xb9e707cc	-0.00044065563
107	0x3c9fa851	0.01948944
108	0xbdb86957	-0.09004467
109	0xbd5ea33e	-0.0543549
110	0x3dee6e63	0.11642148
111	0xbd9b2eb0	-0.07577264
112	0x3d9a3edb	0.0753152
113	0x3d73effe	0.059555046
114	0x3ccaea8a	0.02477004
115	0xbc0da463	-0.00864515
116	0xbd432159	-0.047639225
117	0x3d52d71d	0.05147468
118	0xbc3cba7f	-0.0115190735
119	0xbb8902cd	-0.004181242
120	0x3d209e06	0.039213203
121	0xbd5c07c1	-0.053718332
122	0x3bc8add4	0.0061242376
123	0x3da20773	0.07911577
124	0x3cecdcac	0.028913818
125	0x3d0c7047	0.034286764
126	0x3d4d100a	0.050064124
127	0x3c1b1ba9	0.009467044

actor_mean.0.weight f4 [128, 128]
0	0x3c9ad0da	0.018898416
1	0xbb6673ec	-0.003516431
2	0x3d964799	0.07337875
3	0x3cf2e3fd	0.029649729
4	0xbd84fe94	-0.064938694
5	0xbd0f3e96	-0.034971796
6	0xbce1b6bb	-0.027552953
7	0x3b8c467d	0.004280864
8	0xbbf701a0	-0.0075380355
9	0xbd432c26	-0.047649525
10	0xbd5c8e81	-0.05384684
11	0x3d8e979a	0.069625095
12	0x3dbd5feb	0.092468105
13	0xbd9ab9fa	-0.075550035
14	0x3c73cdff	0.014880656
15	0xbd0a8847	-0.03382137
16	0x3d969de2	0.073543325
17	0xbd489340	-0.048968554
18	0xbcd47071	-0.025932522
19	0xbd649899	-0.05580959
20	0x3cea00fe	0.028564926
21	0x3dab4f4b	0.08364733
22	0x3d6132d3	0.05498011
23	0x3b9cfe5d	0.0047910647
24	0xbca09757	-0.019603414
25	0x3d884fc8	0.06655842
26	0x3d6be61e	0.057592504
27	0x3d4183ae	0.04724472
28	0xbd91d402	-0.071205154
29	0xbd65d329	-0.05610958
30	0xbd942730	-0.07234037
31	0xbd9048ad	-0.07045112
32	0xbd56b859	-0.0524219
33	0xbd9e93b4	-0.07743016
34	0x3d877783	0.06614592
35	0x3d7b65d2	0.0613764
36	0xbd7e71d9	-0.062120292
37	0x3d37e054	0.04489167
38	0xbb986519	-0.0046507237
39	0xbd6a11bc	-0.05714582
40	0x3d81b422	0.06333186
41	0x3d79c6e7	0.060980704
42	0x3c2b3d45	0.0104516195
43	0x3cec4a10	0.02884391
44	0xbd13fe01	-0.03613091
45	0x3ce9e920	0.028553545
46	0x3c1103b8	0.008850984
47	0x3d49a616	0.049230658
48	0xbcbaa33a	-0.02278291
49	0x3cef5de1	0.02921957
50	0xbd80a014	-0.062805325
51	0x3da60a7c	0.081074685
52	0xbc62796a	-0.013822893
53	0x3c8e7f33	0.017394638
54	0xbcc41699	-0.023936557
55	0xbd734aba	-0.059397437
56	0x3a3cf519	0.0007208153
57	0x3ccce634	0.025012113
58	0x3d9d4d60	0.07680774
59	0xbc5adc6f	-0.0133582195
60	0xbdb4b61d	-0.08823798
61	0xbd5d7d5f	-0.05407464
62	0x3d77e72a	0.06052319
63	0xbd3feb3c	-0.046855196
64	0xbcbf5aee	-0.023358788
65	0xbd8539b4	-0.065051466
66	0xbdac6a69	-0.084187336
67	0xbce267cc	-0.027637385
68	0xbd95c512	-0.07312979
69	0x3d5a486b	0.05329172
70	0x3d13ae8c	0.036055133
71	0xbc811aa9	-0.015759783
72	0xbda1bd06	-0.078973815
73	0xbd80d26b	-0.06290134
74	0x3d9def62	0.07711674
75	0x3dba7429	0.09104187
76	0x3d2e411d	0.042542566
77	0xbd406b19	-0.046977136
78	0x3c2d205e	0.010566799
79	0x3cea8ce5	0.028631637
80	0x3be34260	0.0069354028
81	0xbbbb65c1	-0.005718917
82	0x3cedf50a	0.029047508
83	0xbb93ed7a	-0.0045143934
84	0x3dbedf30	0.093199134
85	0xbcb8ea26	-0.022572588
86	0xbd51d79d	-0.051231015
87	0x3d5aac93	0.053387236
88	0x3ca1e40b	0.01976206
89	0x3ce6725d	0.028130705
90	0xbc5716b2	-0.01312797
91	0x3c00d7ef	0.007863983
92	0x3d45132f	0.048113998
93	0x3d78cbe1	0.06074131
94	0xbbeea3e0	-0.007282719
95	0xbd3f198a	-0.046655215
96	0xbd85efe1	-0.06539894
97	0xbce8a646	-0.028399598
98	0x3d19dbea	0.037563242
99	0xbd9243b7	-0.07141822
100	0xbd6af380	-0.057361126
101	0xbd25fed4	-0.040526226
102	0x3d97adb6	0.074061796
103	0x3d85cfd4	0.06533781
104	0xbabec7ec	-0.0014555431
105	0x3cad368c	0.021144174
106	0x3db5fefc	0.08886525
107	0x3d5272de	0.051379077
108	0x3d6e5489	0.058186088
109	0x3da7d5c1	0.08195067
110	0xbd76ac09	-0.06022266
111	0x3d6064d8	0.054783672
112	0xbc5ed42e	-0.013600392
113	0xbd36548e	-0.04451423
114	0xbce0f310	-0.027459651
115	0x3d0c5d67	0.034268763
116	0x3bc3144d	0.005953348
117	0xbc0fb0f7	-0.008770219
118	0x3c20f7cb	0.009824703
119	0x3cc97853	0.024593508
120	0xbd155bba	-0.03646443
121	0x3dc2ad8e	0.09505759
122	0x3d26cfbc	0.040725455
123	0x3c553ce8	0.013015009
124	0xbdc8decd	-0.09808121
125	0x3b1171d1	0.0022193084
126	0x3d159e58	0.03652796
127	0xbc9bbd71	-0.019011231
128	0x3d89e3a9	0.06732876
129	0x3d111b68	0.035426527
130	0xba1d5856	-0.0006002238
131	0xbc349bc4	-0.011023466
132	0x3aabba02	0.0013101699
133	0xbc714f3b	-0.014728363
134	0xbcc9f64b	-0.024653574
135	0xbd983bf5	-0.07433311
136	0xbd21b55a	-0.03947959
137	0x3d88d49d	0.06681178
138	0x3b450efe	0.003006875
139	0xbd872935	-0.065996565
140	0x3cfb8604	0.030703552
141	0x3bcee0b0	0.006313406
142	0xbdb256ab	-0.08707937
143	0xbd87e79c	-0.06635973
144	0x3dab7011	0.08370984
145	0xbd417514	-0.047230795
146	0x3cb60780	0.022220373
147	0x3d0f55d3	0.034993958
148	0xbd8f9cf5	-0.07012359
149	0xbc8c2e0e	-0.017111804
150	0xbc8c9616	-0.01716141
151	0xbc1c6f10	-0.009547964
152	0x3cd9d9e5	0.026593158
153	0xbd1b314f	-0.03788882
154	0xbcc752db	-0.0243315
155	0x3d99e051	0.07513488
156	0x3d5dbfa7	0.054137852
157	0xbca9622b	-0.020676693
158	0xbcc11928	-0.023571566
159	0x3da01eb6	0.07818358
160	0x3dbeec8d	0.09322462
161	0x3cfb24e7	0.030657245
162	0xbd0bd736	-0.034140788
163	0x3d9c460a	0.076305464
164	0x3d1b5516	0.03792294
165	0x3d0054c9	0.031330857
166	0xbd4e506e	-0.050369672
167	0xbda646c3	-0.081189655
168	0x3d882c30	0.06649053
169	0xbc71f95d	-0.0147689255
170	0xbcc2cf2c	-0.023780428
171	0xbdb32e1f	-0.08749031
172	0x3d44fb51	0.048091237
173	0xbcab40db	-0.020904949
174	0x3c0c669e	0.008569388
175	0x3c6bb2f8	0.014385931
176	0xbd86466a	-0.06556399
177	0xbcdd70eb	-0.027031383
178	0xbd78d0e0	-0.060746074
179	0x3d318f8d	0.04334979
180	0xbd547102	-0.051865585
181	0x3d0f923e	0.035051577
182	0xbd1587f5	-0.03650661
183	0xbd131663	-0.03591002
184	0xbbf84b02	-0.007577301
185	0x3d461465	0.048359293
186	0x3d482747	0.048865583
187	0x3af0c6ae	0.0018369758
188	0x3d572771	0.05252785
189	0xbc43e8b8	-0.01195734
190	0x3d8d497c	0.06898782
191	0xbd877f61	-0.066160925
192	0xbcf4457e	-0.029818293
193	0xbdae5a0a	-0.08513267
194	0x3d729e7b	0.05923317
195	0xbcc777d6	-0.024349134
196	0xbc8dfbb2	-0.017331932
197	0xbd836eaa	-0.06417592
198	0x3d476020	0.048675656
199	0xbbbda50d	-0.005787498
200	0xbdc61384	-0.09671691
201	0x3c4ceb05	0.012507205
202	0x3c9e98e9	0.019360023
203	0x3b29880d	0.0025868446
204	0x3d5f0c64	0.054455176
205	0xbd5f4809	-0.054512057
206	0x3cf8f598	0.030390546
207	0x3db72427	0.089424424
208	0x3d25b361	0.040454272
209	0x399ae900	0.00029546767
210	0xbd14bd63	-0.036313426
211	0xbd457f7e	-0.04821729
212	0x3da4a553	0.080393456
213	0xbda2c30e	-0.0794736
214	0xbcf126c4	-0.02943743
215	0x3cfa949e	0.030588444
216	0x3d70d272	0.058794446
217	0x3cc49bbb	0.02400004
218	0x3c950eba	0.018195499
219	0xbc8ea7d6	-0.017414015
220	0xbd1e7b2b	-0.03869168
221	0x3d1a4449	0.037662778
222	0x3d4d8148	0.05017212
223	0x3d8b502b	0.068024
224	0xbdbd378c	-0.0923911
225	0xbdaa693a	-0.083208516
226	0x3d16cdf1	0.036817495
227	0xba347222	-0.0006883462
228	0x3d6c2fb9	0.0576627
229	0xbd095574	-0.03352876
230	0xbd6b6f73	-0.057479333
231	0x3d28dc74	0.041225865
232	0x3d40e9d7	0.047098007
233	0xbdcd6f3e	-0.100309834
234	0x3d4752c2	0.04866291
235	0x3d01201f	0.031524774
236	0x3d7b3c28	0.061336666
237	0x3d1b1f32	0.037871547
238	0x3d80dc4a	0.06292017
239	0xbca58358	-0.020204231
240	0x3d211b97	0.039332952
241	0xbcb8c29a	-0.02255373
242	0x3d016c01	0.03159714
243	0x3d32d412	0.043659277
244	0x3ca07a87	0.019589676
245	0x3d6d20cf	0.057892617
246	0xbd10fe89	-0.035398994
247	0x3d6690d9	0.05629048
248	0x3d5456dd	0.05184065
249	0xbd27279b	-0.040809255
250	0x3d899d85	0.067194976
251	0xbd7eee41	-0.062238935
252	0xbda6ffec	-0.08154282
253	0xbcd73bf6	-0.026273709
254	0x3d696321	0.056979302
255	0x3d1fa3d0	0.038974583

actor_mean.0.bias f4 [128]
0	0x3d234042	0.039856203
1	0xbc623fb8	-0.013809137
2	0x3db0359e	0.08603977
3	0xbdb16070	-0.08660972
4	0x3d10c1d2	0.03534109
5	0xbd94645a	-0.07245703
6	0x3bd10ae7	0.0063794735
7	0x3d0d7e3c	0.034544215
8	0x3d0aea5a	0.0339149
9	0xba810a46	-0.0009844981
10	0xbd0a2b73	-0.033732843
11	0xbd886fe4	-0.066619664
12	0xbd95ae70	-0.07308662
13	0x3d9fe503	0.078073524
14	0xbb0e99e2	-0.0021759202
15	0xbd2a10d6	-0.041519962
16	0xbd651b74	-0.055934384
17	0xbc84b530	-0.016199678
18	0x3d8f5b7c	0.06999871
19	0xbda82e12	-0.08211912
20	0xbba7d556	-0.005121867
21	0xbd4ab5d3	-0.049489807
22	0xbd581866	-0.052757643
23	0xbd8236da	-0.06358118
24	0x3d815c9f	0.06316494
25	0x3db31d50	0.08745825
26	0x3d7e50c5	0.062088747
27	0xbcafdd43	-0.02146781
28	0xbda3f380	-0.08005428
29	0x39bbeee2	0.000358454
30	0x3d8093a6	0.06278162
31	0xbabee12e	-0.0014562958
32	0x3ccf763d	0.025324935
33	0xbd815aef	-0.06316172
34	0xbd38e563	-0.045140635
35	0xbb52bb20	-0.0032154992
36	0xbd9ba703	-0.07600214
37	0x3ce73e85	0.028228054
38	0xbd5fd652	-0.05464775
39	0x3d33da66	0.043909453
40	0xbccc25c0	-0.024920344
41	0xbc42a089	-0.011879095
42	0x3da3ec07	0.08004003
43	0xbc8972c8	-0.016778365
44	0x3d33e2ba	0.043917395
45	0xbd51f598	-0.051259607
46	0x3d5dfb2c	0.054194614
47	0xbd72aa12	-0.059244223
48	0xbda75c84	-0.08171943
49	0x3d58a578	0.05289218
50	0xbd9ddcbc	-0.07708117
51	0x3d7d1ca9	0.06179491
52	0xbac1fdee	-0.0014800408
53	0xbcaf2daf	-0.021384088
54	0x3d3b00e5	0.04565515
55	0xbd7fe387	-0.062472846
56	0x3dad4f3e	0.0846238
57	0x3d9954e9	0.074868985
58	0xbda9c6b3	-0.08289852
59	0x3daa9b5b	0.08330413
60	0xbdb38ccb	-0.087670885
61	0x3c807b30	0.01568374
62	0x3d9404a7	0.0722745
63	0xbd327b2e	-0.043574505
64	0xbd6bb4ed	-0.05754559
65	0x3dafbf52	0.08581413
66	0x3c1c0b4f	0.009524181
67	0x3da2a52a	0.07941659
68	0xbd913581	-0.07090283
69	0x3da56313	0.080755375
70	0x3d98e59d	0.0746567
71	0xbd09cc69	-0.033642206
72	0x3d84cf1c	0.064848155
73	0xbc29debe	-0.010368047
74	0x3daaeea7	0.083463006
75	0xbd9a82f6	-0.0754451
76	0xbd641dbd	-0.055692423
77	0xbd78bdb9	-0.06072781
78	0xbd68c156	-0.056825005
79	0x3d9bb399	0.07602615
80	0xbc23777f	-0.009977221
81	0x3cb29295	0.021798411
82	0x3d03e7c7	0.032203462
83	0xbd5c6204	-0.053804412
84	0x3db38b31	0.08766783
85	0xbb4b8065	-0.003105187
86	0xbd34979f	-0.04408991
87	0xbd5bc4b8	-0.053654402
88	0xbca5f61d	-0.020258958
89	0x3d1b07da	0.037849285
90	0xbdb4c577	-0.08826726
91	0xbd0e28d1	-0.034706894
92	0x3d950be0	0.072776556
93	0x3da7bab1	0.081899054
94	0x3d0c5d92	0.034268923
95	0xbba0c326	-0.004906076
96	0x3d8794b5	0.066201605
97	0x3c8a29d6	0.016865652
98	0xbd36b6c1	-0.04460788
99	0xbd43a722	-0.047766812
100	0x3d665645	0.056234617
101	0x3d54bbef	0.05193704
102	0xbdb645a8	-0.089000046
103	0xbc3b3387	-0.011425859
104	0xbda498c8	-0.08036953
105	0xbcbb53be	-0.02286708
106	0xbcd47a23	-0.025937146
107	0x3ca9e574	0.020739295
108	0x3cd014fa	0.025400627
109	0xbdb4e232	-0.08832206
110	0x3ce4c227	0.02792461
111	0x3db19ede	0.0867288
112	0xbd31c553	-0.043401074
113	0x3cf72dad	0.030173147
114	0x3d7befef	0.061508115
115	0x3d265ac5	0.04061391
116	0x3c66cfb6	0.014087608
117	0x3d80a8b9	0.06282181
118	0x3ce53bf9	0.027982699
119	0xbd3f1f20	-0.046660542
120	0x3d0a30eb	0.033738058
121	0x3da0156d	0.07816587
122	0x3d7c1e66	0.061552428
123	0x3d8973ed	0.06711564
124	0xbcc82347	-0.024430884
125	0xbd302a8b	-0.043009322
126	0xbcf1c2b7	-0.029511793
127	0xbd7ff34b	-0.06248788

actor_mean.2.weight f4 [2, 128]
0	0x3dbf1aa7	0.093312554
1	0x3c151ea0	0.00910154
2	0xbd9bf1fe	-0.07614516
3	0x3bf858b1	0.007578932
4	0xbc86e552	-0.01646677
5	0x3ce56f78	0.028007254
6	0x3c16a4b8	0.009194545
7	0xb957e08f	-0.00020587652
8	0x3dba62bc	0.09100863
9	0xbcc50591	-0.024050506
10	0xbda9780f	-0.082748525
11	0xbcb31d7b	-0.021864643
12	0x3cbf6cc6	0.023367297
13	0x3d7f7f66	0.062377356
14	0x3db52218	0.088443935
15	0xbd23a1bf	-0.039949175
16	0x3d06c176	0.032899342
17	0xbd8b90e7	-0.06814747
18	0xbd0930df	-0.033493873
19	0x3d9924f6	0.07477753
20	0x3d40704f	0.046982106
21	0x3d54f000	0.051986694
22	0xbd6ef3f5	-0.058338124
23	0xbd975b4d	-0.07390461
24	0x3d9f963c	0.07792327
25	0x3d0f2998	0.034951776
26	0xbd87b308	-0.066259444
27	0xbd36502f	-0.044510063
28	0x3ccbe3f7	0.024888976
29	0xbc4feec1	-0.012691201
30	0x3d14b947	0.036309507
31	0xbcefb0fa	-0.029259194
32	0x3d21ec5b	0.039532047
33	0xbd6fe534	-0.058568195
34	0x3ddec642	0.108776584
35	0x3cf535c4	0.029932864
36	0xbd21574a	-0.039389886
37	0x3d5093a6	0.05092206
38	0x3cc86570	0.024462432
39	0xbd515ee4	-0.051115885
40	0x3da39082	0.07986547
41	0xbd42c2e7	-0.047549155
42	0x3dc55d32	0.09636916
43	0xbd98d9ad	-0.07463393
44	0x3d2f8ece	0.0428608
45	0x3c758a4d	0.014986587
46	0x3d3e8bdc	0.0465201
47	0xbd04bdf6	-0.032407723
48	0x3d01101b	0.0315095
49	0x3ca7b737	0.020473106
50	0xbc8c1f8e	-0.01710489
51	0xbd946d60	-0.07247424
52	0xbd38defb	-0.045134526
53	0x3d5c51cf	0.053788956
54	0x3d0eb3bb	0.034839373
55	0x3d5a0b5c	0.05323349
56	0xbd35fbc4	-0.044429556
57	0xbdc257a1	-0.0948937
58	0xbdac33e7	-0.08408337
59	0x3c959b19	0.018262433
60	0xbd7d0b64	-0.06177844
61	0x3cd4330c	0.025903247
62	0x3d150238	0.03637907
63	0xbcc46f43	-0.023978835
64	0xbd96c913	-0.073625706
65	0x3beb1ce7	0.0071750763
66	0xbc8b404a	-0.016998429
67	0x3ce978a6	0.028499912
68	0xbda2288e	-0.079178914
69	0xbc95611d	-0.018234784
70	0xbd1b631d	-0.03793632
71	0x3c8e133e	0.01734316
72	0xbd66d49c	-0.056355104
73	0xbd0186da	-0.031622745
74	0xbd7e7e98	-0.062132448
75	0xbd9dd47c	-0.07706544
76	0xbda564bb	-0.080758534
77	0xbd18b4eb	-0.03728191
78	0xbd85f245	-0.0654035
79	0xbd257f10	-0.04040438
80	0x3d370102	0.044678695
81	0xbb1688b6	-0.002296967
82	0x3c41a861	0.01181993
83	0x3da3432b	0.07971796
84	0x3db04c12	0.08608259
85	0x3c44876e	0.01199518
86	0x3db599e6	0.088672444
87	0xbdaea308	-0.085271895
88	0xbd1c366f	-0.03813785
89	0xbd92702a	-0.071503
90	0xbd089414	-0.033344343
91	0xbd70725b	-0.058702808
92	0xbd8b873c	-0.06812903
93	0xbd97b1c3	-0.07406952
94	0x3b4390f2	0.0029841033
95	0x3a82f6bc	0.0009991745
96	0xbd7524df	-0.059849616
97	0x3b628464	0.0034563774
98	0x3c898d06	0.016790878
99	0x3d6b977d	0.057517517
100	0x3d2e17f5	0.042503316
101	0x3d1c7fc7	0.038207795
102	0x3d31c66b	0.043402117
103	0x3d9f73ed	0.07785783
104	0xbd3c0027	-0.045898583
105	0x3db8b77f	0.09019374
106	0xbd678145	-0.056519765
107	0xbd54145b	-0.051777225
108	0xbd977e6d	-0.07397161
109	0x3da8acfe	0.08236121
110	0x3d3cbc45	0.046077985
111	0x3db53165	0.08847312
112	0xbd566483	-0.05234195
113	0xbc070d19	-0.008242869
114	0x3d3101e5	0.043214697
115	0xbd57a352	-0.05264599
116	0x3cae0c3f	0.021246074
117	0xbd3d0327	-0.046145584
118	0x3d6c64ef	0.057713445
119	0x3dc81d28	0.09771186
120	0x3db0d98f	0.08635246
121	0xbc06281a	-0.008188272
122	0xbd03c53e	-0.032170527
123	0x3b811a5f	0.0039399113
124	0xbd85f938	-0.06541675
125	0xbcf1e0f4	-0.029526211
126	0x3d2fec04	0.04294969
127	0x3d665ef2	0.05624289
128	0x3cce6e0f	0.025198964
129	0xbd39c90b	-0.045357745
130	0xbdb1bd1d	-0.086786486
131	0x3ca80a8a	0.020512838
132	0x3d97a931	0.074053176
133	0xbd812f6e	-0.063078746
134	0xbd9c319f	-0.07626652
135	0xbd8661ae	-0.065616
136	0xbc838ed3	-0.016059315
137	0x3c7847c0	0.015153825
138	0xbda6036b	-0.08106121
139	0x3cb88797	0.022525592
140	0x3ce6a41f	0.02815443
141	0x3d912509	0.07087142
142	0x3da3de27	0.080013566
143	0xbd8b6166	-0.06805687
144	0xbc9d0759	-0.019168543
145	0xbd51f5d6	-0.051259838
146	0xbcedee5e	-0.029044326
147	0xbdb3bbb7	-0.08776038
148	0xbc800439	-0.015627014
149	0xbd7cbeb5	-0.06170531
150	0x3d03629d	0.032076467
151	0x3d35fa94	0.044428423
152	0x3dc65b88	0.09685427
153	0xbcd0377e	-0.025417086
154	0x3d963c0f	0.07335674
155	0x3d47e1dd	0.048799384
156	0xbd1ac15d	-0.03778206
157	0x3d7a40ec	0.06109707
158	0x3d4a539e	0.04939615
159	0xba7d62fa	-0.0009665933
160	0xbd688cc1	-0.05677486
161	0x3c617366	0.013760423
162	0x3d850eac	0.06496939
163	0xbd32909a	-0.043594934
164	0xbca3cb5d	-0.019994432
165	0xbd2b1f46	-0.04177787
166	0xbb9aca00	-0.0047237873
167	0x3d0b1727	0.033957627
168	0xbd4bdccc	-0.049771115
169	0xbd28a846	-0.041176103
170	0x3a96610e	0.0011473016
171	0xbd1cffc8	-0.03832987
172	0xbc2fc5f6	-0.01072835
173	0x3d9f0834	0.077652365
174	0x3d0e4e8c	0.034742877
175	0x3cb5437c	0.022126906
176	0xbd9cfe5c	-0.07665703
177	0xbca00d33	-0.019537544
178	0xbc6a7458	-0.014309965
179	0xbca11038	-0.019661054
180	0x3d90acd2	0.07064213
181	0xbcd28f37	-0.025703056
182	0x3c37a5f0	0.011208996
183	0x3da0446a	0.07825549
184	0x3d85469b	0.065076075
185	0xbd227192	-0.03965909
186	0xbd461402	-0.048358925
187	0xbdb78168	-0.08960229
188	0xbd0452ae	-0.032305412
189	0xbd7a2282	-0.061068065
190	0xbc46aecd	-0.012126637
191	0xbb018986	-0.0019765808
192	0xbd8b034a	-0.06787737
193	0x3d8ad003	0.06777956
194	0xbd99d06b	-0.07510456
195	0x3c33b1c4	0.010967676
196	0xbda818e6	-0.08207874
197	0x3cd134c6	0.02553786
198	0x3d8ac94a	0.06776674
199	0x3d1a5bbc	0.03768514
200	0x3d8a0844	0.06739858
201	0x3dbcbfa0	0.09216237
202	0x3d8117cd	0.06303368
203	0x3bda4c3d	0.0066619203
204	0xbda76a18	-0.08174533
205	0xbd62a45c	-0.055332527
206	0xbd967ee7	-0.073484235
207	0x3aa50433	0.0012589752
208	0xbc71c2d6	-0.014755925
209	0x3d43ece6	0.047833346
210	0x3d2703d8	0.04077515
211	0xbd898393	-0.06714549
212	0x3d459750	0.048240006
213	0x3c4835a5	0.012219821
214	0xbd7f13ba	-0.062274672
215	0xbbe30384	-0.0069279093
216	0xbd9f42f4	-0.07776442
217	0xbd044d9e	-0.032300584
218	0x3d78cf95	0.06074484
219	0x3d04cbd3	0.032420944
220	0xbcfc06c6	-0.030764949
221	0x3bdde579	0.00677174
222	0x3d1aa8f0	0.037758768
223	0x3d3249e9	0.043527517
224	0x3ca5020f	0.020142583
225	0x3cb4b40b	0.022058507
226	0x3db396c0	0.08768988
227	0xbd48fbdd	-0.04906832
228	0xbd80140b	-0.06253823
229	0x3db0f0ed	0.08639703
230	0xbd023e56	-0.03179773
231	0x3d271ca9	0.040798817
232	0xbd6b42ba	-0.057436682
233	0xbd0d5764	-0.03450717
234	0xbd3e1a2e	-0.046411686
235	0xbd8cca58	-0.068745315
236	0xba93b21d	-0.0011268292
237	0x3c47360b	0.012158881
238	0x3d50ed17	0.051007356
239	0x3b1fd964	0.002439105
240	0xbd9ad64d	-0.07560406
241	0xbd426c77	-0.04746672
242	0xbd962bc3	-0.07332566
243	0x3c87f6fd	0.016597265
244	0xbd9f5006	-0.07778935
245	0xbb48e3a2	-0.0030653258
246	0x3c98de53	0.0186607
247	0xbbb6cb89	-0.0055784625
248	0xbbf37f8a	-0.0074309753
249	0x3c2e8d4b	0.010653804
250	0xbc4031ee	-0.011730654
251	0xbdbdf7e1	-0.09275795
252	0x3db19adb	0.086721145
253	0x3b8fc46b	0.0043874285
254	0x3d66869f	0.05628073
255	0xbd5dd7b1	-0.054160777

actor_mean.2.bias f4 [2]
0	0xbd275a39	-0.040857527
1	0xbbf77331	-0.0075515737
